bird_discriminator_save.pth (torch, 677685 bytes, 12 tensors)

main.0.weight f4 [32, 3, 4, 4]
-0.02713409 0.008958256 -0.018856902 0.0037133934 0.0310132 0.010287226 0.019132787 -0.030909024
0.016935406 0.00750466 -0.010645903 0.005015371 0.005553831 0.026408462 -0.03528705 -0.025590047
-0.015060869 0.03894614 -0.010986344 -0.010289543 0.014361918 0.021740366 0.021101283 -0.05346886
-0.014278184 0.018963661 -0.008448057 -0.015214952 -0.0070780087 0.0026784677 -0.02279847 0.00032039883
-0.012963922 0.044457853 0.013523854 0.012214223 0.020032953 0.010088754 -0.0016551706 -0.03970027
0.011036741 -0.004370832 0.004257681 -0.023401495 -0.019750552 0.010738961 -0.016288612 -0.0073444652
-0.045440592 0.02351923 -0.012289 0.030861905 0.0020941216 -0.0055518453 0.009485859 0.005633426
0.0032005648 0.0014879062 0.0043123625 0.0103508895 -0.003737727 -0.012131341 0.022948539 -0.020721626
0.0047294265 -0.016453316 0.013398169 -0.021905169 -0.016982436 -0.01597172 0.025188778 -0.02338536
-0.009528544 0.02639609 0.003117057 0.015379142 -0.01855259 0.019993102 0.014225042 -0.015582995
0.0146631235 -0.004323967 -0.003984655 0.023334973 0.006755031 -0.025563395 -0.009476278 0.013949712
0.058503818 -0.025907664 -0.010378255 -0.02778739 0.009266613 0.0023076334 -0.027162693 0.020188637
-0.02291869 0.008696889 0.0089660175 -0.017858267 -0.0034237735 0.009723165 0.0232343 0.01370272
0.022760786 -0.011617283 -0.00024804272 -0.024068685 0.01988204 -0.024338337 0.016310168 -0.004382796
-0.004071208 -0.008192798 -0.00013919303 0.009848562 0.0007287946 -0.020337006 -0.0051733684 -0.009710894
0.003695659 0.0056368266 0.015457837 0.00043697873 -0.016840633 0.007121798 -0.0033266367 0.023492977
0.0029175163 0.034527242 -0.018856848 0.01120413 0.008457919 -0.009438217 0.0047597447 -0.026261134
-0.027420856 -0.026140677 -0.0031866648 0.037111532 0.027294913 -0.015715934 0.032130945 0.009677399
0.030713424 -0.002682193 -0.017119613 -0.01196574 -0.002388218 -0.008332246 0.0048659053 0.06657365
0.005669902 -0.037673164 0.009242017 -0.0048750364 0.0030887648 0.012051406 -0.006931125 -0.018451555
0.044593718 0.016326725 -0.042085636 -0.0022892747 0.033339683 -0.04854746 0.0013468094 0.04295286
-0.026116166 -0.017377794 -0.025178833 -0.012058032 -0.00024112625 -0.028231027 -0.007807124 -0.011418865
-0.006977276 -0.02884305 -0.016190153 0.013950895 0.019128866 0.024241678 0.00374713 0.032548778
-0.03741941 -0.0049305866 0.004759341 -0.015429613 -0.0028452233 0.014613304 0.03058718 -2.4857256e-06
-0.05584509 -0.010868406 -0.01294778 -0.013244765 -0.057387467 -0.044849638 -0.009754168 -0.0010252382
0.024353761 0.012781672 -0.01927687 0.035377327 0.0061738337 -0.019683104 0.030032037 0.034291856
0.015411801 -0.0047842385 -0.005287047 0.015430102 -0.00832776 0.010493225 -0.0019755522 -0.029381905
-0.027875816 -0.006341343 -0.0032029054 -0.011548151 0.055892084 -0.02530487 0.0017440513 0.053021125
-0.002993186 -0.012887875 -0.018171776 -0.017624931 -0.030507358 -0.027908532 -0.007673333 -0.013297668
0.0034060355 -0.024947863 0.01759679 0.0027305798 0.026876707 0.043696824 0.004481133 -0.01348382
0.00032646337 0.009208863 0.019231401 0.013081708 -0.028895522 -0.029874882 -0.01292128 0.010729269
0.051235978 8.4790445e-05 -0.039288785 0.00478012 -0.014245836 -0.010194537 -0.0051932996 -0.029114705
00000000: 5048 debc a6c5 123c ca79 9abc 675c 733b
00000010: 650f fe3c c18b 283c 5dbc 9c3c ec34 fdbc
00000020: 1fbc 8a3c a7e9 f53b 276c 2ebc fb57 a43b
00000030: e9fc b53b 8f56 d83c 2789 10bd 38a2 d1bc
00000040: ddc1 76bc fd85 1f3d 1100 34bc 7995 28bc
00000050: 404e 6b3c da18 b23c 99dc ac3c 2a02 5bbd
00000060: 0bef 69bc ae59 9b3c b869 0abc 2248 79bc
00000070: a4ee e7bb 3b89 2f3b dbc3 babc 34fb a739
00000080: a166 54bc 7019 363d 2893 5d3c 2a1e 483c
00000090: 261c a43c 4d4b 253c 4ff2 d8ba c09c 22bd
000000a0: 72d3 343c 3239 8fbb 0484 8b3b 7eb4 bfbc
000000b0: e9cb a1bc 78f2 2f3c b26f 85bc d7a9 f0bb
000000c0: ea1f 3abd 66ab c03c cd57 49bc 1bd2 fc3c
000000d0: 883d 093b 41ec b5bb 946a 1b3c 9a98 b83b
000000e0: 91c0 513b d905 c33a b84e 8d3b c796 293c
000000f0: a7f4 74bb 88c2 46bc 93fe bb3c 66c0 a9bc
00000100: 4ef9 9a3b 1bc9 86bc fe83 5b3c 7872 b3bc
00000110: c01e 8bbc 20d7 82bc b258 ce3c a892 bfbc
00000120: 9c1d 1cbc 9d3c d83c 8a47 4c3b ccf8 7b3c
00000130: 9afb 97bc 93c8 a33c 2710 693c d14f 7fbc
00000140: 993d 703c 10b0 8dbb b591 82bb fc28 bf3c
00000150: 4f59 dd3b 536a d1bc 6442 1bbc 558d 643c
00000160: b3a1 6f3d 4f3c d4bc 8e09 2abc 61a2 e3bc
00000170: fed2 173c aa3b 173b 4c84 debc a462 a53c
00000180: fabf bbbc 657d 0e3c 34e6 123c 804b 92bc
00000190: 6361 60bb e94d 1f3c dc55 be3c 6081 603c
000001a0: d474 ba3c 6b56 3ebc bb0b 82b9 b12b c5bc
000001b0: a9df a23c 3161 c7bc e79c 853c 8f9d 8fbb
000001c0: c567 85bb 163b 06bc 58f4 11b9 dd5b 213c
000001d0: 940c 3f3a cb99 a6bc 5c85 a9bb 711a 1fbc
000001e0: df32 723b 21b5 b83b de42 7d3c 4b1a e539
000001f0: 5ef5 89bc f95d e93b b403 5abb 5874 c03c
00000200: cd33 3f3b 706c 0d3d ad79 9abc 8791 373c
00000210: 1593 0a3c c0a2 1abc a2f7 9b3b 9721 d7bc
00000220: b4a1 e0bc f924 d6bc 5dd7 50bb 4302 183d
00000230: 9599 df3c b4be 80bc bd9b 033d f48d 1e3c
00000240: b89a fb3c bbc7 2fbb 6e3e 8cbc f30b 44bc
00000250: a683 1cbb f983 08bc 2c72 9f3b c457 883d
00000260: 96ca b93b 2d4f 1abd d46b 173c c5be 9fbb
00000270: e06c 4a3b 4373 453c 7e1e e3bb b727 97bc
00000280: e7a7 363d a0bf 853c fd61 2cbd a807 16bb
00000290: 318f 083d b4d9 46bd 6d87 b03a 57ef 2f3d
000002a0: 92f1 d5bc e05b 8ebc d743 cebc 0d8f 45bc
000002b0: d6d6 7cb9 c144 e7bc e7d2 ffbb 3116 3bbc
000002c0: a2a1 e4bb 4348 ecbc 36a1 84bc 4b92 643c
000002d0: 24b4 9c3c 7c96 c63c 6992 753b de51 053d
000002e0: 1845 19bd c290 a1bb 3ff4 9b3b 7dcc 7cbc
000002f0: ed76 3abb a46c 6f3c f791 fa3c 71d0 26b6
00000300: d2bd 64bd 6611 32bc ed22 54bc 9200 59bc
00000310: 1f0f 6bbd 41b4 37bd f2cf 1fbc 4961 86ba
00000320: 8a81 c73c 386a 513c 87ea 9dbc d1e7 103d
00000330: df4d ca3b 763e a1bc bf05 f63c 9e75 0c3d
00000340: c781 7c3c 1ac5 9cbb f73e adbb 8ace 7c3c
00000350: 2871 08bc c7eb 2b3c 4478 01bb 52b2 f0bc
00000360: d35b e4bc 0acb cfbb d6e7 51bb 7534 3dbc
00000370: 19ef 643d 294c cfbc a798 e43a ae2c 593d
00000380: 5429 44bb aa27 53bc fadc 94bc 2962 90bc
00000390: 91ea f9bc 6fa0 e4bc 9570 fbbb 76de 59bc
000003a0: cb37 5f3b 765f ccbc 2527 903c 87f3 323b
000003b0: 8a2c dc3c 71fb 323d 78d6 923b 3deb 5cbc
000003c0: 2c29 ab39 c5e0 163c 2c8b 9d3c a954 563c
000003d0: 4db6 ecbc 2bbc f4bc c7b3 53bc d1c9 2f3c
000003e0: d1dc 513d 86d1 b138 47ed 20bd 8ea2 9c3b
000003f0: 5e67 69bc fd06 27bc 8e2c aabb f681 eebc

main.2.weight f4 [64, 32, 4, 4]
-0.038739122 -0.009415315 0.0132072875 0.0078694755 -0.0029153072 -0.029623989 0.00432795 0.010267238
0.027122464 -0.02503102 -0.040930137 -0.012460304 -0.02517574 0.022329597 -0.003671693 -0.023609603
-0.033711407 -0.005172045 -0.021259213 -0.032174338 -0.016413782 0.010313815 0.046541553 -0.03201145
0.0018861039 0.0156139415 0.0055690035 0.014780377 -0.001882442 -0.0012468405 0.018906718 -0.050389178
-0.014462476 0.03331419 -0.02277054 -0.018025361 0.014895956 0.0010358137 -0.0050153346 -0.012501846
0.035780694 0.0012689921 0.014342191 -0.018621575 0.02121252 -0.001585888 0.003213072 -0.039178655
-0.024508826 -0.0068805167 -0.02721554 0.0023037659 -0.004571509 -0.0030237995 -0.032964695 -0.020888686
-0.0015124248 0.0059591183 -0.02194863 -0.010218481 -0.009539991 0.022469006 0.0061749886 -0.005326312
0.034207903 -0.009565537 -0.021286272 0.0025572022 -0.015849177 -0.010201159 0.026248205 0.010015421
0.031638622 0.052262917 0.009295378 0.0081830155 -0.0026428816 0.0056686453 -0.017816387 -0.02275339
-0.031358574 0.03373934 0.014886261 0.019770065 0.019308891 0.034927856 0.010305972 0.0039247926
-0.028121723 -0.0206123 -0.0040537263 0.025789568 0.012078119 -0.019995078 0.00057705573 0.031231025
-0.020318126 0.002676869 0.02440165 -0.0030562608 -0.013936729 -0.015620864 0.018968455 0.031300895
0.00838982 0.007612458 -0.0021172792 0.027042635 0.022298604 0.01261058 -0.008270555 -0.012525529
-0.01369307 0.027214978 0.015065032 -0.00056113664 0.036363695 0.010340443 0.033241097 0.016427455
-0.034690745 0.0049770484 -0.01020633 -0.0035813665 -0.032015342 -0.005639925 -0.028008 0.05896157
-0.005596738 0.021177132 -0.03596652 -0.02441928 -0.021757493 0.027095225 -0.00487642 0.040720984
0.021438306 0.009464363 0.0067050206 -0.025296338 -0.029576747 0.012879841 -0.011983518 -0.008051353
0.035129733 -0.015642159 0.030374307 0.0073188352 0.016493013 0.0002945482 -0.0014035763 -0.018241618
-0.014003546 -0.012415174 -0.012902499 -0.0015985761 0.03001195 0.035997897 -0.05315105 -0.005670193
-0.0050239195 -0.004301516 -0.026865372 -0.010975416 -0.00079545757 0.0022770544 -0.014256997 0.017833259
0.003991821 0.03164134 -0.006185539 -0.029316202 -0.026843296 0.017743656 0.021836892 0.011573104
-0.023843518 -0.006584294 -0.043912992 0.019617127 0.030861253 -0.036300544 -0.019984478 -0.0066300016
0.036482446 0.023535177 0.002950588 -0.050200198 0.003669297 -0.014218965 0.0019284027 -0.00961337
-0.0058429744 0.006311935 0.005732224 -0.02134444 0.0025929236 0.0027806556 -0.028874323 0.016458945
0.015416595 0.0018341382 -0.004097742 -0.024682028 0.0013277143 -0.032644376 -0.029391434 0.013750761
-0.014533219 0.014226297 0.010346649 0.01273796 0.021126602 0.032632843 -0.0018228955 0.069728166
0.0111389365 -0.014528879 0.014235088 0.019657122 -0.057758782 -0.0020367906 0.01181256 -0.012334225
0.011591889 0.0057459003 0.010697598 0.017992575 0.01867874 0.013517363 -0.0028509293 0.0143575715
-0.027079541 -0.011568535 -0.006679564 -0.013860487 -0.025972052 -0.02998067 0.015176454 0.0064897803
-0.012868575 0.012055549 0.034852173 -0.04587363 0.0007812016 0.01628571 -0.009196308 -0.0304848
-0.009351288 0.009539951 0.011627586 -0.034745675 -0.0017948807 -0.0087999 -0.0069521526 -0.008549857
00000000: eaac 1ebd b242 1abc 6163 583c f9ee 003c
00000010: bd0e 3fbb 02ae f2bc 7ad1 8d3b eb37 283c
00000020: ee2f de3c db0d cdbc 5ca6 27bd 4e26 4cbc
00000030: 5a3d cebc 8fec b63c c9a0 70bb ed68 c1bc
00000040: f914 0abd 427a a9bb cd27 aebc 3dc9 03bd
00000050: 3276 86bc 47fb 283c 5ba2 3e3d 701e 03bd
00000060: 2537 f73a 9ed1 7f3c 307c b63b 6529 723c
00000070: 46bc f6ba 066d a3ba 43e2 9a3c e264 4ebd
00000080: 05f4 6cbc 7674 083d 4989 babc eca9 93bc
00000090: 2b0e 743c 24c4 873a ad57 a4bb 8bd4 4cbc
000000a0: c78e 123d 4f54 a63a 82fb 6a3c 468c 98bc
000000b0: e1c5 ad3c 92dd cfba 6792 523b cc79 20bd
000000c0: bcc6 c8bc f575 e1bb 20f3 debc c7fa 163b
000000d0: 99cc 95bb f02a 46bb fd05 07bd c01e abbc
000000e0: 8e3c c6ba b544 c33b 9dcd b3bc 6a6b 27bc
000000f0: 9f4d 1cbc ec10 b83c 8f57 ca3b 5888 aebb
00000100: 961d 0c3d c5b8 1cbc 8c60 aebc bc96 273b
00000110: 22d6 81bc c322 27bc 7a06 d73c b817 243c
00000120: 8097 013d a411 563d a44b 183c 0e12 063c
00000130: 3234 2dbb 0bc0 b93b acf3 91bc 5165 babc
00000140: d971 00bd 4332 0a3d 81e5 733c d5f4 a13c
00000150: ae2d 9e3c 8310 0f3d 61da 283c 8c9b 803b
00000160: 875f e6bc 20db a8bc 1fd5 84bb a544 d33c
00000170: 4ee3 453c b8cc a3bc 8e45 173a 35d8 ff3c
00000180: 3372 a6bc 696e 2f3b f8e5 c73c 8c4b 48bb
00000190: e156 64bc a7ee 7fbc bc63 9b3c 5e35 003d
000001a0: 7575 093c ed71 f93b 0dc2 0abb 8488 dd3c
000001b0: 90ab b63c 9b9c 4e3c 3981 07bc e037 4dbc
000001c0: e658 60bc f2f1 de3c 53d3 763c 3e19 13ba
000001d0: 19f2 143d f66a 293c d127 083d df92 863c
000001e0: e217 0ebd 8216 a33b 7338 27bc 5cb5 6abb
000001f0: 8522 03bd 1fcf b8bb 0971 e5bc b081 713d
00000200: d764 b7bb aa7b ad3c a151 13bd f10a c8bc
00000210: c53c b2bc cef6 dd3c 60ca 9fbb 0ccb 263d
00000220: 639f af3c 6a10 1b3c cab5 db3b 443a cfbc
00000230: ef4a f2bc f805 533c 8456 44bc d2e9 03bc
00000240: 32e4 0f3d fc23 80bc 8ad3 f83c d7d2 ef3b
00000250: 5b1c 873c 976d 9a39 35f8 b7ba 726f 95bc
00000260: 216f 65bc 0469 4bbc 0165 53bc 5087 d1ba
00000270: 9fdb f53c 8872 133d eab4 59bd 07cd b9bb
00000280: b19f a4bb bbf3 8cbb c514 dcbc 3bd2 33bc
00000290: 4186 50ba a23a 153b 2e96 69bc 0e17 923c
000002a0: d2cd 823b 5a9a 013d 10b0 cabb 8828 f0bc
000002b0: 79e6 dbbc 255b 913c 48e3 b23c 1e9d 3d3c
000002c0: 7b53 c3bc 10c1 d7bb 1cde 33bd 19b4 a03c
000002d0: bdd0 fc3c e1af 14bd 7db6 a3bc 7c40 d9bb
000002e0: 9e6e 153d d8cc c03c a75e 413b b99e 4dbd
000002f0: 9778 703b a9f6 68bc 75c2 fc3a 6581 1dbc
00000300: 6c76 bfbb 59d4 ce3b 61d5 bb3b 89da aebc
00000310: 0aee 293b a93b 363b d889 ecbc e9d4 863c
00000320: e395 7c3c 7767 f03a 5a46 86bb f731 cabc
00000330: b306 ae3a 1cb6 05bd 4ec6 f0bc df4a 613c
00000340: bd1c 6ebc 6a15 693c fe84 293c e0b2 503c
00000350: b211 ad3c 04aa 053d 39ee eeba a4cd 8e3d
00000360: 1680 363c 890a 6ebc 493a 693c f907 a13c
00000370: 7994 6cbd ad7b 05bb 7889 413c 7d15 4abc
00000380: e8eb 3d3c 1b48 bc3b fa44 2f3c 2a65 933c
00000390: 2804 993c ee77 5d3c a8d6 3abb 053c 6b3c
000003a0: ead5 ddbc f489 3dbc 3ee0 dabb 1917 63bc
000003b0: 57c3 d4bc 069a f5bc a9a6 783c 39a8 d43b
000003c0: b7d6 52bc a384 453c 27c1 0e3d fde5 3bbd
000003d0: 8dc9 4c3a 9c69 853c 1dac 16bc 42bb f9bc
000003e0: 2536 19bc 744d 1c3c a181 3e3c 7b51 0ebd
000003f0: 3442 ebba 752d 10bc e2ce e3bb b314 0cbc

main.3.weight f4 [64]
0.98527324 0.9833448 0.9796162 0.989644 1.0054734 0.9979892 1.0046414 0.99897325
0.93997866 1.039897 1.0049608 0.99217856 1.0029116 0.97392637 1.0009066 0.97656125
1.0127821 0.9925432 0.9983133 0.97532934 1.0505244 1.009172 1.019626 1.0234631
1.0155339 1.0116802 0.9898772 0.9831302 0.9998741 1.0249125 1.0261486 1.0008558
1.0135891 0.99017966 0.98363256 1.0259799 1.0052845 0.9689871 0.97792697 0.9941559
1.0041776 1.0072932 0.98944396 1.0060209 1.0398287 1.020961 1.0331491 1.0009321
1.0190368 1.0088705 0.99605304 0.9876905 1.0121284 0.9796705 1.035803 0.9894228
1.0079843 0.98760206 1.0369849 0.99410087 0.9908092 0.98654926 0.9917914 0.9809602
00000000: de3a 7c3f 7cbc 7b3f 21c8 7a3f 4f59 7d3f
00000010: 5ab3 803f 387c 7f3f 1798 803f b6bc 7f3f
00000020: 71a2 703f 581b 853f 8ea2 803f 6aff 7d3f
00000030: 685f 803f 3d53 793f b51d 803f ebff 793f
00000040: d8a2 813f 5017 7e3f 7691 7f3f 2faf 793f
00000050: 9577 863f 8c2c 813f 1b83 823f d700 833f
00000060: 04fd 813f bd7e 813f 9868 7d3f 6cae 7b3f
00000070: c0f7 7f3f 5530 833f d658 833f 0b1c 803f
00000080: 4abd 813f 6a7c 7d3f 58cf 7b3f 4f53 833f
00000090: 2aad 803f 8a0f 783f 6c59 7a3f 0081 7e3f
000000a0: e488 803f fcee 803f 334c 7d3f 4bc5 803f
000000b0: 1b19 853f daae 823f 3b3e 843f 8b1e 803f
000000c0: cc6f 823f ab22 813f 55fd 7e3f 49d9 7c3f
000000d0: 6c8d 813f b0cb 7a3f 3195 843f d04a 7d3f
000000e0: a105 813f 7dd3 7c3f ecbb 843f 657d 7e3f
000000f0: aca5 7d3f 7e8e 7c3f 0be6 7d3f 3520 7b3f

main.3.bias f4 [64]
-0.003177888 -0.008223315 -0.03642062 0.009613049 0.0023345333 0.032944474 -0.026568994 0.019097256
0.01306336 0.01582424 -0.007335334 0.008831076 -0.02472692 0.008656481 -0.011826325 -0.010331351
-0.0322887 -0.0018386554 0.01931636 -0.023206314 -0.0065869596 -0.012115843 -0.014601785 -0.0108966185
0.050128732 0.01358416 -0.008799387 -0.026829472 -0.009884168 0.0060458696 0.019088121 -0.027356425
0.0044125 -0.04888514 -0.019188955 -0.015418098 -0.011096387 0.0021636703 -0.0049703317 -0.00410315
0.013573885 0.004784299 -0.016271977 0.012349903 -0.03374593 0.0075569316 0.0039558206 -0.009149449
0.014206159 -0.0075796493 -0.0013544593 0.022082096 -0.019305462 -0.009693306 0.0019790176 0.016582541
0.0035809656 -0.0012453897 0.006120793 0.017504558 0.007364043 -0.0008534867 -0.0067437487 -0.0032150815
00000000: 1d44 50bb 15bb 06bc ca2d 15bd 0d80 1d3c
00000010: f8fe 183b c9f0 063d 38a7 d9bc d971 9c3c
00000020: b407 563c d6a1 813c 3e5d f0bb 38b0 103c
00000030: 1c90 cabc ead3 0d3c 34c3 41bc d444 29bc
00000040: 2841 04bd 0aff f0ba 583d 9e3c 2b1b bebc
00000050: 6cd7 d7bb 8781 46bc 533c 6fbc bb87 32bc
00000060: c953 4d3d 1990 5e3c 4e2b 10bc 7bc9 dbbc
00000070: 35f1 21bc 6e1c c63b b15e 9c3c 951a e0bc
00000080: bc96 903b c93b 48bd 2832 9dbc 319c 7cbc
00000090: 9fcd 35bc 5dcc 0d3b 2ade a2bb b873 86bb
000000a0: 0065 5e3c 9cc5 9c3b cf4c 85bc 3f57 4a3c
000000b0: 2c39 0abd 23a0 f73b d49f 813b 92e7 15bc
000000c0: f3c0 683c b55e f8bb 1d88 b1ba 83e5 b43c
000000d0: 7d26 9ebc acd0 1ebc 68b2 013b 1cd8 873c
000000e0: a2ae 6a3b 583c a3ba ef90 c83b b865 8f3c
000000f0: 124e f13b 86bc 5fba aafa dcbb 1eb4 52bb

main.3.running_mean f4 [64]
-0.0005641902 0.023305152 -0.0027910701 0.005146878 -0.00071172684 -1.1121869e-05 -0.00079023984 -0.00067687826
-0.0002623137 -0.020842979 -0.0020781553 0.0002087613 -0.006338618 0.00046991874 0.0022320452 -0.0018667738
-0.00774969 -0.0036052826 -0.00026097565 -0.0016138973 -0.00061195425 -0.0049469476 -0.00047298605 -0.024400475
-0.00027923274 -0.0027077568 0.0068350537 0.010524242 -9.838983e-05 -0.011490453 -0.0001812485 -0.0043643094
0.00020405388 0.0004451073 -0.0005319868 0.012550267 -0.0017715914 -0.00059603795 -0.007205025 0.005452671
0.00027074476 -0.00019865338 -0.004409935 0.013436859 0.0052043945 -0.034708895 0.0013418439 2.9312265e-05
0.00020053374 -0.0010620113 -0.00077160593 -0.001339282 -0.0013043019 -0.0010061339 -0.0013968869 0.00028998547
-0.0011518832 -6.935957e-05 -0.004862439 -0.00051881315 -0.005242713 0.012599587 -0.003025633 0.00744641
00000000: 2ae6 13ba 72ea be3c 63ea 36bb 24a7 a83b
00000010: 2e93 3aba 1098 3ab7 1928 4fba 8870 31ba
00000020: 2687 89b9 e5be aabc a931 08bb efe6 5a39
00000030: 2fb4 cfbb 6d5f f639 8147 123b 89ae f4ba
00000040: 1df1 fdbb 9b46 6cbb 8fd3 88b9 6889 d3ba
00000050: 8e6b 20ba 011a a2bb 1dfb f7b9 81e3 c7bc
00000060: fc65 92b9 9f74 31bb 96f8 df3b df6d 2c3c
00000070: a356 ceb8 7442 3cbc 860d 3eb9 7b02 8fbb
00000080: 4cf7 5539 4a5d e939 0875 0bba a39f 4d3c
00000090: be34 e8ba 6e3f 1cba 2118 ecbb 52ac b23b
000000a0: bff2 8d39 9c4d 50b9 3781 90bb 4526 5c3c
000000b0: a089 aa3b ea2a 0ebd cfe0 af3a 9ce3 f537
000000c0: 5e46 5239 3033 8bba 9945 4aba d98a afba
000000d0: 1cf5 aaba 40e0 83ba bf17 b7ba 3109 9839
000000e0: c9fa 96ba 2375 91b8 1855 9fbb f600 08ba
000000f0: 10cb abbb 806e 4e3c b349 46bb 0401 f43b

main.3.running_var f4 [64]
6.37025e-06 0.00010603531 1.7425062e-05 0.00016627744 8.200338e-06 7.058264e-06 1.880479e-05 7.1498157e-06
7.62031e-06 8.787326e-05 5.827853e-05 1.7640918e-05 2.1571455e-05 8.1415055e-06 4.334364e-05 2.6289756e-05
2.7934915e-05 1.30200515e-05 8.762226e-06 6.324546e-05 1.3917434e-05 1.4213716e-05 3.0072493e-05 0.00014357339
1.0665337e-05 1.2006484e-05 6.102037e-05 4.4956552e-05 1.7391096e-05 5.9200283e-05 8.432228e-06 2.5856734e-05
9.849113e-06 1.4499315e-05 9.836408e-06 0.00014194893 2.0687046e-05 5.4054362e-05 2.1325332e-05 4.4446424e-05
8.0589125e-06 1.0284933e-05 5.121431e-05 0.00013982566 1.4023813e-05 0.00012650176 6.3792475e-05 2.9789238e-05
1.0270014e-05 1.2314163e-05 5.5636796e-05 1.46313705e-05 4.4514512e-05 3.1252635e-05 1.3425517e-05 9.320311e-06
8.3199175e-06 9.785608e-06 6.0090348e-05 1.0670726e-05 9.074872e-05 8.198856e-05 1.6404221e-05 3.8284696e-05
00000000: 08c0 d536 465f de38 092c 9237 c35a 2e39
00000010: 2f94 0937 07d6 ec36 fbbe 9d37 73e8 ef36
00000020: f7b1 ff36 9948 b838 1870 7438 95fb 9337
00000030: 59f4 b437 8097 0837 e1cb 3538 d288 dc37
00000040: c655 ea37 b270 5a37 7901 1337 a6a2 8438
00000050: ed7e 6937 7277 6e37 3044 fc37 308c 1639
00000060: 46ef 3237 756f 4937 20f0 7f38 bb8f 3c38
00000070: 18e3 9137 d24d 7838 2578 0d37 eae6 d837
00000080: 9e3d 2537 1542 7337 0d07 2537 20d8 1439
00000090: 1889 ad37 6eb8 6238 cde3 b237 fc6b 3a38
000000a0: c434 0737 738d 2c37 f2ce 5638 2a9e 1239
000000b0: d147 6b37 8fa5 0439 53c8 8538 e7e3 f937
000000c0: 604d 2c37 ed98 4e37 8e5b 6938 4279 7537
000000d0: 18b5 3a38 4315 0338 283e 6137 6e5e 1c37
000000e0: c695 0b37 de2c 2437 8509 7c38 6b06 3337
000000f0: 5950 be38 46f1 ab38 cc9b 8937 e193 2038

main.5.weight f4 [128, 64, 4, 4]
-0.019580565 -0.014565867 0.017910486 0.027976112 0.011797433 0.0012928637 -0.05050685 -0.0069017215
-0.036761325 0.025384335 0.0025946586 -0.029545715 -0.013637554 -0.020456754 -0.03739379 0.004317239
-0.022817368 -0.02452161 0.0023224056 -0.015291017 0.011372391 -0.019997677 -0.02387245 0.0040424317
0.0107844155 0.011903924 0.0010692942 0.01778888 -0.018835133 -0.046467237 -0.044377517 -0.007822265
0.015059126 0.002118706 -0.0037275504 -0.012806223 0.026790202 -0.005966283 -0.038317394 -0.0280306
-0.021588031 0.02282117 0.05952864 0.061998885 0.041548453 0.016417501 0.013927921 -0.045554347
-0.04986244 -0.01715561 -0.002890514 0.013236383 -0.0007672443 0.022372803 -0.014020031 0.022193892
0.011906804 -0.034600634 0.017461585 0.022218022 -0.0054001817 0.017153954 -0.025835745 0.013491723
-0.021609558 -0.009940313 -0.020127332 -0.0043190955 -0.04275946 0.0061862487 -0.020339595 6.7738115e-06
-0.036507912 0.0030313816 -0.024782863 -0.0072751115 0.014631285 -0.00800237 -0.025821751 -0.010410887
-0.017502895 0.034080375 -0.002438011 0.026157463 0.0047253887 -0.001040059 0.0035968511 0.008520568
-0.002568169 -0.015301256 0.0054216827 0.012430246 -0.017495435 0.011944737 0.03480854 0.025437366
0.013983183 0.016712435 -0.0037045737 -0.01877219 -0.049446058 -0.022199329 -0.011139504 -0.0052676094
0.00866218 -0.0038950318 -0.03438551 0.010717263 -0.029214054 -0.0057437387 -0.07044345 -0.022642406
0.027151393 0.022684125 -0.028312596 0.018606937 0.011968732 0.036869403 -0.03406998 -0.008309428
-0.065065086 0.0015287765 -0.026394034 0.032636557 0.007933602 -0.027350377 -0.013174053 -0.00019233112
0.019019179 0.016514711 0.0060188686 0.025282959 -0.040006787 0.0029432385 0.011592833 0.013522253
0.0029870712 0.025967076 0.008895614 0.03130795 -0.0026909458 -0.034839533 0.009020587 0.02346245
-0.023638587 0.02334762 0.018339992 0.009917828 0.0035787944 0.0038572142 -0.0072925407 0.01831978
-0.029439358 -0.0037950717 -0.0013226289 -0.02045253 0.010103222 0.02076092 0.004654394 0.04072559
0.020394824 -0.0024479863 0.03989575 -0.04414088 0.02487882 0.0029941257 0.04587451 0.026173247
-0.06937895 0.03441941 -0.006672287 0.06007698 0.011957413 -0.016699515 -0.023533775 0.031091643
0.0006293417 0.01108246 -0.02508366 -0.017301783 -0.032756515 -0.0041012275 0.042661875 -0.028419003
-0.040170353 -0.015905846 -0.031999305 -0.0026771962 -0.010591839 -0.0257693 0.030566514 0.00095854606
0.013329379 0.0059826924 -0.021891588 0.059791446 0.0077574174 0.02086984 0.022063378 0.045163397
-0.009809618 0.0071747694 -0.0041414853 -0.02981092 -0.017499443 0.0083000865 0.021078756 -0.024106527
-0.009678944 -0.006714085 -0.002761545 -0.0026287318 -0.0054215854 0.0022157624 -0.006134174 0.026341695
0.014283196 0.008527436 -0.008039226 0.0026512272 -0.017478622 -0.030843794 -0.019960294 0.020744985
0.015015861 0.019945825 -0.011199644 0.034317534 -0.016859144 0.0036025033 -0.022244172 0.008599871
0.015139719 -0.0004538339 0.008227318 -0.03618232 -0.025274174 -0.018862274 -0.0048194425 0.00085226493
-0.02951304 -0.020209825 0.001982535 0.0041338997 -0.028334996 0.021684349 0.02578226 0.01823317
-0.02519634 -0.007604513 0.014388578 -0.040295083 0.052883368 0.044457316 0.06675333 0.012708053
00000000: 6c67 a0bc ada5 6ebc 03b9 923c 292e e53c
00000010: 054a 413c 4f75 a93a 45e0 4ebd d627 e2bb
00000020: 0b93 16bd cff2 cf3c 260b 2a3b db09 f2bc
00000030: 0c70 5fbc ec94 a7bc 3b2a 19bd a077 8d3b
00000040: 7deb babc 8be1 c8bc 8033 183b 2c87 7abc
00000050: 4453 3a3c 2bd2 a3bc 2890 c3bc 6076 843b
00000060: 1eb1 303c ad08 433c 8f27 8c3a fcb9 913c
00000070: 234c 9abc 6e54 3ebd 33c5 35bd f528 00bc
00000080: 8dba 763c fdd9 0a3b eb49 74bb 31d1 51bc
00000090: 2077 db3c cf80 c3bb b3f2 1cbd 6ea0 e5bc
000000a0: 62d9 b0bc 76f3 ba3c 4ed4 733d 8bf2 7d3d
000000b0: b62e 2a3d ff7d 863c ef31 643c 3297 3abd
000000c0: 8f3c 4cbd ec89 8cbc c76e 3dbb 6add 583c
000000d0: e520 49ba 2b47 b73c 46b4 65bc f7cf b53c
000000e0: c114 433c 65b9 0dbd 990b 8f3c 9202 b63c
000000f0: 02f4 b0bb 7386 8c3c 7ca5 d3bc 630c 5d3c
00000100: 8706 b1bc b2dc 22bc 13e2 a4bc 3387 8dbb
00000110: 8b24 2fbd 04b6 ca3b 399f a6bc 994a e336
00000120: 5289 15bd 25aa 463b 6e05 cbbc 0f64 eebb
00000130: 0fb8 6f3c 5f1c 03bc 2388 d3bc 6d92 2abc
00000140: 3b62 8fbc dd97 0b3d 0ac7 1fbb 2d48 d63c
00000150: 6fd7 9a3b 9752 88ba 26b9 6b3b da99 0b3c
00000160: ba4e 28bb 1fb2 7abc 5fa8 b13b 3ba8 4b3c
00000170: 9652 8fbc dcb3 433c 6693 0e3d 0662 d03c
00000180: b819 653c 84e8 883c 6fc8 72bb 23c8 99bc
00000190: f387 4abd 5edb b5bc 7782 36bc e99b acbb
000001a0: d1eb 0d3c ca43 7fbb d2d7 0cbd 7697 2f3c
000001b0: 5052 efbc f935 bcbb a844 90bd 917c b9bc
000001c0: 996c de3c 0fd4 b93c d1ef e7bc 936d 983c
000001d0: 8018 443c 5f04 173d f78c 0bbd 4424 08bc
000001e0: d840 85bd 3a61 c83a 4d38 d8bc e9ad 053d
000001f0: f0fb 013c e60d e0bc fcd7 57bc 7eac 49b9
00000200: 1cce 9b3c dc49 873c ee39 c53b 351e cf3c
00000210: 28de 23bd 59e3 403b deef 3d3c 718c 5d3c
00000220: bdc2 433b e8b8 d43c e9be 113c c43c 003d
00000230: 945a 30bb e6b3 0ebd 16cb 133c 5334 c03c
00000240: b6a5 c1bc 8243 bf3c c03d 963c 637e 223c
00000250: 358a 6a3b 51c9 7c3b 44f6 eebb 5d13 963c
00000260: cf2a f1bc bdb6 78bb 105c adba 108c a7bc
00000270: fc87 253c ce12 aa3c e383 983b e0cf 263d
00000280: 0c13 a73c 656e 20bb ba69 233d 11cd 34bd
00000290: abce cb3c 1839 443b e9e6 3b3d 4769 d63c
000002a0: 8d16 8ebd 5efb 0c3d 33a3 dabb 4813 763d
000002b0: 06e9 433c 6ccd 88bc e7c9 c0bc e7b3 fe3c
000002c0: 68fa 243a 3593 353c 3f7c cdbc 78bc 8dbc
000002d0: b22b 06bd 9763 86bb 38be 2e3d f8ce e8bc
000002e0: ab89 24bd fa4c 82bc b411 03bd e673 2fbb
000002f0: 6589 2dbc 241a d3bc a066 fa3c f046 7b3a
00000300: 7863 5a3c 760a c43b fd55 b3bc e0e7 743d
00000310: ef31 fe3b 3af7 aa3c 42be b43c 41fd 383d
00000320: 85b8 20bc 541a eb3b 4cb5 87bb 0836 f4bc
00000330: fe5a 8fbc 16fd 073c 5bad ac3c 0d7b c5bc
00000340: 6f94 1ebc d401 dcbb 09fb 34bb cd46 2cbb
00000350: 8ea7 b1bb 5336 113b 2e01 c9bb 8aca d73c
00000360: 1104 6a3c a9b6 0b3c f5b6 03bc 36c0 2d3b
00000370: 542f 8fbc 20ac fcbc c583 a3bc 63f1 a93c
00000380: 1605 763c 6d65 a33c b67e 37bc 8b90 0c3d
00000390: 301c 8abc fa17 6c3b 6939 b6bc 79e6 0c3c
000003a0: 950c 783c 8ef0 edb9 dfcb 063c ea33 14bd
000003b0: c90b cfbc 0e85 9abc 6aec 9dbb 886a 5f3a
000003c0: 55c5 f1bc 138f a5bc 6bed 013b aa75 873b
000003d0: cb1e e8bc 60a3 b13c 5135 d33c bb5d 953c
000003e0: 8e68 cebc 472f f9bb 12be 6b3c 750c 25bd
000003f0: 3b9c 583d e018 363d f8b5 883d 7035 503c

main.6.weight f4 [128]
1.0553515 1.0450647 1.0586671 1.1071165 1.09471 1.1001849 1.0967361 1.0907003
1.0500859 1.0683327 1.0706553 1.0694786 1.097857 1.1377139 1.0704485 1.0744281
1.1288626 1.1714886 1.0605321 1.0793118 1.1010157 1.0706037 1.1266026 1.0869989
1.090394 1.1463655 1.1126169 1.1324322 1.0492114 1.1031306 1.0778593 1.0972162
1.0981869 1.067398 1.0252823 1.1320827 1.0829624 1.0368996 1.089924 1.1254265
1.08571 1.1506824 1.1075196 1.0553145 1.0895774 1.057525 1.100274 1.0642028
1.0592432 1.0743172 1.0790825 1.1428531 1.0935218 1.1474247 1.0522308 1.1208696
1.0758424 1.0856262 1.0589018 1.1157799 1.0846707 1.0760095 1.1120367 1.0993855
1.1451718 1.0868125 1.0816411 1.0197806 1.0879561 1.0222985 1.1077374 1.0439334
1.0548198 1.1585972 1.0979148 1.0722712 1.0471283 1.1368208 1.0630649 1.1316755
1.0513846 1.0953568 1.1019754 1.1128253 1.0487303 1.0861412 1.0775572 1.1427367
1.1296649 1.0788003 1.0923187 1.174031 1.0829967 1.081693 1.125925 1.0729603
1.0387325 1.1293244 1.0926907 1.0126319 1.1197594 1.0624017 1.1116414 1.0571997
1.1690102 1.0976291 1.0559318 1.0753946 1.1120101 1.033215 1.0902959 1.0417317
1.1081177 1.054774 1.0980521 1.0851365 1.0836401 1.0765938 1.0973299 1.1544229
1.1263614 1.1251196 1.0549238 1.241561 1.0926979 1.2245525 1.0800142 1.1546705
00000000: c215 873f aec4 853f 6782 873f feb5 8d3f
00000010: 751f 8c3f dcd2 8c3f d961 8c3f 119c 8b3f
00000020: 3769 863f 20bf 883f 3c0b 893f ade4 883f
00000030: 9486 8c3f 9ca0 913f 7504 893f dc86 893f
00000040: 927e 903f 57f3 953f 84bf 873f e426 8a3f
00000050: 15ee 8c3f 8b09 893f 8434 903f c822 8b3f
00000060: 0892 8b3f 1bbc 923f 3b6a 8e3f 8af3 903f
00000070: 8f4c 863f 6233 8d3f 4bf7 893f 9571 8c3f
00000080: 6391 8c3f 7fa0 883f 733c 833f 16e8 903f
00000090: 839e 8a3f 20b9 843f a182 8b3f fa0d 903f
000000a0: 8cf8 8a3f 9049 933f 34c3 8d3f 8c14 873f
000000b0: 4677 8b3f fb5c 873f c7d5 8c3f cc37 883f
000000c0: 4895 873f 3a83 893f 601f 8a3f 0349 923f
000000d0: 86f8 8b3f d0de 923f 80af 863f a878 8f3f
000000e0: 34b5 893f cdf5 8a3f 188a 873f e0d1 8e3f
000000f0: 7dd6 8a3f aeba 893f 3857 8e3f aab8 8c3f
00000100: fd94 923f ac1c 8b3f 3773 8a3f 2c88 823f
00000110: 2542 8b3f adda 823f 57ca 8d3f 9c9f 853f
00000120: 5604 873f ea4c 943f 7988 8c3f 2f40 893f
00000130: 4d08 863f 5883 913f 8312 883f beda 903f
00000140: c593 863f a734 8c3f 880d 8d3f 0f71 8e3f
00000150: cb3c 863f ad06 8b3f 65ed 893f 3245 923f
00000160: dc98 903f 2116 8a3f 19d1 8b3f a646 963f
00000170: a39f 8a3f eb74 8a3f 4f1e 903f c356 893f
00000180: 30f5 843f b48d 903f 4add 8b3f ec9d 813f
00000190: 4754 8f3f c7fc 873f 444a 8e3f 5252 873f
000001a0: 20a2 953f 1c7f 8c3f c628 873f 88a6 893f
000001b0: 5956 8e3f 6440 843f d18e 8b3f 7757 853f
000001c0: cdd6 8d3f d602 873f f98c 8c3f c1e5 8a3f
000001d0: b8b4 8a3f d3cd 893f 4e75 8c3f 21c4 933f
000001e0: 9c2c 903f eb03 903f be07 873f 79eb 9e3f
000001f0: 86dd 8b3f 23be 9c3f e83d 8a3f 3ecc 933f

main.6.bias f4 [128]
0.006343417 0.0029784774 0.03738857 -0.0026028315 0.007937613 0.018368104 0.030384878 0.003195481
0.002115445 0.0011879754 0.0051906295 0.005491933 -0.0075497795 0.06040167 0.009146638 0.003351655
0.022765875 -0.0063876095 0.00048474493 0.03568576 0.00699514 0.016146703 0.018398805 0.0044746664
0.018395763 0.008736202 -0.019497648 0.044076525 0.017743982 0.10636049 0.011667491 0.0059533156
0.011102091 0.0045225956 0.011687698 0.07892514 0.005083279 -0.0048981765 0.010155334 0.008615384
0.0035314886 0.019458266 0.029524762 0.012493745 0.015496447 0.01211626 0.015406039 0.010840586
0.042322434 0.032814052 0.010701116 0.022920674 0.00070671947 0.04126673 0.014260514 -0.0074339327
0.04751894 0.019687247 0.0016194881 0.0040936447 0.005859754 0.010087845 -0.018506086 0.004452411
0.040307943 0.012070597 0.08022214 0.024938403 0.00038914217 0.036010146 0.0056307474 0.009404934
0.023379775 -0.058038928 0.055303637 0.030378181 0.008049925 0.03271654 0.013685653 0.03710322
-0.005711436 0.008208761 -0.00031444195 -0.054982137 -0.0009626723 0.009859049 0.0073742275 0.013130772
0.0364249 0.031438764 0.02030274 0.017756836 0.030679265 0.0095048295 0.023019787 -1.7850596e-05
-0.0076431343 0.022909425 0.07217498 0.015158251 0.038134936 0.0012731315 -0.0015856212 0.011190225
0.047330774 0.0043760985 0.0058038915 0.008968576 0.014887374 0.00935762 -0.003979055 0.046489794
0.011655235 0.00499724 -0.006327448 -0.00091502065 -0.008337006 0.0060415687 0.022020483 0.02067716
-0.00045532224 0.0031836887 0.024327751 0.001501545 -0.003907945 0.0025520585 0.032726046 -0.0065553198
00000000: 70dc cf3b 8f32 433b c224 193d 4494 2abb
00000010: c30c 023c b578 963c b5e9 f83c 466b 513b
00000020: 47a3 0a3b d7b5 9b3a 2816 aa3b acf5 b33b
00000030: 2464 f7bb be67 773d c8db 153c 71a7 5b3b
00000040: 807f ba3c 274f d1bb 5d25 fe39 3b2b 123d
00000050: 7d37 e53b 1746 843c 17b9 963c 39a0 923b
00000060: b6b2 963c 4922 0f3c 88b9 9fbc 9689 343d
00000070: d45b 913c 87d3 d93d 0129 3f3c 0814 c33b
00000080: 8be5 353c 4832 943b c27d 3f3c 81a3 a13d
00000090: a391 a63b e280 a0bb 8f62 263c 8a27 0d3c
000000a0: 8c70 673b f166 9f3c eadd f13c 91b2 4c3c
000000b0: cfe4 7d3c 4783 463c 9c69 7c3c b79c 313c
000000c0: 4a5a 2d3d 0768 063d bc53 2f3c 23c4 bb3c
000000d0: 2443 393a 4d07 293d eea4 693c 5998 f3bb
000000e0: 38a3 423d 2647 a13c 0145 d43a fb23 863b
000000f0: 2e03 c03b 7d47 253c 139a 97bc 88e5 913b
00000100: f119 253d c1c3 453c 814b a43d 9f4b cc3c
00000110: c705 cc39 607f 133d 2282 b83b 2717 1a3c
00000120: f186 bf3c 3aba 6dbd 1186 623d aadb f83c
00000130: d5e3 033c c701 063d ca39 603c 8cf9 173d
00000140: ff26 bbbb 0a7e 063c afdb a4b9 f334 61bd
00000150: d85b 7cba d987 213c 81a3 f13b 7322 573c
00000160: 4732 153d efc5 003d ef51 a63c c976 913c
00000170: 1553 fb3c 25ba 1b3c fe93 bc3c ddbd 95b7
00000180: 4273 fabb 8cac bb3c 7ad0 933d 505a 783c
00000190: 6133 1c3d 34df a63a 9ed4 cfba 3557 373c
000001a0: eadd 413d 6065 8f3b 922e be3b eff0 123c
000001b0: 2cea 733c b450 193c bc62 82bb 156c 3e3d
000001c0: 99f5 3e3c e3bf a33b 7b56 cfbb ffdd 6fba
000001d0: f097 08bc 5af8 c53b 4d64 b43c 2663 a93c
000001e0: 51b8 eeb9 6fa5 503b fe4a c73c 7dcf c43a
000001f0: 380e 80bb 7040 273b bf0b 063d 02ce d6bb

main.6.running_mean f4 [128]
-0.28496838 -0.1167352 -0.08920436 -0.04437197 -0.01553839 -0.19312093 0.3850176 -0.08675035
0.16331764 -0.26654983 0.33515722 -0.11687293 0.12604561 -0.7696028 0.13673934 0.18074387
-0.0077934186 -0.004058587 0.034428142 0.008543981 -0.039885662 0.22070521 -0.08723009 0.1980046
0.0076387567 -0.43481788 0.037714798 0.108248815 -0.13707456 -0.08122693 0.0197019 0.108375564
-0.5671459 0.16141057 0.15332864 -0.15325993 0.41865492 0.18469134 0.022026282 -0.16211629
-0.1670389 -0.044234592 0.5413948 0.08302787 -0.08255795 -0.017969202 0.007894278 -0.30032775
-0.31233138 -0.2118849 -0.0075724605 -0.18548816 -0.051138915 -0.028866656 -0.106491685 0.06469073
0.027879905 0.07795625 -0.059419643 -0.28621677 0.29067025 -0.035111498 -0.22627084 -0.25238773
0.026736315 -0.19798169 0.020263003 -0.017716618 0.061986763 -0.06133195 -0.6513549 -0.20982635
-0.01261205 -0.027174223 0.56636065 -0.3312817 -0.13844879 0.020126149 -0.036563452 0.5157134
0.10680602 -0.061828796 -0.38057038 -0.23373422 -0.18802023 -0.10164763 0.11606239 0.35675055
0.17293817 0.06841899 -0.010169698 0.18200167 0.13847594 -0.060699724 0.17041042 -0.24952693
0.2756885 -0.2047671 -0.019833138 -0.1789855 -0.043235064 0.36905554 -0.4110885 0.17979507
-0.04889476 -0.017476792 0.17970504 -0.044695735 0.083226286 0.3855222 0.15373373 -0.118700854
-0.091818236 0.33391964 0.037281603 -0.027261168 0.21743253 0.5183435 -0.4038095 -0.08061752
0.09357011 0.06017886 0.12746665 0.15121718 0.0492358 0.09735256 0.16385673 -0.14238928
00000000: 60e7 91be dd12 efbd c7b0 b6bd 62bf 35bd
00000010: bb94 7ebc 7ec1 45be 0721 c53e 2baa b1bd
00000020: bd3c 273e 3879 88be ba99 ab3e 135b efbd
00000030: 1a12 013e b004 45bf 6605 0c3e ec14 393e
00000040: ef5f ffbb e5fd 84bb 8604 0d3d 0efc 0b3c
00000050: 265f 23bd 8c00 623e b0a5 b2bd b8c1 4a3e
00000060: 894e fa3b 73a0 debe d57a 1a3d 8eb1 dd3d
00000070: 465d 0cbe 4e5a a6bd e165 a13c 02f4 dd3d
00000080: 7930 11bf d048 253e 2f02 1d3e 2cf0 1cbe
00000090: f059 d63e ba1f 3d3e 7670 b43c d001 26be
000000a0: 3f0c 2bbe 552f 35bd da98 0a3f 840a aa3d
000000b0: 2414 a9bd 2634 93bc 0057 013c 8fc4 99be
000000c0: e6e9 9fbe 5bf8 58be 6722 f8bb 9cf0 3dbe
000000d0: 0a77 51bd c479 ecbc 5018 dabd 937c 843d
000000e0: 6664 e43c 87a7 9f3d 0362 73bd 018b 92be
000000f0: bbd2 943e 13d1 0fbd 8bb3 67be f738 81be
00000100: 1e06 db3c b6bb 4abe 99fe a53c 7122 91bc
00000110: d5e5 7d3d 3637 7bbd 32bf 26bf b8dc 56be
00000120: c6a2 4ebc 7a9c debc 03fd 103f c19d a9be
00000130: 85c5 0dbe 98df a43c 8fc3 15bd cb05 043f
00000140: 1dbd da3d 3140 7dbd 1fda c2be 0658 6fbe
00000150: 6088 40be a22c d0bd 1eb2 ed3d 02a8 b63e
00000160: b416 313e 411f 8c3d ce9e 26bc a55e 3a3e
00000170: a3cc 0d3e 46a0 78bd 1280 2e3e fd83 7fbe
00000180: 0b27 8d3e 77ae 51be 1b79 a2bc fa47 37be
00000190: 4017 31bd d9f4 bc3e 317a d2be 331c 383e
000001a0: df45 48bd 7d2b 8fbc 9904 383e e012 37bd
000001b0: 8b72 aa3d 2a63 c53e 606c 1d3e 6f19 f3bd
000001c0: 330b bcbd 84f7 aa3e 98b4 183d d052 dfbc
000001d0: a2a6 5e3e 29b2 043f 1ec0 cebe cc1a a5bd
000001e0: b0a1 bf3d 1c7e 763d 9e86 023e add8 1a3e
000001f0: 7aab 493d c760 c73d 0fca 273e 7fce 11be

main.6.running_var f4 [128]
0.11413646 0.033234216 0.027725535 0.113136835 0.048638027 0.09271444 0.1417781 0.14273103
0.042982765 0.07054336 0.14374647 0.07608494 0.1428627 0.12543498 0.13399164 0.10827206
0.031946193 0.054920197 0.04067615 0.026585037 0.023130575 0.12593752 0.04656226 0.1268263
0.026025135 0.14133388 0.049404357 0.023405325 0.030993039 0.019859456 0.15113696 0.121318296
0.12348525 0.09878991 0.020034859 0.022342067 0.13838963 0.103082985 0.019511817 0.12516665
0.09988106 0.029693425 0.15861908 0.02524268 0.02122469 0.114357546 0.046884988 0.060846012
0.13507861 0.12350548 0.13400406 0.03228312 0.035987597 0.17319174 0.038741343 0.09856919
0.037144054 0.040250503 0.057757102 0.14483795 0.13654485 0.039353117 0.14319311 0.03861236
0.018935958 0.07621604 0.01968431 0.023515811 0.16440864 0.02191712 0.14718565 0.10270622
0.029210918 0.10917949 0.11467223 0.13184981 0.18563257 0.028490026 0.08860335 0.14403579
0.034840204 0.02308163 0.19584574 0.08260921 0.03655707 0.14475413 0.028740449 0.112474345
0.19705807 0.023596197 0.09281243 0.12696794 0.028046405 0.02149184 0.11592226 0.04949611
0.03708724 0.031948727 0.022204498 0.037944708 0.028214397 0.110923454 0.12150786 0.022610324
0.032333374 0.06853571 0.02359533 0.10140478 0.03473982 0.14265853 0.093678325 0.12191389
0.20411648 0.16436833 0.0747763 0.097762525 0.09535372 0.17952308 0.13026628 0.027768742
0.0832517 0.116016634 0.021419242 0.04883533 0.073093876 0.040874455 0.02467049 0.055327777
00000000: 60c0 e93d 9a20 083d a920 e33c 49b4 e73d
00000010: ab38 473d 11e1 bd3d 472e 113e 1528 123e
00000020: b20e 303d 0a79 903d 4632 133e 6cd2 9b3d
00000030: 9a4a 123e 0772 003e 1b35 093e bebd dd3d
00000040: 03da 023d 00f4 603d 099c 263d ddc8 d93c
00000050: 557c bd3c c4f5 003e 11b8 3e3d c1de 013e
00000060: aa32 d53c d4b9 103e 395c 4a3d 86bc bf3c
00000070: 1de5 fd3c 4cb0 a23c a6c3 1a3e ba75 f83d
00000080: d6e5 fc3d 5d52 ca3d 2520 a43c b606 b73c
00000090: 03b6 0d3e 2c1d d33d 3fd7 9f3c b02b 003e
000000a0: 718e cc3d a03f f33c 0a6d 223e bdc9 ce3c
000000b0: 67df ad3c 4a34 ea3d 790a 403d ab39 793d
000000c0: 0c52 0a3e 71f0 fc3d 5c38 093e 4e3b 043d
000000d0: bb67 133d 2d59 313e 3eaf 1e3d a5de c93d
000000e0: 5d24 183d b6dd 243d b692 6c3d 6650 143e
000000f0: 6ad2 0b3e bc30 213d 37a1 123e fe27 1e3d
00000100: 951f 9b3c 2817 9c3d fd40 a13c 3ba4 c03c
00000110: bd5a 283e 888b b33c d6b7 163e a357 d23d
00000120: bc4b ef3c 7f99 df3d 46d9 ea3d a303 073e
00000130: 7716 3e3e ea63 e93c ac75 b53d 1e7e 133e
00000140: 9ab4 0e3d b015 bd3c c98b 483e 042f a93d
00000150: debc 153d 6d3a 143e 1771 eb3c f358 e63d
00000160: 97c9 493e d04c c13c 7114 be3d e203 023e
00000170: 93c1 e53c a80f b03c a668 ed3d 6fbc 4a3d
00000180: cae8 173d abdc 023d 35e6 b53c e96b 1b3d
00000190: e121 e73c d62b e33d 1dd9 f83d 4939 b93c
000001a0: 0070 043d 735c 8c3d fe4a c13c 4fad cf3d
000001b0: 574b 0e3d 1415 123e 6cda bf3d fdad f93d
000001c0: e903 513e 2c50 283e 5124 993d b837 c83d
000001d0: d048 c33d e6d4 373e 8664 053e 467b e33c
000001e0: de7f aa3d 219a ed3d 6877 af3c 8e07 483d
000001f0: 3eb2 953d f96b 273d c419 ca3c 619f 623d

main.8.weight f4 [1, 128, 4, 4]
-0.017260281 -0.04172915 0.027219854 -0.022953365 -0.027300056 -0.0139596 -0.06957009 -0.04543293
-0.0717173 0.05953488 0.054939523 0.06746095 -0.05362601 -4.1411477e-05 -0.032869734 -0.029390505
0.05795799 -0.05157253 -0.023950115 -0.037921954 0.041119438 0.099397145 -0.075490385 -0.045924414
0.0654406 0.023052186 0.04883532 -0.029882645 0.06422327 0.0032867999 0.005535299 -0.009198936
0.08480598 0.036733296 -0.012504065 0.007455345 0.065251976 -0.094406076 -0.015889566 0.027067162
0.018140066 -0.14845563 0.041737426 -0.0040057376 -0.049167797 -0.0318272 -0.06438572 -0.014111681
-0.06227374 -0.028486006 -0.016503252 -0.03601945 -0.08304657 0.0016493438 0.048303742 -0.00041383298
-0.016724976 -0.0196278 0.090979986 -0.05060158 0.027991617 -0.075741105 -0.075824045 -0.06983515
-0.030386096 -0.032672353 -0.04305272 -0.03114388 -0.01403049 -0.00445747 0.034887005 -0.0018018907
0.035644315 0.01631609 -0.07019521 -0.051830545 -0.00093544065 -0.027993018 -0.06835203 -0.032011878
-0.040672574 0.043103572 0.013454161 0.03461769 0.08864464 -0.010808813 0.031909954 -0.06349513
-0.020936517 -0.06865453 0.08050965 -0.00925378 -0.02095789 -0.0127291735 -0.039514773 -0.04498848
0.037078854 0.040149104 0.007892582 -0.0018926276 0.01896258 0.08710233 0.063973196 -0.041599218
-0.037653342 0.07282381 0.06144201 -0.031854838 -0.0644965 -0.03475498 -0.06451363 0.012174205
0.0006057347 0.02654562 0.007915729 -0.09616711 -0.07370476 0.070615135 -0.07422181 -0.026500016
-0.039469805 -0.006299333 0.046768107 -0.051941235 -0.072065406 -0.073054984 -0.02783104 0.042244725
0.004574062 -0.017954392 0.00958451 -0.045520432 0.010611857 -0.077246025 0.006610339 0.051522095
0.0076759034 0.0053808577 0.046991635 0.014969768 -0.028267853 -0.045253083 -0.050424807 -0.025510816
-0.019419951 -0.0036285066 -0.00089415367 -0.04287396 0.04344596 -0.019026624 0.10260098 0.015441945
0.02902488 -0.07275223 0.14039856 0.013871036 0.054136027 -0.04591827 0.0026630268 0.0031713522
0.030338407 0.021434627 0.07857877 -0.06688063 -0.07366055 0.029479137 -0.001245089 -0.0530123
-0.006045635 0.10212232 -0.032162886 0.00018757531 0.028527744 -0.043505292 -0.050035395 -0.07908492
0.005970811 0.013646522 -0.023977498 -0.021479076 -0.057445016 0.038948238 0.046681643 0.05018912
-0.043748114 0.02898221 -0.042881913 -0.021258662 0.04500897 0.04507959 0.08428461 -0.03977451
-0.03318157 -0.0027988073 -0.042566646 0.0051847934 0.044073887 0.0042767967 -0.013759402 0.029510565
-0.008980422 0.095893934 0.11788314 0.050669003 -0.074640214 -0.051773015 -0.053950787 -0.040106446
-0.02725879 0.035594348 0.10034755 0.016729746 -0.052372143 0.09732925 0.08818142 -0.016488025
0.017096814 0.06538833 0.051848065 0.02636173 -0.09846378 -0.005272499 0.035642453 -0.089995906
-0.035948418 0.022108309 0.022051608 -0.03727414 0.050291557 -0.0122969 -0.03906244 0.0081050005
0.071238495 0.028576698 0.10373924 -0.024271196 0.014079072 -0.038861327 -0.047325168 -0.025340358
-0.030840587 -0.11441905 -0.04634926 -0.025634548 -0.032070626 0.0136971995 0.04958499 0.044777047
-0.043646637 -0.07763119 -0.021194281 0.034707274 -0.045871068 -0.09366854 0.02124775 -0.0038114502
00000000: 6f65 8dbc 2fec 2abd 2cfc de3c b208 bcbc
00000010: 5ea4 dfbc ceb6 64bc c37a 8ebd e117 3abd
00000020: 85e0 92bd d9da 733d 4408 613d f728 8a3d
00000030: f2a6 5bbd 3cb1 2db8 6aa2 06bd 5bc4 f0bc
00000040: 5b65 6d3d b83d 53bd 0833 c4bc 0d54 1bbd
00000050: db6c 283d bb90 cb3d b49a 9abd 3d1b 3cbd
00000060: b905 863d f0d7 bc3c 8b07 483d 73cc f4bc
00000070: 7d87 833d 5a67 573b 7461 b53b 22b7 16bc
00000080: c2ae ad3d a775 163d dadd 4cbc f74b f43b
00000090: d4a2 853d f957 c1bd d62a 82bc f4bb dd3c
000000a0: 7a9a 943c c104 18be ddf4 2a3d 9042 83bb
000000b0: 2c64 49bd 3d5d 02bd a9dc 83bd ae34 67bc
000000c0: c012 7fbd 7c5b e9bc d431 87bc 2189 13bd
000000d0: 5214 aabd cb2e d83a 25da 453d b9f7 d8b9
000000e0: d102 89bc 7bca a0bc b753 ba3d 9a43 4fbd
000000f0: ad4e e53c 271e 9bbd a349 9bbd bb05 8fbd
00000100: 43ec f8bc 72d3 05bd 0d58 30bd 7321 ffbc
00000110: 24e0 65bc f80f 92bb ade5 0e3d 6b2d ecba
00000120: c6ff 113d 52a9 853c 82c2 8fbd 444c 54bd
00000130: 5c38 75ba 9d51 e5bc 26fc 8bbd e31e 03bd
00000140: 4998 26bd 5f8d 303d d76e 5c3c 47cb 0d3d
00000150: 528b b53d 7317 31bc 03b4 023d bc09 82bd
00000160: 0f83 abbc bf9a 8cbd 3ee2 a43d 2b9d 17bc
00000170: e2af abbc 068e 50bc 3eda 21bd d745 38bd
00000180: ffdf 173d 6373 243d e34f 013c 0b12 f8ba
00000190: 6a57 9b3c b562 b23d 6104 833d f163 2abd
000001a0: 643a 1abd a624 953d 9eaa 7b3d 387a 02bd
000001b0: be16 84bd 3d5b 0ebd b91f 84bd 5176 473c
000001c0: 2bca 1e3a 3376 d93c f9b0 013c 43f3 c4bd
000001d0: 85f2 96bd ab9e 903d 9b01 98bd 9016 d9bc
000001e0: 17ab 21bd a36a cebb ea8f 3f3d 55c0 54bd
000001f0: 0797 93bd da9d 95bd ecfd e3bc ce08 2d3d
00000200: 03e2 953b 1715 93bc 5908 1d3c a273 3abd
00000210: 5bdd 2d3c 2a33 9ebd 8b9b d83b d508 533d
00000220: 2586 fb3b e851 b03b 4d7a 403d c243 753c
00000230: fc91 e7bc 4c5b 39bd 3e8a 4ebd 0ffc d0bc
00000240: 9716 9fbc 3dcc 6dbb a365 6aba 9b9c 2fbd
00000250: 64f4 313d b9dd 9bbc 7620 d23d 3600 7d3c
00000260: 96c5 ed3c 1fff 94bd a4c4 0f3e 5743 633c
00000270: bdbd 5d3d cc14 3cbd 2d86 2e3b 76d6 4f3b
00000280: 4088 f83c ac97 af3c e8ed a03d b6f8 88bd
00000290: 58db 96bd 3b7e f13c 4132 a3ba 6d23 59bd
000002a0: 761a c6bb 8225 d13d 3bbd 03bd ddaf 4439
000002b0: 04b3 e93c 9b32 32bd eaf1 4cbd 46f7 a1bd
000002c0: cba6 c33b a995 5f3c 756c c4bc e3f4 afbc
000002d0: 774b 6bbd 3088 1f3d 4035 3f3d 1b93 4d3d
000002e0: 3931 33bd 1a6c ed3c f2a4 2fbd a526 aebc
000002f0: 535b 383d 60a5 383d 699d ac3d 99ea 22bd
00000300: 66e9 07bd 326c 37bb 5d5a 2ebd 33e5 a93b
00000310: d286 343d 5f24 8c3b 1d6f 61bc 24c0 f13c
00000320: 9f22 13bc 0a64 c43d b76c f13d 4d8a 4f3d
00000330: f8dc 98bd f10f 54bd 80fb 5cbd a846 24bd
00000340: d34d dfbc 61cb 113d 0483 cd3d d20c 893c
00000350: 2c84 56bd 8f54 c73d 7698 b43d e511 87bc
00000360: 9e0e 8c3c 51ea 853d a35e 543d 8ef4 d73c
00000370: 61a7 c9bd edc4 acbb d2fd 113d c64f b8bd
00000380: a63e 13bd 7c1c b53c 93a5 b43c c5ac 18bd
00000390: 85fe 4d3d f078 49bc f0ff 1fbd d6ca 043c
000003a0: 7de5 913d ae19 ea3c 3d75 d43d 63d4 c6bc
000003b0: e8ab 663c 0e2d 1fbd 09d8 41bd 9596 cfbc
000003c0: 66a5 fcbc 8954 eabd b9d8 3dbd 8bff d1bc
000003d0: 7d5c 03bd 386a 603c a119 4b3d 2368 373d
000003e0: d1c6 32bd 1afd 9ebd a19f adbc 3729 0e3d
000003f0: 4de3 3bbd 4bd5 bfbd c30f ae3c 86c9 79bb
