classifier_save.pth (torch, 626161 bytes, 11 tensors)

layers.0.weight f4 [64, 3, 4, 4]
000000 61 e5 12 bd a6 e7 4b 3e cc e9 7d 3e c9 3b 85 3e
       -0.035863284 0.19912586 0.24796218 0.26022175
000010 5d be 1f be ba 67 c0 bd 5b ff 6f bd c9 8a 45 3e
       -0.15599962 -0.09394784 -0.058593135 0.19291224
000020 42 d8 3d be 60 4c 2e 3c 77 fe f7 3d be cd 11 3c
       -0.18539527 0.010638326 0.12109082 0.00889915
000030 cb 4f 42 be 23 97 19 be 74 e9 a1 bd c9 85 be 3d
       -0.18975751 -0.1499906 -0.07905856 0.09302861
000040 e9 81 e5 bb e2 ee cb bc 04 fb d5 3d c1 a3 b8 3d
       -0.007004012 -0.024894182 0.10448268 0.090156086
000050 1c 09 cc bd 55 8c b9 3c 29 e5 7a bd a2 43 4d bd
       -0.09962675 0.022649923 -0.0612537 -0.050113328
000060 3c fc f2 3b cb 8d bb bd 8a 07 ea bd 03 6f e1 bc
       0.0074153226 -0.09157904 -0.11427219 -0.027518755
000070 22 10 02 3d 61 32 fc 3d 1c 63 c4 bd d0 54 a5 3d
       0.031753667 0.123142965 -0.09589216 0.08072817
000080 65 0b f5 bd 42 21 a4 bd f6 15 f0 bd cb 6c 9d 3c
       -0.11965064 -0.08014156 -0.11722939 0.019216916
000090 21 8a b1 3d 53 ba 24 be 60 0f 7f be a2 d0 3c be
       0.08668924 -0.16086702 -0.24908209 -0.18438962
0000a0 88 4f 60 3e 7a 6b 24 3e 82 2b cf 3d 7c aa 16 be
       0.21905339 0.16056624 0.1011572 -0.14713472
0000b0 1d 12 f7 3d 36 5d ba 3d d8 b6 22 3e 3d 1a f9 3d
       0.12064002 0.0909981 0.15890062 0.12163208
0000c0 13 ca 03 bd 5a 96 a1 bd 97 cb e7 bd 8c 21 60 bd
       -0.032175135 -0.078900054 -0.113181286 -0.054719493
0000d0 bf 50 00 be fb 55 12 be af cb 1c be 92 43 a3 bd
       -0.12530802 -0.14290611 -0.15312074 -0.079718724
0000e0 86 c7 1a 3e 7c e9 8d bd e0 68 a7 3d ec 09 91 3d
       0.15115175 -0.06929299 0.081743 0.070819706
0000f0 73 31 ef bc d4 22 28 b9 0d 06 2a 3e 4a ee 80 3e
       -0.029198384 -0.00016034703 0.1660387 0.251818
000100 51 2e 8f 3e 83 ed 5f 3e 78 bc 9b 3d cb 0f 2c 3e
       0.27965024 0.21867947 0.07604307 0.168029
000110 00 a9 e7 3d 25 3b 06 bd db b6 06 be 7f 81 33 3d
       0.11311531 -0.03277125 -0.13155691 0.04382467
000120 74 bd 84 3c 3b d0 17 be 6c 69 0b 3b 15 0f 06 bd
       0.01620362 -0.14825527 0.0021272553 -0.032729227
000130 77 37 18 be 99 58 17 bd 04 c7 bc bd 67 96 c8 3d
       -0.14864908 -0.036949728 -0.09217647 0.09794312
000140 4a aa 3f 3e c3 8b 9f 3d af 20 ed bd 93 73 74 bc
       0.18717304 0.07790329 -0.115784995 -0.014920133
000150 99 41 47 3e 08 c5 b5 bd a2 10 cf bd 6c 02 42 3d
       0.19458617 -0.08875471 -0.10110594 0.04736559
000160 90 ad 19 3b 0b 92 38 be c0 4b 37 be 2c c3 d6 bc
       0.0023449399 -0.18024461 -0.1789999 -0.026216112
000170 06 6d 74 bb b1 42 41 bc d9 72 ef 3c 24 1a 75 bd
       -0.0037296428 -0.011795686 0.029229568 -0.059839383
000180 23 78 2e bd 57 61 30 3e 4b 9f b0 bd cf ae 5c 3d
       -0.04259504 0.17224632 -0.08624133 0.053877648
000190 64 18 16 3e 5d 7d 26 bc 67 da f4 3d c5 86 09 3d
       0.14657742 -0.010161725 0.119557194 0.033575792
0001a0 e2 64 5b be ea 95 39 bd c0 22 2b be cf 3b 30 bd
       -0.21425202 -0.045308985 -0.16712475 -0.043025788
0001b0 c6 cb 20 be d3 cb e3 bd 18 58 b2 bd bf 56 64 3e
       -0.15702733 -0.11122861 -0.08708209 0.22298716
0001c0 22 ce 3e bd 40 6e f9 3d c9 42 e9 3d 7d 93 e8 bd
       -0.046583302 0.12179232 0.113896914 -0.11356256
0001d0 d5 61 2a 3e 82 ac 5d 3e c8 c5 13 3e 60 60 83 bd
       0.16638882 0.21647838 0.14430916 -0.064148664
0001e0 1b d0 e2 3d 23 94 80 bd b3 7a 20 bc ec 65 3e bd
       0.11074849 -0.06278255 -0.009794879 -0.04648392
0001f0 df 28 fa bc c4 1e 16 be 55 bb 83 bd 57 f7 d2 3d
       -0.030537067 -0.14660174 -0.06432215 0.103010826
000200 37 9e df bd 3e 03 ea 3d c2 15 28 3c 3c fb 93 3d
       -0.10918849 0.114264 0.010259094 0.072256535
000210 dc c8 04 bd 3a 8b ac bd d2 ec 6a bd 3f b0 4b 3d
       -0.032418117 -0.08424993 -0.057354756 0.04972863
000220 e0 db 99 be 58 6a 8f be 9b b9 0d be 57 c4 06 3e
       -0.30050564 -0.2801082 -0.13840334 0.13160835
000230 4b 45 91 be ab 5b 87 be ac f2 31 be 84 e3 85 3e
       -0.2837318 -0.26437125 -0.17377728 0.26150143
000240 26 15 84 3d a3 51 79 bd 8d 35 83 bc 3e 60 aa bc
       0.06449346 -0.06086887 -0.016016746 -0.020797845
000250 68 6a 1f be d2 11 ae bd 5f 1f bb bd 2d 0a a3 3d
       -0.15567935 -0.08499493 -0.09136843 0.07960925
000260 ea d9 b2 3d f9 98 18 3e 3a f9 80 bd 2b 39 2f 3b
       0.0873297 0.14902104 -0.06297536 0.0026736956
000270 2f 10 8f 3e 85 15 7a 3e 59 40 c3 bc 11 92 89 bc
       0.27942035 0.24422272 -0.023834394 -0.016793283
000280 0e 7d 31 3d cc 64 06 3d 14 c1 aa bd 76 b1 76 bd
       0.043332152 0.03281097 -0.08337608 -0.060227834
000290 49 49 8f bc 3e fe 60 bd 27 33 e3 bc 7b 9b 04 be
       -0.017491 -0.054929964 -0.027734352 -0.12949936
0002a0 d4 3d 3e 3d 2b e6 16 be 82 26 6e be 00 14 90 be
       0.046445683 -0.1473624 -0.23256877 -0.2814026
0002b0 df 0f 51 3e 0e 09 00 3d 3c 8f 65 3d 3d 91 5f be
       0.2041621 0.031258635 0.056044802 -0.21832748
0002c0 9f df 5f bd 84 5d 83 3d 89 4f 20 3d 84 89 10 3d
       -0.05465662 0.06414321 0.03913835 0.035287395
0002d0 24 9c 20 3e 61 02 6c 3e e2 e0 0c 3e 76 0b 44 3c
       0.15684563 0.23047782 0.13757661 0.011965623
0002e0 2d b8 35 3e 18 81 76 3e 25 d2 d4 bd 4b ac 4d be
       0.17746039 0.24072683 -0.103916444 -0.20085256
0002f0 1e a4 65 3e c9 a5 6e 3d e0 58 3a 3e 06 35 21 3c
       0.22425887 0.058263574 0.18197966 0.009839302
000300 68 0f 70 3e 02 7a b4 bd 61 ff 4f bd 50 08 9f 3d
       0.23443377 -0.08812334 -0.050780658 0.07765257
000310 69 c7 24 3e 86 be 60 3e 4c 34 2f be a1 a7 46 be
       0.16091694 0.21947679 -0.17109793 -0.19399883
000320 25 66 ed bc cf ec cf 3d e2 ed 19 3d 4f c9 55 be
       -0.02897937 0.101525895 0.03758038 -0.20877574
000330 93 9c 29 3e 53 44 89 bd ef b9 88 3c 78 a5 96 3d
       0.16563635 -0.06702485 0.016690223 0.073557794
000340 35 8a bb 3d 4f 8b 2e be 9f 45 a8 bd d4 72 74 bc
       0.0915722 -0.1704533 -0.08216404 -0.014919955
000350 e5 2e 80 bd ec c8 67 3e 7e b6 f6 bc cc 4e af 3d
       -0.062589444 0.2263524 -0.030116316 0.08559951
000360 21 87 39 be 47 7e 27 3e d4 5e 52 3e f2 0f 84 3c
       -0.18117954 0.16356765 0.20543987 0.016120885
000370 2a 28 9b bd 77 4e 1f bd a5 fc ff 3c 2a 6f 44 bc
       -0.0757602 -0.03889319 0.0312484 -0.011989394
000380 a3 12 d6 3d 8d a9 28 bd 72 c3 a9 3c fb 9f 8f bd
       0.104527734 -0.04117732 0.020723078 -0.07012936
000390 a6 ad a0 3d cb ec 01 3e 4d cf 1f be a2 55 28 be
       0.07845621 0.12687986 -0.15606423 -0.16438916
0003a0 1f d4 df bd f3 58 84 bd 50 5b 42 3e b2 1a 09 3e
       -0.10929131 -0.06462278 0.18980145 0.1338909
0003b0 28 ca 4e be 40 9e 6a be 79 56 52 3d 93 29 81 3c
       -0.20194304 -0.2291193 0.051351998 0.015766894
0003c0 d8 6c 14 3d 13 47 23 3d f7 49 d1 bd a1 b2 53 3e
       0.036236614 0.039862704 -0.10219186 0.2067361
0003d0 0d c8 be 3d 46 1a 6b 3d 87 eb f7 bd 27 f3 35 bc
       0.093155004 0.057398103 -0.1210547 -0.011105335
0003e0 9a 05 fc bd 8c b2 39 bc f7 fb cd bd da af 86 bd
       -0.12305756 -0.011334073 -0.10057824 -0.0657651
0003f0 71 76 0b bc 95 c6 f4 3c a0 1a ab 3d d6 2c 7e 3a
       -0.008512125 0.029879848 0.08354688 0.0009696012

layers.1.weight f4 [64]
000000 5d 96 73 3f d3 f8 52 3f f0 43 63 3f 29 e1 2d 3f
       0.9515131 0.82410926 0.8877554 0.6792169
000010 ac 62 57 3f 5b 98 6e 3f 46 0c 30 3f 41 6a 8b 3f
       0.84134936 0.93201226 0.6876873 1.0891801
000020 32 91 55 3f 14 6b 77 3f cf 2e 69 3f f8 0b 76 3f
       0.83424675 0.96647763 0.9108705 0.9611201
000030 b1 fe 88 3f 41 1f 6a 3f d6 65 f1 3e a0 37 84 3f
       1.0702726 0.9145394 0.47148007 1.0329475
000040 0f 89 70 3f 62 f7 90 3f cf ea ab 3f 31 c0 16 3f
       0.93959135 1.1325495 1.3431033 0.5888701
000050 ac 86 92 3f b2 7f 6b 3f 43 5c 2d 3f d6 99 5b 3f
       1.1447349 0.9199172 0.67718905 0.8578161
000060 5b cd 6a 3f a9 e1 67 3f 53 eb ac 3f 62 38 51 3f
       0.917196 0.90578705 1.3509315 0.8172666
000070 f6 28 9b 3f 87 37 74 3f 3d 31 37 3f b5 50 96 3f
       1.2121875 0.9539723 0.71559507 1.174338
000080 d4 b9 97 3f 6e 56 41 3f 64 b7 63 3f af 5c 4d 3f
       1.1853585 0.75522506 0.88951707 0.8021955
000090 fe e4 32 3f fe 3d 82 3f fd 9c 36 3f 4b 5a 57 3f
       0.69880664 1.0175169 0.71333295 0.8412215
0000a0 67 41 96 3f 7b d2 74 3f 27 e2 8b 3f 87 d4 77 3f
       1.1738709 0.9563367 1.0928391 0.96808666
0000b0 58 62 3c 3f 1a eb 58 3f 32 0d 6a 3f dc 29 22 3f
       0.7358756 0.84733737 0.91426384 0.6334512
0000c0 0c bb 47 3f 25 5e 50 3f a3 30 35 3f e6 e1 9b 3f
       0.78019786 0.81393653 0.7077734 1.2178314
0000d0 b1 fb 4e 3f 1c bf 86 3f ab a1 6a 3f 78 cc 60 3f
       0.808528 1.0527072 0.91652936 0.87811995
0000e0 08 39 c1 3f 4c 14 68 3f 4f 38 4f 3f dc ff 55 3f
       1.509553 0.9065597 0.80945295 0.83593535
0000f0 e9 14 83 3f 15 92 1f 3f c4 6f b1 3f 67 60 58 3f
       1.0240756 0.6233228 1.3862233 0.845221

layers.1.bias f4 [64]
000000 28 35 c7 be 34 a7 ce be d1 9f 04 bf 1f 39 8f be
       -0.38907743 -0.4036194 -0.5180636 -0.27973267
000010 f9 eb 12 bf 27 f1 52 bd d6 aa a6 bd 5c 4c 68 be
       -0.57391316 -0.051499512 -0.08138053 -0.22685379
000020 ae 22 a7 be aa 5f 0d bf b1 d0 22 be 82 90 dc be
       -0.32643646 -0.55224097 -0.15899922 -0.43079
000030 03 6b 3b be 4f bc 11 bf 10 c8 d7 bd 63 3c 0c be
       -0.1830254 -0.5692796 -0.10536206 -0.1369491
000040 c7 22 ab bd 3f 4a f8 be 16 52 eb be 00 c3 16 3e
       -0.083562426 -0.48494145 -0.45961064 0.14722824
000050 8d 92 e1 be 09 90 df be 1d 4a a0 be 7c d2 e1 be
       -0.44057122 -0.43664578 -0.31306544 -0.441059
000060 6c 21 ec be 70 42 ef be f6 10 ae 3b 2f 5a b3 be
       -0.4611925 -0.46730375 0.0053120805 -0.35029742
000070 a8 63 a9 be 80 fe 01 bf 51 f0 8c be 27 c5 a0 be
       -0.33083844 -0.5077896 -0.27527097 -0.31400415
000080 42 c4 d5 be 7a 9d b7 be b5 7d cb bd 5d 2e 04 bf
       -0.41751295 -0.35862333 -0.09936086 -0.51633245
000090 66 21 0c bf d5 ca c6 be 1b c4 84 3d 4f df ee be
       -0.5473846 -0.38826624 0.06482717 -0.46654746
0000a0 28 7b 7e be de 6a 83 be 97 4e a4 be 38 bb 8e be
       -0.24851668 -0.2566747 -0.3209121 -0.27877212
0000b0 23 79 10 bf 53 c5 f2 be 05 45 85 be dd c1 5a be
       -0.5643484 -0.4741617 -0.2602922 -0.21363015
0000c0 50 d5 be bd df bf 48 be 4c 16 ff be 4c a5 48 be
       -0.0931803 -0.19604443 -0.498217 -0.19594306
0000d0 07 83 c8 be 36 56 9c be a5 2f 3f be 3e 17 61 be
       -0.39162466 -0.30534524 -0.18670519 -0.21981522
0000e0 c4 58 b9 bc 6c 42 8e be 5a 30 7d be a4 5a 4f be
       -0.022625335 -0.2778505 -0.24725476 -0.2024942
0000f0 cf 0c 03 be 79 0e 58 be fb c2 5a be 17 96 76 be
       -0.12797855 -0.21099271 -0.21363442 -0.24080692

layers.1.running_mean f4 [64]
000000 79 d7 80 3c 97 45 49 bd de bc c3 be e4 50 90 3e
       0.015727745 -0.04913863 -0.38230032 0.28186715
000010 f1 bb a7 3d 6d cf cb bc c3 88 dd bd 01 62 89 3c
       0.08190144 -0.024879182 -0.10817101 0.016770365
000020 5a 3c d2 be 89 77 96 be 30 7c 40 bd 8a bc 73 bd
       -0.4106167 -0.29388073 -0.046993434 -0.059505977
000030 1e ba a6 bb de 4b 5b be c3 37 0e 3e 31 06 9e bc
       -0.005088105 -0.2141566 0.13888459 -0.019290062
000040 39 b7 56 bd 0d e9 cb 3c 78 83 59 bd 4a 4f a7 ba
       -0.05242083 0.0248914 -0.053103894 -0.0012764719
000050 4b 49 03 be 29 ec 5c 3d ab 6e ad 3e 9b 2e f1 be
       -0.12820928 0.053936157 0.33873495 -0.4710587
000060 53 52 92 bd f0 37 ec be d6 7d 52 bd f8 49 14 bc
       -0.07144608 -0.46136427 -0.051389538 -0.009050839
000070 da 03 92 bc 4f d9 10 bd 67 88 62 bd d0 ee 9e 3a
       -0.017824102 -0.03536349 -0.055305865 0.0012125615
000080 0a 53 6a bd 39 52 e6 3e 72 2a 1e 3d 43 7b 65 3e
       -0.0572081 0.44984606 0.038614698 0.22410302
000090 3d 25 01 3f c1 aa f7 bd a3 50 8d 3a 25 da 2f 3e
       0.50447446 -0.120931156 0.0010781478 0.1717306
0000a0 9e 9a cd bc c8 47 7e 3c f9 7b 71 bc dc 4a f1 3c
       -0.025098141 0.015520044 -0.01473903 0.029454641
0000b0 7c 53 0b 3e df 27 0f bf 83 8d bb bc 06 06 b3 bd
       0.13606066 -0.55920213 -0.022894626 -0.08741383
0000c0 10 90 b9 bc f4 6c c4 bd 9b 17 cb 3d 3a 1d f6 bc
       -0.022651702 -0.09591094 0.09916612 -0.030043233
0000d0 cc bb bb be e6 83 e3 bc df f8 b2 bc 28 ef b4 3c
       -0.36666715 -0.027772855 -0.021847187 0.022086695
0000e0 33 3c 52 3c bf b5 20 bd d2 da 85 3d fd b9 80 bc
       0.012831735 -0.039235827 0.06535877 -0.015713686
0000f0 28 a6 39 bb 23 21 c0 3c 85 05 42 3b 51 84 18 bd
       -0.0028327797 0.0234533 0.002960534 -0.03723556

layers.1.running_var f4 [64]
000000 de b4 b5 3c 14 fc ef 3c 25 1c de 3d 8b 72 dc 3d
       0.02218097 0.029295005 0.10845212 0.10764035
000010 4e 6f 6d 3c c9 e9 5b 3d 47 97 25 3d 05 13 2a 3c
       0.014491869 0.05368975 0.040427472 0.010380511
000020 1b 03 6f 3d 06 72 fa 3d 02 28 f3 3c ff fa 1b 3d
       0.05835257 0.122287795 0.029682163 0.038081165
000030 11 4a 31 3d 39 08 25 3d c3 61 95 3d 18 e5 b6 3d
       0.043283526 0.040291045 0.07294037 0.08930415
000040 60 17 f9 3d d2 05 b0 3b 0d d7 69 3d 36 b4 2e 3d
       0.121626616 0.0053717876 0.057089854 0.04265233
000050 03 46 91 3c e2 b6 24 3c 59 8e 20 3e 73 9f 11 3e
       0.01773358 0.010053368 0.15679301 0.14220981
000060 ea 57 ec 3b f4 03 fb 3d a2 3d 77 3c 18 e7 98 3c
       0.0072126286 0.122566134 0.015090378 0.018664882
000070 fa 96 96 3c 3a 62 24 3c 4e 8e 9e 3c ae 4d d4 3b
       0.018382538 0.010033185 0.019354966 0.0064789867
000080 97 00 11 3d 73 2f b3 3d 7d 26 8f 3c 4c 21 44 3d
       0.035400953 0.087492846 0.017474407 0.047883317
000090 9b 5e 18 3e bc 0a 27 3d c9 95 7b 3c af a9 ed 3c
       0.14879839 0.04078172 0.015355536 0.029011576
0000a0 6b a6 94 3b 60 e8 3a 3c c0 b0 bf 3b 6f 26 21 3d
       0.00453644 0.011407942 0.0058499277 0.039343294
0000b0 b3 d3 0a 3d 97 b8 da 3d 08 aa b5 3d c2 56 4b 3d
       0.0338933 0.10679739 0.088703215 0.049643286
0000c0 70 e7 88 3c 4b 73 02 3d e9 0d cf 3d 68 a1 73 3c
       0.01671192 0.031848233 0.10110075 0.014870025
0000d0 60 98 89 3d a6 ca 9b 3c c3 f8 4c 3d 69 15 59 3d
       0.06718516 0.019017529 0.050041925 0.052998934
0000e0 74 6f 9f 3c 09 e1 6e 3d 29 37 be 3d dc 19 f0 3c
       0.019462325 0.05832008 0.09287865 0.029309206
0000f0 dc 8b 35 3d 22 da 46 3d b7 3d 8f 3b d8 41 e1 3c
       0.044322833 0.04854787 0.0043713707 0.027497217

layers.3.weight f4 [128, 64, 4, 4]
000000 86 fc 25 be 16 9c ac bd 7e c7 e1 bd f0 73 7c 3c
       -0.16209611 -0.084282085 -0.11024378 0.015408501
000010 a2 8f fa bc ef f3 4e bd 9a 84 1c be e4 d4 9d 3d
       -0.030586068 -0.050525602 -0.15284958 0.07706621
000020 0c 03 81 3e 82 64 12 3e 71 d5 83 3d 76 df ec 3d
       0.25197637 0.14296153 0.06437195 0.11566059
000030 fc 25 37 3e eb f1 bd 3d 44 ce 07 bc 21 21 56 3d
       0.17885584 0.09274658 -0.008288924 0.052277688
000040 8e 15 5a bc 50 09 f3 3d 1f 93 17 3e ca 13 50 3e
       -0.013310803 0.118670106 0.14802216 0.20320049
000050 3e 93 94 3d 7e 9b d0 3d c5 45 da 3d fd d8 30 3e
       0.07254647 0.10185908 0.10657839 0.17270274
000060 1f 54 34 be 01 58 ae bd a6 f2 15 bd 9a 4f 90 3c
       -0.17610215 -0.08512879 -0.03660836 0.017616082
000070 23 73 5d be 16 b7 57 be 13 dd c9 bc 38 92 02 3d
       -0.21625952 -0.21065935 -0.02464155 0.031877726
000080 30 8f 6c bd 24 95 82 bd 01 d6 1a bd 1c ad f6 3d
       -0.05775374 -0.063761026 -0.037801746 0.12044737
000090 88 3a 6c 3d 7d 08 60 bd 7f 2a 9b bd c3 45 a4 3d
       0.057673007 -0.054695595 -0.07576465 0.080211185
0000a0 cb 82 15 3e 3c b3 fe 3d c0 12 27 3c fa 4a 12 3d
       0.14600675 0.1243653 0.010197341 0.035716034
0000b0 00 55 87 3d c0 ee a1 3d 40 c9 2e 3c c4 37 95 bb
       0.06608009 0.07906866 0.010668099 -0.004553767
0000c0 0b fa 80 bd ea e2 f9 bd d5 c6 42 bd a4 fa ff bd
       -0.06297692 -0.122014835 -0.047552902 -0.12498978
0000d0 09 34 9c bd 96 6b cc bd 18 04 5e bd 88 3c c2 3c
       -0.076271124 -0.09981458 -0.054203123 0.023710504
0000e0 02 ce 0b 3e 85 26 5b 3d b9 1a 83 3c c7 b8 33 39
       0.13652804 0.053503532 0.016003953 0.00017139605
0000f0 49 f6 2b 3e 3e df 52 3d d5 c4 3d 3d 5f 39 78 bd
       0.16793169 0.05148243 0.04633029 -0.06060159
000100 ba fa 5c 3c cf 6e 00 be 03 65 e8 bc 37 0d a1 bd
       0.013487512 -0.1254227 -0.028368479 -0.07863849
000110 30 51 58 3e e3 62 68 3d e7 5b 0a be bf aa a0 bd
       0.2112472 0.05673493 -0.1351162 -0.07845067
000120 01 e2 52 3e ec de 96 bd 40 17 23 3b 57 9d 37 be
       0.20594026 -0.07366738 0.0024885684 -0.17931114
000130 55 3b ca bd 12 5f 46 bd 83 7d 06 3e 3f 6c 1a be
       -0.09874598 -0.04843051 0.13133816 -0.15080355
000140 2b 8f 32 3e 7a 29 10 be 20 4e f1 3d 40 90 ab 3c
       0.17437427 -0.14078322 0.11782479 0.020942807
000150 62 e7 f1 3d 71 11 d2 3d d6 ff fd 3c 3e 35 a5 3d
       0.11811711 0.10257233 0.031005781 0.08066796
000160 1b d4 1f 3e 2d 4e 4f 3e bf 80 e9 3d fa c3 5c 3c
       0.15608256 0.20244665 0.114015095 0.013474459
000170 95 79 1f 3e a8 53 40 3e 9b 27 1d 3e e9 53 c8 3d
       0.15573724 0.18781912 0.1534714 0.097816296
000180 83 2d 9c 3c 88 8c a6 3d c7 76 7a 3d 6e 17 22 3c
       0.01906467 0.08132273 0.06114843 0.009893281
000190 01 70 cc 3d 5d 7a 97 3d af 40 f2 3c 23 29 9c 3d
       0.099823005 0.07396386 0.02957186 0.07625034
0001a0 bc cf 29 3e 8c b7 17 3d 8a 20 80 3d 2d 20 95 3d
       0.1658315 0.03704028 0.06256206 0.07281528
0001b0 ca 08 d2 3d 3c 3c 93 3d 20 70 b5 3d bf 21 f2 3d
       0.10255583 0.07189223 0.08859277 0.11822843
0001c0 63 1b 87 3d 09 d3 86 3d b2 55 88 3d e6 6f ee 3d
       0.065970205 0.065832205 0.0665697 0.11642437
0001d0 89 6a 91 3d d1 ff c7 3d 58 e2 ae 3d e9 8d 07 3d
       0.07100398 0.0976559 0.085392654 0.03309432
0001e0 13 a1 31 be 1a 31 b1 bd 3a 0e b6 3c b6 8e d5 3d
       -0.17346601 -0.086519435 0.02222358 0.104276106
0001f0 91 34 ae be 86 69 90 be 99 07 f7 3a 64 cf 3c bd
       -0.3402448 -0.28205508 0.0018846869 -0.04609622
000200 a7 c0 a9 3d 76 b1 31 3c c6 fe 92 bd 8e 5e fc 3c
       0.08288699 0.010845533 -0.071775004 0.030806806
000210 0e 6a 21 be d1 f3 db bd f2 be 05 be cd 93 2d be
       -0.15763113 -0.10739864 -0.13061121 -0.16950913
000220 46 7b 0d be b5 24 3c bd ce 6f 16 be 30 43 a4 bd
       -0.13816556 -0.045933444 -0.14691088 -0.080206275
000230 b8 6d 35 bb 26 72 2e be ba 57 c7 bd e5 0c 7b bd
       -0.0027683806 -0.17035732 -0.097335294 -0.061291594
000240 f1 d2 92 3d 99 69 c5 3d a8 a3 2f 3d 30 3e a6 3d
       0.0716914 0.09639282 0.042880684 0.0811733
000250 bf f0 7e bc d2 9e 3f 3e fa 5c 10 bd 6b 2a c7 bc
       -0.015560328 0.18712929 -0.03524492 -0.024312219
000260 70 26 fc bc 5e 7f 65 3e d5 3a 11 bd 52 66 a3 3d
       -0.030780047 0.22411868 -0.035456497 0.079785004
000270 53 8d 3c 3e a8 71 aa 3c 9a 56 e2 3d 5e ed 12 3e
       0.18413286 0.020806149 0.11051674 0.14348361
000280 fd 6c 74 be b6 9b 76 bd 8e a1 b8 bd 74 bb bd 3d
       -0.238697 -0.06020709 -0.09015189 0.092642695
000290 dc 83 d4 3d fb 34 a7 3d 0e cf ef 3d 4b 2c 7b 3e
       0.10376713 0.08164402 0.117094144 0.24528615
0002a0 5d bd 8c 3d b8 9c ca bc a7 55 97 bd f3 fc 90 3d
       0.06872056 -0.024732932 -0.07389384 0.07079496
0002b0 d4 5a 37 3e dc 1f 9b 3d 95 a1 20 3e 28 c9 08 3e
       0.17905742 0.07574436 0.15686639 0.13357985
0002c0 27 e8 8b 3d 72 16 d6 3d 5b 8f a3 3d f0 73 2a be
       0.06831389 0.104535 0.07986327 -0.16645789
0002d0 a1 a6 12 3e fa 7e 47 3e c9 ff 51 3d a4 5f 34 3e
       0.14321376 0.19482031 0.051269326 0.17614609
0002e0 ae fa 3f 3e 87 c3 13 bd 58 3f de 3d f0 6a 09 3e
       0.1874797 -0.03607514 0.108519256 0.134197
0002f0 0d 25 9f 3d 77 b2 ac 3d ac 56 18 bb a7 bb 6d 3e
       0.07770739 0.08432477 -0.002324502 0.23216115
000300 08 54 34 3d 7e 45 b5 3c 3f 50 f4 bd 51 e3 48 3d
       0.04402545 0.022127863 -0.11929368 0.04904491
000310 3d 87 af 3d 47 00 88 3d 30 7f be 3d fd 0f 9d 3d
       0.085707165 0.06640678 0.09301603 0.07669065
000320 00 ad 35 3e 6c a7 0f 3e 14 17 0a 3e 30 dd 27 3e
       0.17741776 0.1402871 0.13485366 0.1639297
000330 d4 88 3e 3e 62 09 5d 3e 05 70 1b 3e cd b5 73 3e
       0.18606883 0.2158561 0.15179451 0.2379982
000340 d1 f1 61 bc dd 54 34 3e 9b 1d 9c 3c 15 9f 29 3e
       -0.013790564 0.17610498 0.019057086 0.16564591
000350 48 63 0b be b2 cf b9 3d a8 3c a2 bc fc 47 40 3d
       -0.13612092 0.09072818 -0.019804314 0.04694365
000360 33 51 75 bd a5 b9 4e 3d cc 4c aa 3b 73 76 c3 3d
       -0.05989189 0.050470013 0.005197143 0.09544077
000370 87 72 92 3d 69 55 29 3e 9f 13 ae 3d 8e 04 44 3d
       0.071507506 0.16536488 0.08499836 0.047855906
000380 c3 19 28 bd f8 0f 2b bd f5 51 54 bd e2 b3 de bb
       -0.041040193 -0.041763276 -0.051835973 -0.006796346
000390 69 82 05 bc 25 e0 c9 3c f8 b6 0f be 44 02 10 3d
       -0.008148768 0.024643013 -0.14034641 0.03515841
0003a0 47 d3 aa bc 5f ca 3a be ed e1 1b be 51 fa 0e be
       -0.020852698 -0.18241261 -0.15222903 -0.13962676
0003b0 b1 51 91 bd 39 eb 8b bc c7 ec a6 bd 45 e3 80 bd
       -0.070956595 -0.017079936 -0.081506304 -0.06293348
0003c0 00 f0 4f bd 03 04 a7 3d 41 bc 9c bd 26 47 e4 bc
       -0.05076599 0.08155062 -0.07653094 -0.027865957
0003d0 2b e0 a0 3d 19 75 94 3d 36 59 80 3c b4 db 34 3d
       0.07855257 0.07248897 0.01566754 0.044154838
0003e0 38 43 8e 3d 98 5e 33 3e a5 68 f9 3d 34 6b 04 3e
       0.06946415 0.17516553 0.121781625 0.1293152
0003f0 fb b4 17 3e 3b 36 2d 3e 3e 1c 02 3e 0c 4a c2 3d
       0.14815132 0.16915219 0.12706086 0.094867796

layers.4.weight f4 [128]
000000 60 0f 9c 3f 83 6a 9b 3f 95 a5 89 3f cc 94 ad 3f
       1.2192192 1.214188 1.0753657 1.3561034
000010 32 0c 8e 3f 30 eb a6 3f 3e 30 96 3f 2f 41 8f 3f
       1.1097472 1.3040524 1.1733472 1.1191767
000020 aa 02 8c 3f 99 dd 8f 3f de 92 96 3f 7c f9 9e 3f
       1.0938313 1.1239501 1.176357 1.2419887
000030 d7 5a 9e 3f 6d 90 94 3f 09 31 96 3f 32 ca 83 3f
       1.2371472 1.1606575 1.1733714 1.029608
000040 05 a3 91 3f a1 80 a4 3f e4 aa a4 3f 59 e3 97 3f
       1.1377875 1.2851754 1.2864652 1.1866256
000050 71 ec 87 3f 1a a0 9e 3f 52 46 82 3f ed 31 7a 3f
       1.0619031 1.2392609 1.017771 0.9773243
000060 0d 7f 94 3f 50 f1 8f 3f 90 4e 99 3f 4c f4 8f 3f
       1.1601273 1.1245518 1.19771 1.1246428
000070 50 9b a1 3f 47 8f 8d 3f 86 5e 96 3f 31 46 8d 3f
       1.2625523 1.105935 1.1747596 1.1037046
000080 4e 17 98 3f fc 11 7e 3f 46 38 9b 3f 1b 81 91 3f
       1.1882112 0.9924619 1.2126548 1.1367525
000090 f1 1a a1 3f b7 8c a6 3f 5e 49 94 3f e0 ea 9e 3f
       1.2586347 1.3011693 1.158489 1.2415428
0000a0 9e 90 a4 3f a3 e3 8f 3f 54 6e 8b 3f 5f 36 98 3f
       1.2856634 1.1241344 1.0893044 1.1891593
0000b0 11 8c 9b 3f 04 ed 97 3f 02 bd 9b 3f cb 4f a2 3f
       1.215212 1.1869206 1.2167056 1.2680601
0000c0 02 31 ae 3f 0f 84 9d 3f a9 2f 97 3f 75 f2 94 3f
       1.3608706 1.2305926 1.181142 1.1636492
0000d0 98 bd 96 3f 37 87 95 3f 6d 9d 8e 3f 97 6c 89 3f
       1.177661 1.1681889 1.1141793 1.0736264
0000e0 d9 99 8e 3f 6e b2 85 3f 0e c3 aa 3f 00 76 94 3f
       1.11407 1.0445077 1.3340776 1.1598511
0000f0 0c 37 86 3f 07 e0 9a 3f 71 c0 95 3f 8a d1 95 3f
       1.0485549 1.2099618 1.1699353 1.1704571
000100 1c 6d 9c 3f cd 14 8f 3f 33 0c 8c 3f 78 ac a9 3f
       1.2220798 1.1178223 1.0941223 1.3255758
000110 f2 5e 90 3f 07 8d b4 3f 92 5c a0 3f fc dd a5 3f
       1.1278975 1.4105538 1.252825 1.2958369
000120 a1 ee 9e 3f 8e 67 96 3f ae 84 96 3f 8d 16 84 3f
       1.2416574 1.1750352 1.1759241 1.0319382
000130 24 b5 93 3f e6 b6 98 3f 77 14 8a 3f db ec 8d 3f
       1.1539655 1.1930816 1.0787495 1.1087908
000140 bc b3 96 3f b6 5f 8c 3f 61 26 97 3f 63 2a 8c 3f
       1.17736 1.0966709 1.1808587 1.0950435
000150 21 d7 8f 3f f7 33 95 3f bf b7 a6 3f 49 99 9e 3f
       1.1237527 1.1656483 1.3024825 1.2390529
000160 16 e3 9e 3f 9c b6 94 3f 12 8d 9f 3f bb b7 89 3f
       1.2413051 1.1618228 1.2464926 1.0759195
000170 f5 34 a8 3f 0c 20 9c 3f 6c 50 8c 3f 86 f4 94 3f
       1.3141161 1.219728 1.0962043 1.1637123
000180 b2 6c 87 3f 6f eb 89 3f 50 ec 8f 3f 4c 32 9c 3f
       1.0580046 1.0774974 1.1243992 1.2202849
000190 16 c9 9c 3f 15 d9 89 3f 3e f6 9b 3f d4 37 8f 3f
       1.2248867 1.0769373 1.2184522 1.1188912
0001a0 aa 0b a7 3f 80 38 96 3f bf e4 8a 3f a5 5f 9c 3f
       1.3050435 1.1735992 1.0851058 1.2216688
0001b0 f8 f7 a6 3f 55 c2 94 3f 7f c7 93 3f 13 25 81 3f
       1.3044424 1.1621805 1.1545256 1.0089439
0001c0 fc e6 8f 3f f2 b1 a4 3f e5 52 8c 3f 3d 0b 91 3f
       1.1242366 1.2866805 1.0962797 1.1331555
0001d0 46 80 89 3f a1 94 92 3f 0d a4 8f 3f 56 10 8e 3f
       1.0742271 1.1451608 1.1221939 1.1098735
0001e0 96 ab 92 3f e0 64 92 3f 20 4e 92 3f ab 6a 90 3f
       1.1458614 1.1437035 1.1430092 1.1282552
0001f0 41 1f 8d 3f b9 a5 8f 3f 39 23 a1 3f ce fc 85 3f
       1.1025163 1.122245 1.2588874 1.0467775

layers.4.bias f4 [128]
000000 32 d7 77 be 50 4b b7 be cb f3 81 be 65 30 7b be
       -0.24203184 -0.35799646 -0.25381312 -0.2453018
000010 1e fa 20 be 65 16 88 be 0c fb 75 be 0b 31 5a be
       -0.15720412 -0.26579586 -0.24021548 -0.21307771
000020 c4 6c 84 be af e9 44 be ae 69 c4 be 9b 57 a1 be
       -0.25864232 -0.19229768 -0.38361877 -0.3151215
000030 e9 17 96 be 93 2f 9c be a9 5b 89 be b9 a3 89 be
       -0.29315117 -0.30505046 -0.26827744 -0.26882723
000040 be b0 8b be 47 d9 5a be 33 52 90 be ec 98 21 be
       -0.2728328 -0.21371947 -0.28187713 -0.15780991
000050 e2 11 72 be 88 83 9e be 92 de 57 be d0 82 9d be
       -0.23639634 -0.30959725 -0.21080998 -0.30763865
000060 c0 b3 6c be d0 17 90 be e9 e0 66 be 01 66 89 be
       -0.23115444 -0.28143167 -0.22546734 -0.26835635
000070 b5 35 7a be c4 30 30 be 0d 2b 90 be b9 bd 87 be
       -0.2443455 -0.17206103 -0.28157845 -0.26511934
000080 d9 a1 8d be 49 67 39 be 13 8f 3d be 04 23 66 be
       -0.27662542 -0.18105806 -0.1851161 -0.22474295
000090 07 1e ac be dc 49 8d be a0 11 72 be 21 f1 9f be
       -0.3361666 -0.27595413 -0.23639536 -0.31238654
0000a0 71 0c 75 be 80 7d 10 be a5 50 98 be 7b 50 a3 be
       -0.23930527 -0.14110374 -0.29749027 -0.3189734
0000b0 52 c1 48 be c3 64 9e be c2 bc 50 be be cd 95 be
       -0.19604996 -0.3093625 -0.20384505 -0.2925853
0000c0 ba 99 8a be d8 29 6a be b3 6f a0 be 3a 77 89 be
       -0.2707041 -0.22867525 -0.3133522 -0.26848775
0000d0 41 88 aa be c1 12 73 be 4f 01 9e be dc 4f 47 be
       -0.33307078 -0.23737623 -0.30860373 -0.19464058
0000e0 b8 a6 95 be 06 43 8d be 69 8b 78 be 91 aa 89 be
       -0.2922876 -0.27590197 -0.24271931 -0.26887944
0000f0 de 1e 48 be 26 e0 78 be f2 68 6d be d2 63 7b be
       -0.19543025 -0.24304256 -0.23184565 -0.24549797
000100 4a d1 6a be f3 70 4c be 0f 56 6d be fd 53 b9 be
       -0.229314 -0.19964962 -0.2317736 -0.3619689
000110 63 a3 68 be 0c 81 a1 be 6e 7e 85 be b7 9b a2 be
       -0.22718577 -0.31543767 -0.2607302 -0.31759426
000120 ac bf 82 be cf af 94 be d1 1f 92 be 21 9f 4d be
       -0.2553686 -0.2904038 -0.285399 -0.20080234
000130 49 45 75 be db 77 95 be 32 bb 9f be a3 dd 6a be
       -0.23952211 -0.29193005 -0.31197506 -0.2293611
000140 da c4 8b be 4a c9 54 be 64 c1 94 be f6 ee 8c be
       -0.27298623 -0.2077991 -0.29053795 -0.27526063
000150 21 9c 44 be e9 e8 7e be e2 9b 9b be a8 89 84 be
       -0.19200183 -0.24893536 -0.30392367 -0.25886273
000160 c6 ee 84 be 50 5d 5f be c3 f6 83 be 9f 7a 60 be
       -0.2596342 -0.2181294 -0.25774202 -0.21921776
000170 fd 9f 9a be fb fe 60 be 36 a5 68 be 31 0d b6 be
       -0.30200186 -0.21972267 -0.22719273 -0.3555694
000180 a8 fe 33 be 2f 40 81 be ff e0 61 be 5f 16 86 be
       -0.17577612 -0.2524428 -0.22058485 -0.26188943
000190 c5 c4 98 be 92 cb 8d be 0b 45 95 be b7 43 bb be
       -0.29837623 -0.27694374 -0.29154238 -0.365751
0001a0 c0 18 a4 be 50 7e 7f be 14 fa 3d be 97 c0 6d be
       -0.32050133 -0.24950528 -0.18552428 -0.23217998
0001b0 1d 69 cc be c4 b1 9e be 78 f5 72 be 20 de 8c be
       -0.39923945 -0.30995 -0.23726451 -0.27513218
0001c0 81 ad 91 be 2e 7b c8 be e6 f5 98 be 99 a6 96 be
       -0.28452685 -0.3915648 -0.29875106 -0.2942398
0001d0 0a 7e 54 be bd 4b 7a be 8d 14 7e be bd 40 de bd
       -0.20751205 -0.24442954 -0.24812527 -0.108521916
0001e0 69 e0 8c be 0f c5 9c be 3f 5e a1 be c5 33 64 be
       -0.2751496 -0.30619094 -0.31517217 -0.22285374
0001f0 97 b5 80 be 25 93 9a be 35 d3 93 be a8 8c 30 be
       -0.25138542 -0.30190387 -0.28872076 -0.17241156

layers.4.running_mean f4 [128]
000000 19 a4 11 be 72 4a bb 3e 77 eb 14 c0 f1 19 0f bf
       -0.14222755 0.36580235 -2.3268716 -0.5589896
000010 0d 31 33 bf 29 30 4f bf 70 8b 4d 3f 1a 33 a9 be
       -0.6999672 -0.8093286 0.8029089 -0.330468
000020 e3 a2 3c 3f 96 d8 05 c0 fd a0 ba 3d b0 4e af bf
       0.73686045 -2.0913444 0.09112737 -1.3695889
000030 f0 49 8c bf 80 d0 3b bf b2 74 a7 bf 3a 8e ec 3e
       -1.0960064 -0.7336502 -1.3082488 0.4620226
000040 31 02 25 bd 77 63 93 bd 08 6a 7a bd 4d 7a 9e be
       -0.040285293 -0.07196706 -0.061136276 -0.30952683
000050 ae 71 42 bf 7b e6 05 3f 3f a9 fd bf ec 0b 15 c0
       -0.7595471 0.5230481 -1.9817275 -2.3288527
000060 90 c7 9a be 4c 38 96 be 11 38 7c bf 8e 51 12 bf
       -0.3023038 -0.29339826 -0.9852305 -0.5715569
000070 70 1c 91 be 5f ad 0f bf 9a 61 6d 3f ad 2d df bd
       -0.2834201 -0.5612392 0.92727053 -0.10897384
000080 25 ec 9d bf b8 40 37 c0 82 d5 8f bf e4 b8 68 bf
       -1.233769 -2.863325 -1.1237032 -0.9090712
000090 b8 7c f5 bd 0f 57 d8 be f4 b1 5a bf 02 7b df be
       -0.11986679 -0.4225392 -0.85427785 -0.43648535
0000a0 bc 95 a6 be b7 30 2e c0 50 07 46 bf 06 3a 4e be
       -0.32536113 -2.7217233 -0.7735491 -0.20139322
0000b0 65 65 b4 bf 46 cc 38 3f 97 c6 bc bf fb c5 91 be
       -1.4093443 0.72186697 -1.4748105 -0.2847136
0000c0 26 ca d5 3e 0a 6a 08 bf 9a da f9 bd e0 60 16 bf
       0.4175579 -0.532868 -0.12199898 -0.5874157
0000d0 c6 09 30 bf 3e cd 20 c0 90 c4 b1 bf e2 6d 0d c0
       -0.68764913 -2.512527 -1.3888111 -2.2098317
0000e0 80 46 f9 3c bc 42 6d c0 78 44 f5 bf f9 68 a1 bf
       0.030429125 -3.7071981 -1.916152 -1.261016
0000f0 75 5c 0c bf bc 57 9b 3e 4f a3 97 bf 5c 49 11 3e
       -0.5482858 0.30340374 -1.1846713 0.1418814
000100 f5 99 e3 be 25 5a 9d be 19 8f 7a 3c 19 f1 5a bf
       -0.44453397 -0.30732837 0.015292906 -0.85524136
000110 3c a9 0a 3e 2b 94 95 bd 6c 0d 1f 3d 47 db 75 bf
       0.1354112 -0.073036514 0.03883116 -0.96037716
000120 b4 fd 56 3d 56 f7 32 3e bb e1 69 bf 63 4c f0 be
       0.052488044 0.17477164 -0.9136006 -0.46933278
000130 8b 04 98 be 55 4d 03 bf 08 c9 21 c0 7f 4f e9 bf
       -0.29690966 -0.51289874 -2.527895 -1.8227385
000140 69 25 13 c0 32 e0 84 be 29 14 21 3f 7c e5 12 bf
       -2.2991583 -0.25952297 0.62921387 -0.57381415
000150 e5 90 80 be a3 4e d4 bd 20 b9 5f bf f7 81 bb be
       -0.25110546 -0.10366561 -0.87391853 -0.36622593
000160 53 04 3a bf 78 1b 31 3e 15 ff 4d bd 16 2b 94 bf
       -0.7266285 0.17295635 -0.050292093 -1.1575649
000170 68 2b e3 bf 06 83 53 bf 21 ba 0c c0 e9 c1 9b bf
       -1.7747622 -0.826218 -2.1988604 -1.2168552
000180 ca 2e 31 c0 bd 12 e6 bf 39 22 12 bf 1b 5c 37 3f
       -2.7684808 -1.7974468 -0.5708347 0.71624917
000190 86 16 81 bf 47 ee 83 3d c0 26 cc be 49 c8 43 3f
       -1.0084999 0.06441932 -0.39873314 0.76477486
0001a0 22 52 49 be ec d8 ed be 68 8f 9c bf 3e 04 75 3f
       -0.19660237 -0.4645456 -1.2231264 0.957096
0001b0 3a 63 08 c0 0c 4a 8a bd f1 5e 09 3f 18 16 20 be
       -2.1310563 -0.067524046 0.53660494 -0.15633428
0001c0 e8 a5 c4 3d 92 d5 fb be d7 5f 5d be fd 14 1d bf
       0.096019566 -0.4918638 -0.21618591 -0.6136015
0001d0 cd f4 95 bf 41 00 bf be cd 02 30 c0 b5 3b 9f 3f
       -1.1715332 -0.3730488 -2.750171 1.2440096
0001e0 06 a9 0b bf a4 d1 d8 3e 5a 69 58 bf fe 4f cd be
       -0.54554784 0.42347443 -0.84535754 -0.40100092
0001f0 44 39 ae bf 02 c8 3c bd bb 5b 42 bf ea 09 cb bf
       -1.3611226 -0.04608918 -0.7592122 -1.58624

layers.4.running_var f4 [128]
000000 e0 59 85 40 aa b5 71 40 9b 32 91 40 17 d5 5d 40
       4.167221 3.776713 4.5374274 3.466131
000010 54 f2 97 40 c0 ff 58 40 d7 a8 8c 40 03 ea 85 40
       4.748331 3.3906097 4.3956103 4.184816
000020 75 da 50 40 5c 3f fe 40 ad 08 b1 40 81 c0 ce 40
       3.2633336 7.9452343 5.532309 6.460999
000030 5f 7b a5 40 a9 fa d8 40 cf 52 b8 40 78 d0 99 40
       5.17131 6.780598 5.7601085 4.806698
000040 33 35 7c 40 44 a0 5a 40 46 df 67 40 ae 14 ab 40
       3.940747 3.4160318 3.6230025 5.3462744
000050 c8 38 90 40 84 6f 19 40 b3 82 be 40 04 c6 99 40
       4.5069313 2.3974314 5.9534545 4.805422
000060 c1 07 99 40 1c 05 59 40 93 84 b9 40 3d ed 8a 40
       4.7821965 3.3909369 5.7974334 4.3414598
000070 b4 b5 a9 40 2e 8d 89 40 28 e5 af 40 2b 08 a8 40
       5.3034306 4.298484 5.496723 5.250997
000080 f5 b8 e1 40 0a aa ee 40 63 15 c8 40 56 58 af 40
       7.053828 7.4582567 6.2526107 5.479533
000090 6c a3 9d 40 92 3d 6c 40 e9 7d d7 40 66 2c 4b 40
       4.926199 3.691258 6.73412 3.1745849
0000a0 05 86 80 40 07 f9 ee 40 8b 3f 91 40 bc 27 6b 40
       4.01636 7.467899 4.5390067 3.6743002
0000b0 c0 3d 88 40 dd c9 37 40 a9 57 cb 40 c5 40 5f 40
       4.257538 2.8716958 6.3544507 3.4883282
0000c0 97 9d 54 40 27 50 4b 40 53 d4 48 40 bf 7b 9d 40
       3.3221185 3.176767 3.1379592 4.9213557
0000d0 31 ee a7 40 1b f9 00 41 9a 88 8b 40 62 21 ea 40
       5.247826 8.060817 4.360425 7.316575
0000e0 5c a1 86 40 f0 b5 38 41 b4 3c a8 40 85 f1 4a 40
       4.207197 11.544418 5.25741 3.1709912
0000f0 25 a2 a8 40 2f 61 b0 40 13 2a 82 40 5c 39 53 40
       5.269793 5.511863 4.067636 3.300376
000100 40 aa 73 40 0f 9b 82 40 d1 39 88 40 b4 6c a4 40
       3.8072662 4.081428 4.2570577 5.1382694
000110 03 39 84 40 43 d6 61 40 ce cd 9a 40 46 eb c4 40
       4.1319594 3.5287025 4.8376226 6.15372
000120 fd ec 4e 40 ae 93 a3 40 13 15 bc 40 e2 34 98 40
       3.2332146 5.1117773 5.8775725 4.7564554
000130 f5 e5 9a 40 e5 86 d5 40 58 2e e3 40 72 41 b8 40
       4.840571 6.6727166 7.099407 5.757989
000140 4e 82 b9 40 48 eb ab 40 92 e2 86 40 91 df 89 40
       5.7971563 5.372471 4.2151575 4.308541
000150 37 b5 aa 40 d6 17 90 40 74 48 9c 40 58 53 6f 40
       5.334621 4.5029097 4.8838444 3.739462
000160 41 39 91 40 02 c4 ca 40 d2 19 42 40 29 81 8e 40
       4.538239 6.3364267 3.032826 4.4532666
000170 a7 1c 99 40 9c 5f a3 40 fb 75 90 40 d9 16 44 40
       4.7847476 5.105421 4.514402 3.0638945
000180 77 26 07 41 89 91 6d 40 c7 da cb 40 b4 b8 80 40
       8.446891 3.7120078 6.370456 4.022547
000190 98 51 90 40 30 9b 7f 40 42 c9 90 40 a9 e2 88 40
       4.50996 3.993847 4.5245676 4.2776685
0001a0 3f e1 87 40 57 01 8b 40 16 b6 83 40 33 79 81 40
       4.246246 4.3439136 4.1159773 4.046045
0001b0 5f 29 e6 40 24 b1 92 40 39 34 72 40 49 b8 80 40
       7.19255 4.5841236 3.7844374 4.0224957
0001c0 25 dc 7b 40 9d ff 8b 40 76 8d 94 40 25 16 82 40
       3.9353116 4.374953 4.642268 4.065203
0001d0 57 0e 8c 40 71 88 98 40 b1 87 c3 40 8b d5 cd 40
       4.3767505 4.7666554 6.110314 6.4323173
0001e0 9b cb ae 40 c0 9d a9 40 0b fb 8a 40 8e fd 8f 40
       5.462354 5.3005066 4.343145 4.4997015
0001f0 18 56 70 40 8d 1f 77 40 ac ba 60 40 21 63 da 40
       3.7552547 3.8613007 3.5113935 6.8246007

layers.6.weight f4 [10, 128, 4, 4]
000000 5c 85 dd 3d 9d 71 2a bd 95 f2 e3 3d 4a b3 7f bd
       0.10816452 -0.041612256 0.11130253 -0.062426843
000010 c6 73 21 be 7d 7e 3b bd 41 ea 12 be c4 f6 72 bd
       -0.1576682 -0.045774926 -0.14347173 -0.059317365
000020 54 6c ac 3d 97 4c 52 bc ff a1 04 3e e1 92 94 bd
       0.084190995 -0.012835643 0.12952422 -0.072545774
000030 e3 d9 3c be fc 75 a3 bc 70 2a f8 bd 29 4d 8e bd
       -0.18442492 -0.01995372 -0.12117469 -0.06948311
000040 ea 4c 1b 3e ec 88 c8 3d 64 f2 cb 3d cf 7c af 3c
       0.15166059 0.09791741 0.09958342 0.021421818
000050 e6 09 d0 bb d1 db 11 3d 51 27 83 bb 83 51 43 3d
       -0.0063488362 0.035610024 -0.0040024896 0.047685158
000060 55 a9 07 3e 89 60 60 3d df bc 54 3d 6c aa 66 3d
       0.13248189 0.054779563 0.051937934 0.05631487
000070 71 73 19 bc fb 0a 01 bc 82 f9 d3 bc a3 79 4b 3d
       -0.009365902 -0.007876153 -0.02587581 0.04967655
000080 12 ff a6 bd b3 4b 18 bd 7e 90 0f bc 0a 65 aa bd
       -0.081541196 -0.037181567 -0.008762477 -0.08320053
000090 da d6 0c bd 61 99 a4 bd 6c 98 69 bc b9 7c 54 bd
       -0.034384586 -0.08037067 -0.014257532 -0.051876757
0000a0 dd 25 f8 bc cf 9a 41 bd 80 14 58 3c d5 3b 5b bd
       -0.030291492 -0.047266778 0.013188481 -0.053523857
0000b0 51 a3 69 bd de b4 d4 bd 26 83 02 bb 1e 59 9c bd
       -0.057040516 -0.1038606 -0.0019914596 -0.07634185
0000c0 af 93 c6 3d f7 53 ab 3d ba 47 1d 3e 1f 6b 44 3d
       0.09696137 0.083656244 0.15359393 0.04795372
0000d0 80 07 84 bd e5 67 3b 3d 0f 3b 43 3d 59 fa fb 3c
       -0.06446743 0.04575338 0.047663745 0.030759024
0000e0 06 d5 96 3d 1a 0c 1e 3e e7 86 e6 3d 3d d0 e3 3d
       0.0736485 0.15434304 0.11256199 0.11123703
0000f0 0b e0 af bd 07 06 b1 3c c8 87 ef 3c 40 23 9f 3c
       -0.08587655 0.02160932 0.02923955 0.019425988
000100 3f d3 40 bd ff 29 57 be c8 1e ad bd 25 ca db bd
       -0.04707646 -0.21012114 -0.08453137 -0.107319154
000110 51 cb 16 be 6f 3c 5f be 72 cb d6 bd 6b be a1 bd
       -0.14725997 -0.21800397 -0.10488023 -0.078976475
000120 cc b6 85 bd e9 11 c9 bd 8d 28 3a bd db 9c 29 bb
       -0.06529006 -0.09817869 -0.04544883 -0.0025880847
000130 60 b1 a6 bd 41 9a 69 be bb 1b ab bd 7c 46 7d bd
       -0.081393 -0.2281275 -0.083548985 -0.061834797
000140 47 4c bb 3d c6 6c 9e bd dd 3f 92 3d 27 fb 29 bc
       0.09145408 -0.07735591 0.07141087 -0.010374821
000150 c7 09 0b bd b2 d1 01 bd 52 02 cb ba 7a ad 15 3d
       -0.03394487 -0.03169412 -0.0015488362 0.036542393
000160 b4 ca 77 3d 13 8e b8 bd 40 c3 f4 3c e5 22 3b bb
       0.060496047 -0.090114735 0.029878259 -0.0028554734
000170 c0 2a e0 3d 01 6e c4 3c 63 2e 13 3e 12 3a 59 3e
       0.10945654 0.023978235 0.14373164 0.21213558
000180 c9 fe ec 3d e0 67 26 3e b8 5f cc 3d 72 23 c4 3d
       0.11572034 0.16250563 0.099791944 0.09577073
000190 bf 07 a2 3d d1 2e 80 3d 0e e7 de 3d a9 33 41 3d
       0.07911634 0.062589295 0.10883914 0.047168408
0001a0 26 b5 9f 3c 1f 7b b8 3d 15 77 be 3c 6b 9b 4a 3d
       0.019495558 0.090078585 0.023250142 0.049464624
0001b0 19 37 23 3e 0a a2 2c 3e a5 6f 30 3e 1d 74 11 3e
       0.15938987 0.16858688 0.17230089 0.1420445
0001c0 f1 b7 a7 bd fc be 91 bd a3 ad 6d be 54 a1 33 bd
       -0.08189381 -0.071165055 -0.23210768 -0.043855026
0001d0 4b 0f b3 bd 09 19 db bd bf 0f 3b be 31 17 f1 bc
       -0.08743151 -0.106981345 -0.18267725 -0.029430004
0001e0 f0 f2 40 be a4 52 9c bd 69 5f 56 be e3 fd a4 bd
       -0.18842673 -0.0763295 -0.20934834 -0.080562375
0001f0 62 d2 0b bd a9 ea 9f bd d8 68 20 be 41 c2 22 3d
       -0.034136184 -0.0780843 -0.15664995 0.039736036
000200 01 4a 47 bd 00 4f 07 bd 35 80 80 bd d7 03 25 bd
       -0.04865456 -0.033034325 -0.062744536 -0.040286865
000210 02 4f 1f 3b ba 31 fd bd 01 81 00 3d 56 94 d1 bd
       0.0024308567 -0.12363 0.031373028 -0.10233371
000220 63 07 88 bd 00 91 8b bd cb 8e c4 bd b9 d8 a4 bd
       -0.06642034 -0.06814766 -0.09597548 -0.08049149
000230 a5 38 ca 3d 86 b2 c8 bd 5c 76 8b 3d c3 00 b0 bd
       0.09874085 -0.09799676 0.06809685 -0.08593895
000240 05 8f 0b be a6 4d 40 bd 89 34 80 bd ec b8 ae bd
       -0.13628776 -0.04694905 -0.0626002 -0.08531365
000250 54 8c bb bc be 95 bf 3d 3c 5a e4 3c f9 f8 e9 3d
       -0.022894062 0.09354733 0.027875058 0.11424441
000260 b9 60 d9 bd 7c 66 c4 3c ac 04 6a ba 13 22 b2 bc
       -0.106141515 0.02397465 -0.0008927088 -0.021744763
000270 5f 63 ac be e7 15 73 bd 33 46 03 be f0 fc de bd
       -0.33669564 -0.05934706 -0.12819748 -0.10888088
000280 ef 31 8c 3d f5 26 81 3c 5b 6d 8b be 34 fa 0e 3e
       0.068454616 0.015765646 -0.2723187 0.13962632
000290 33 c5 d1 bd fe ca 04 be 3f 98 20 be 43 c4 a8 bd
       -0.10242691 -0.1296806 -0.15683077 -0.08240559
0002a0 67 6b 85 3d 8f bd eb 3c ca f1 7c be b4 ed aa 3d
       0.06514626 0.028776912 -0.2470161 0.083461195
0002b0 b5 9a 1d bd 07 a2 e7 bd bb a6 96 be 9c 1e be bc
       -0.03847762 -0.11310201 -0.2942408 -0.023207955
0002c0 8e 3f 1d be dd 86 15 be 43 bc 49 be 06 ed 9c bc
       -0.15356275 -0.14602228 -0.19700722 -0.01915599
0002d0 4f 42 1b bd 46 c3 c7 bd 59 04 bc bd 14 31 93 bc
       -0.037905034 -0.09754042 -0.09180517 -0.017967738
0002e0 68 99 ce bd db ef e2 bd 19 0e 1b be 49 78 e4 bc
       -0.10087854 -0.11080905 -0.15142097 -0.027889388
0002f0 a6 1e 88 3d cb 30 8f bc d8 bc 2b bd 95 66 a7 3c
       0.06646471 -0.017479321 -0.041928142 0.020434657
000300 ff 6a 7a be b3 60 9a be 2e 49 2f be bf 1f 3c be
       -0.24454878 -0.301519 -0.1711776 -0.18371485
000310 48 46 da 3c 53 a8 b7 bd dd 9e 2e bc b3 7e c3 3c
       0.02664484 -0.08967652 -0.010657993 0.023864126
000320 74 a7 59 be af 64 40 be 36 e5 19 be 5c a1 ff bd
       -0.21255285 -0.18788408 -0.15028843 -0.12481949
000330 42 a6 8e bd 77 96 c2 bd 26 a2 92 bd 99 d5 4e bd
       -0.06965305 -0.09501355 -0.071598336 -0.05049667
000340 4b 5f 0c 3d 7e 8d e4 bd c8 d8 cc bc 38 3e 36 be
       0.034270566 -0.111598 -0.025005713 -0.17797172
000350 ab e5 24 3d b8 0c 51 be 85 17 bc bd e8 c1 84 be
       0.04025809 -0.20415008 -0.091841735 -0.2592919
000360 e3 7f e6 bc 5e 71 69 be f2 18 d3 bd ff 4e 9a be
       -0.028137153 -0.22797152 -0.10307492 -0.30138394
000370 b7 10 4b 3d 2a b2 48 be 83 eb f6 bd 5d f9 8b be
       0.049576487 -0.19599214 -0.12056639 -0.27338687
000380 85 a7 af bb d3 f4 9f 3d 36 a8 bf 3c 33 3b ac bb
       -0.005360546 0.078103684 0.023395639 -0.0052560805
000390 90 69 30 3e ee 95 c0 3d ee 88 a8 3d 50 a8 31 3e
       0.17227769 0.09403597 0.08229242 0.17349362
0003a0 0d ba 37 3e ce 82 05 3e 8a 16 d7 3d b5 6f 08 3e
       0.17942066 0.1303818 0.10502346 0.13323863
0003b0 51 42 6d 3d 3b 45 83 3c 0b 50 ab 3c 74 c1 1b 3e
       0.057924572 0.016024223 0.02091219 0.15210515
0003c0 5f f3 73 bc 5f 35 eb 3c 69 c7 81 3c 40 e4 1e 3e
       -0.014889567 0.028711973 0.015842156 0.15516758
0003d0 ea 92 d3 3d 21 9e a0 3c aa ea 0d 3d 1c bf 24 3e
       0.10330756 0.019606652 0.03464762 0.16088527
0003e0 4b 05 cf 3d 42 01 2d 3d c6 37 8d 3d 78 23 4e 3e
       0.101084314 0.042237528 0.068954036 0.20130718
0003f0 7c 5e a4 3d 6e 5b 13 be 5a 66 31 3d bb ba b9 bc
       0.08025834 -0.14390346 0.0433105 -0.022672048
