classifier_save.pth (torch, 626160 bytes, 11 tensors)

layers.0.weight f4 [64, 3, 4, 4]
000000 ff 92 60 3e bc 54 5c bd 52 1d 00 be 54 39 79 bd
       0.21931075 -0.053791746 -0.12511185 -0.060845688
000010 47 19 06 3e b3 a8 f9 bd f4 71 4e be 25 89 4f be
       0.1309558 -0.1219038 -0.20160657 -0.2026716
000020 84 bf a8 3c 3a 03 2e be 59 c2 44 be a5 e3 ca bc
       0.020599134 -0.16993418 -0.19214763 -0.024766752
000030 df e7 7f bd 1e cb 77 be 8a 3c 69 be ba b6 8f be
       -0.06247699 -0.24198577 -0.22777 -0.28069097
000040 01 bd 69 3e c7 f4 31 be 6d be c3 bd bb 8d 25 3e
       0.22826006 -0.17378531 -0.09557805 0.16167347
000050 54 be d8 bc 9d cf e5 bd ac 29 ec 3c fd 37 6c 3e
       -0.026457943 -0.1122124 0.028828464 0.23068233
000060 15 64 9c 3d 6f 6b 02 be 48 00 3b 3c 79 d5 1b 3e
       0.07636277 -0.12736295 0.011413641 0.15218152
000070 82 27 76 3d 0b 7e a8 bc ac 18 cb bd 33 7f 7b bc
       0.06009627 -0.020567914 -0.09916815 -0.015350151
000080 d9 f4 c1 3d 13 d0 49 bd f1 51 34 bc f0 0f 98 3d
       0.09470529 -0.0492707 -0.0110058645 0.07424915
000090 83 96 dc 3d 03 de dc bd 7c b0 48 3e 98 a6 42 3e
       0.10770895 -0.10784533 0.19598573 0.19008863
0000a0 3a ef c9 3d b6 43 05 be b2 63 0d 3e 4f a2 5d 3e
       0.09860082 -0.13014111 0.13807562 0.21643947
0000b0 0d e8 86 3e 30 73 ef 3d 9d ef 9b 3d 09 ca 83 3e
       0.26348916 0.11691892 0.07614062 0.25740078
0000c0 6e d3 9a 3e 2d 92 0b bc 7f 6a 9b bd c1 cc de bd
       0.30239433 -0.008518738 -0.07588672 -0.108788975
0000d0 91 33 92 3e 90 8f aa ba 6f 93 80 bc 31 49 14 be
       0.28554967 -0.0013012756 -0.015695302 -0.14481045
0000e0 33 41 4d 3e 37 67 48 be 2b c9 ba bd 3c cc 97 bd
       0.20044403 -0.19570623 -0.09120401 -0.074120015
0000f0 1e b8 73 3d a0 1a 8c bd 6e b7 88 be 5b 27 05 3e
       0.05950176 -0.06841016 -0.26702446 0.13003294
000100 79 80 37 3d 78 0f 54 3b 4b 01 0b be 04 90 6f be
       0.044800255 0.0032357853 -0.13574712 -0.23394781
000110 65 af 79 3e 52 b0 b2 b8 11 7c 58 bd 38 fa 77 3d
       0.24383314 -8.5205436e-05 -0.052852694 0.06054136
000120 2f 43 25 3e 4c 12 27 be 7f cf 63 bd 8e a8 14 bd
       0.1613891 -0.16315573 -0.055617806 -0.03629356
000130 7c ff 86 3e ac d2 3f bd 65 90 12 be 25 cf f6 3d
       0.26366794 -0.04683177 -0.14312895 0.120512284
000140 1f e5 4f 3e 7c 00 28 be 69 df f8 bd ce 59 43 be
       0.20302247 -0.16406435 -0.12151987 -0.19077227
000150 10 94 ef 3d b8 07 56 be 06 42 1e be 60 e8 d2 3d
       0.116981626 -0.20901382 -0.15454873 0.10298228
000160 41 c9 8e 3e 1b 5b d3 3d ba ed 32 be b7 f9 ac bd
       0.2788792 0.10320111 -0.17473498 -0.08446067
000170 c3 72 8a 3e db d9 ef bc 7e b6 1a be f0 4e 59 bb
       0.2704068 -0.029278686 -0.15108678 -0.0033158623
000180 68 9e 6e 3e c0 63 93 3e ae 08 ed 3d 62 22 0a 3e
       0.23302615 0.2878704 0.11573921 0.13489679
000190 a5 51 00 3e a6 4d 37 3e 97 cb e8 bd 33 19 29 be
       0.12531145 0.17900714 -0.11366957 -0.16513519
0001a0 93 92 39 3c 95 e5 58 be 37 d8 e9 bd 7f ff 54 be
       0.01132645 -0.21181329 -0.11418193 -0.20800589
0001b0 23 40 72 3e ee 6b 2e 3e c8 06 ec bd 52 a7 38 be
       0.23657279 0.1703336 -0.11524731 -0.18032578
0001c0 30 ea 7b 3e 01 92 99 3e 6b d4 d0 3d d8 1e 0b 3e
       0.24601054 0.29994205 0.101967655 0.13585985
0001d0 9c 6a 58 3e 49 77 3b 3e e4 75 8c 3d 26 02 0c bd
       0.21134418 0.18307222 0.06858423 -0.034181736
0001e0 b4 7c b2 bd ba ad 00 bc 0d 0b ca bd d8 a2 3e be
       -0.087151915 -0.00785392 -0.09865389 -0.18616807
0001f0 b9 8d ac bd 35 9b cd 3d cf 8a 6d bc 8f 70 5c bb
       -0.08425469 0.10039369 -0.014498427 -0.0033636426
000200 a3 15 a7 3e 1b f1 26 3e 34 cb 0b be ed 95 a0 bd
       0.32633695 0.16302912 -0.13651735 -0.07841096
000210 49 dd 8c 3e 8f 68 48 3d 1a 25 ac bd a3 98 5a be
       0.27512577 0.04892784 -0.08405514 -0.21347289
000220 5b 28 e7 bc a0 3e 4e be 86 55 ac bd 18 7e 82 bd
       -0.028217485 -0.20141077 -0.0841475 -0.06371707
000230 42 5d 01 be 5d f6 1a bb 67 6f 55 be 51 24 86 be
       -0.12633231 -0.002364538 -0.20843278 -0.26199582
000240 13 b6 be 3e b5 68 e6 be 0c 72 e1 be 76 98 d6 bb
       0.37248287 -0.4500176 -0.44032323 -0.0065489365
000250 f8 39 49 3e 6a 46 27 be 29 9e 8e be 93 55 14 be
       0.1965102 -0.16335455 -0.27855042 -0.14485769
000260 c2 21 8c 3e ea d6 c8 bc ce 3c 8c be 91 d2 69 3d
       0.27369505 -0.024516542 -0.2739014 0.057085577
000270 fa c2 07 3e a6 cf 2e 3e d5 0a 38 be 01 22 66 3d
       0.13257971 0.17071399 -0.17972882 0.056184772
000280 5a c3 66 3e 17 23 99 be c7 7c 22 3c fe 1f 1e bc
       0.22535458 -0.29909584 0.009917445 -0.009651182
000290 a0 14 3e bd 42 a4 02 be f4 ca 62 bd 42 22 14 3e
       -0.04640639 -0.12757972 -0.055369332 0.14466193
0002a0 9e 51 9f 3d ad 41 9b bd 1a 45 11 be f8 4d 39 3e
       0.07779239 -0.07580886 -0.14186516 0.18096149
0002b0 b8 1f 5d 3e 85 e7 08 3e 74 00 16 be 46 3b 8b 3d
       0.21594131 0.13369568 -0.1464861 0.06798415
0002c0 6b f7 5e bd f7 19 55 be b4 61 92 3d 70 bd 0c bd
       -0.054435175 -0.20810686 0.07147542 -0.03436035
0002d0 8a 43 ac bd 73 e6 d8 3d ff ce bc 3d a0 c6 5d 3e
       -0.084113196 0.1059083 0.09219169 0.216578
0002e0 ab 9d 69 bc 9e cf 1a bd 22 27 35 be 96 12 26 3e
       -0.014258782 -0.037795655 -0.17690709 0.16218027
0002f0 1f d5 58 3d d3 73 8a be 9c 35 e8 bd c8 8b d8 3d
       0.052937623 -0.27041492 -0.1133835 0.10573536
000300 35 41 44 bb f9 1c aa 3b b9 79 13 3e 0e c9 da bd
       -0.0029946093 0.005191442 0.14401902 -0.106828794
000310 a8 70 66 3c b4 e7 86 be ad 2a cb 3d d9 9f 54 3e
       0.014064945 -0.2634865 0.09920249 0.20764102
000320 4b 08 46 3e 2c 11 bb bd 38 c3 a0 be f9 c5 5b 3e
       0.19339101 -0.09134135 -0.3139894 0.2146224
000330 30 e5 56 be 3d 27 ab 3e 9f ff 8f bd 76 df d8 bd
       -0.20985866 0.33428374 -0.07031178 -0.10589497
000340 29 de d8 bd ba 47 5f 3d 41 9a df 3d cb 22 11 be
       -0.10589249 0.054511763 0.109180935 -0.14173429
000350 9e 43 80 bd c2 2f a1 bd f9 37 c8 bd 48 25 33 3e
       -0.06262897 -0.07870437 -0.09776301 0.1749469
000360 3c 48 60 3e 9b e7 c6 3d 1e 2a 9b be ab e8 b6 3d
       0.21902555 0.09712144 -0.3030557 0.08931097
000370 1a 83 56 3d 88 33 3b 3e fe 8e 2a be ba cf f6 bc
       0.052371122 0.18281376 -0.1665611 -0.030128349
000380 ae 40 54 bd 2e e4 a2 ba 1c 63 10 3d 8f 31 19 3d
       -0.051819496 -0.0012427622 0.035250768 0.03740078
000390 b9 d4 86 3d 54 55 36 be 7f 26 dd bc eb 4c 39 3e
       0.065835424 -0.17805988 -0.026995895 0.18095748
0003a0 50 f2 c1 3d ec 7e 05 be 77 53 9d be 1a 20 6a 3e
       0.094700456 -0.13036698 -0.3072774 0.22863808
0003b0 14 28 d9 bc 05 ed 95 3e 5f 1f 39 be 63 86 bb bd
       -0.026508369 0.29282394 -0.18078373 -0.091564916
0003c0 6e 34 3c bc 43 55 7e 3e ae 3c 15 3e dc e9 27 bd
       -0.01148711 0.24837212 0.14573929 -0.04099451
0003d0 a8 52 36 be af 00 4c bc d4 95 7f bc b7 9b 20 3e
       -0.17804968 -0.012451335 -0.015599687 0.156844
0003e0 4d f8 2c bd 03 ee 00 bd 45 21 5d 3c c9 a6 d4 3d
       -0.042228986 -0.031476986 0.013496702 0.10383374
0003f0 1a d9 fa bd 9b 36 5c 3d 8e 63 a1 3d 57 84 d4 3d
       -0.1224844 0.053763013 0.07880317 0.10376804

layers.1.weight f4 [64]
000000 4c 0e a1 3e 91 36 54 3f f7 20 79 3f f5 02 6d 3f
       0.3145622 0.8289576 0.97315925 0.9258264
000010 88 5f c0 3f 8b 18 56 3f ce ae 50 3f 09 98 92 3f
       1.5029154 0.836312 0.8151673 1.1452647
000020 32 8b 90 3f 3e b1 44 3f 84 b1 75 3f bf 49 52 3f
       1.1292479 0.7683295 0.9597399 0.8214378
000030 f1 53 5e 3f 48 bd 44 3f 76 6f 19 3f 62 11 36 3f
       0.86846834 0.7685132 0.599357 0.71120274
000040 63 5f 7b 3f d9 d8 70 3f a8 8e 61 3f 16 68 0d 3f
       0.98192424 0.94080883 0.881083 0.5523695
000050 34 2d 62 3f aa 5e 82 3f fb 73 76 3f e2 54 52 3f
       0.88350224 1.0185139 0.9627072 0.8216077
000060 47 c2 6e 3f f2 d8 35 3f 67 7a 94 3f 77 f7 77 3f
       0.93265194 0.7103416 1.1599854 0.96861976
000070 f7 5c 8a 3f ae 80 13 3f 49 5f 3d 3f 9c 35 93 3f
       1.0809621 0.57618225 0.7397352 1.1500735
000080 e2 30 1c 3f c3 1e 40 3f 32 28 82 3f 64 a8 0d 3f
       0.6101209 0.7504694 1.0168517 0.5533507
000090 68 ad 61 3f 30 6e 72 3f fb 29 1f 3f 55 55 a5 3f
       0.8815522 0.9469938 0.6217343 1.2916666
0000a0 43 c9 62 3f f3 67 72 3f af 2d a2 3f 76 55 36 3f
       0.8858835 0.94689864 1.2670192 0.71224153
0000b0 a6 a4 38 3f c2 07 2b 3f a7 e2 c6 3f b5 16 3b 3f
       0.72126234 0.6680871 1.5537919 0.73081523
0000c0 4f 76 fa 3e 2e e0 07 3f c1 33 73 3f 32 3a 59 3f
       0.48918387 0.53076446 0.95000845 0.84854424
0000d0 8f 29 02 3f d6 ca 92 3f d3 6b bf 3f a1 24 9e 3f
       0.50844663 1.1468151 1.495478 1.2354928
0000e0 af da 8d 3f 04 bc 86 3f 3c f6 43 3f 0d be 72 3f
       1.1082362 1.0526128 0.765476 0.94821244
0000f0 36 b2 75 3f f8 b3 6d 3f f9 e3 67 3f 70 a9 6c 3f
       0.95975053 0.92852736 0.90582234 0.9244604

layers.1.bias f4 [64]
000000 84 d3 69 3d 0f b9 ff bd 26 b8 0f bf 2d 6f 06 bf
       0.057086483 -0.12486469 -0.56140363 -0.5251339
000010 d6 51 03 bf dd 30 09 bf f6 d4 cd be 80 ef 83 be
       -0.51296747 -0.53590184 -0.4020154 -0.25768661
000020 82 c0 cd be 11 f6 d7 bd 8e d1 00 bf f9 46 0f be
       -0.40185934 -0.1054498 -0.50319755 -0.13991918
000030 0a e5 df bd 4f 58 06 bd 5c 4b 83 bd c6 d1 5b be
       -0.109323576 -0.03279906 -0.06410858 -0.21466741
000040 69 e9 0e bf f3 8b 64 be 19 b8 41 bf 42 d9 bc bd
       -0.55824906 -0.22319011 -0.75671536 -0.09221126
000050 87 05 e0 bd 2a d9 4f bf ce 3f 2e bf c5 f1 60 be
       -0.10938554 -0.8119074 -0.6806611 -0.21967228
000060 9d 05 ea be bd f7 15 be cc 66 ca be fe 7c 0d bf
       -0.45707408 -0.14645286 -0.39531553 -0.5526885
000070 b2 1c 20 bf 1b 61 8e be 45 6f 1f 3c 03 03 9d be
       -0.62543786 -0.2780846 0.009731119 -0.3066636
000080 68 3e e9 be 43 b8 11 bf 73 26 40 bf 62 b0 61 be
       -0.45555425 -0.56921786 -0.7505867 -0.22039941
000090 bb 2f 65 be bd 66 01 bf b9 ea 10 bf 99 6e e6 be
       -0.22381489 -0.5054739 -0.5660816 -0.45006254
0000a0 9e 4b 2d 3e 4a 65 a1 be da 3a dd be 75 8b 39 be
       0.16923377 -0.3152259 -0.43208963 -0.18119605
0000b0 6c af 78 be 5d 94 ae bd 2f 9d 91 be 5c 7c 2f be
       -0.24285668 -0.08524392 -0.28440234 -0.17137283
0000c0 9d 81 85 3d 73 ef ee bd 02 59 f1 bd 1c 38 16 bf
       0.065188624 -0.11666765 -0.11784555 -0.58679366
0000d0 5c 8f a7 bd 05 69 b8 be 4a fa d3 be 69 13 bf be
       -0.081816405 -0.36017624 -0.41401893 -0.37319496
0000e0 7c f8 79 be d7 a7 ea be ea b5 e6 bd e9 90 50 bf
       -0.24411196 -0.45831177 -0.11265166 -0.81471115
0000f0 93 90 0f bf e4 1c fb be 04 62 f2 be e8 b4 34 bf
       -0.5607998 -0.4904548 -0.47340405 -0.7058854

layers.1.running_mean f4 [64]
000000 8e 6c 37 bd c0 c0 1f be 32 e8 85 3e e1 fd c8 be
       -0.04478126 -0.15600872 0.26153713 -0.39256194
000010 9f fa f1 bc 9d e8 56 3d fd 73 e5 be 3c f0 47 bc
       -0.02953845 0.05246793 -0.44815055 -0.012203272
000020 b3 47 ea bc 5d 4b 50 bd ad 26 d7 bd c3 39 c8 bc
       -0.028598642 -0.050853122 -0.10505424 -0.024441605
000030 ca 7b 4f 3c 22 9f d9 3b c6 bd 7f bd 54 94 04 be
       0.012663791 0.0066412846 -0.06243684 -0.12947208
000040 5b c5 c7 bc 48 36 ea bc e8 91 06 be 00 6e cf bd
       -0.024386099 -0.028590336 -0.13141596 -0.10128403
000050 04 8e 03 be 4a bd 03 3e e3 0f fc bd 90 fd 01 3d
       -0.12847143 0.12865177 -0.12307718 0.031735957
000060 81 a2 ff 3c 56 d9 3f be 98 2c ff bc 71 c5 30 3d
       0.031205418 -0.18735251 -0.031149194 0.043157045
000070 54 11 9b bd 5a 27 a1 be 1e 69 64 3c 53 c8 83 bb
       -0.075716645 -0.31475335 0.0139410775 -0.0040216832
000080 8a 9e 0b 3f 6b 9b f9 3e ca f1 66 be 8d 1c 77 3f
       0.54538786 0.48751387 -0.22553173 0.9652794
000090 d3 15 86 bc c0 14 27 bd ca 30 61 3f 33 ec 3b bd
       -0.016367828 -0.040791273 0.8796507 -0.045879554
0000a0 56 e2 b1 3d e2 5c 0a 3d 24 e2 5a bd 7a bf 9f bd
       0.08685748 0.033779986 -0.05343832 -0.07800193
0000b0 0c 30 50 be 44 c6 83 bc de 97 02 bd 4d 29 93 3d
       -0.20330828 -0.016085751 -0.031883113 0.07185612
0000c0 f8 7c 15 3d 28 ed b7 bc 06 e8 85 3b c4 d3 2a bf
       0.036496133 -0.022451952 0.0040864972 -0.6672938
0000d0 a9 22 31 3c 63 bc f3 3b 10 d4 58 bd e7 a7 8d 3c
       0.010811486 0.007438229 -0.052936614 0.017291976
0000e0 2f 8c 5a bc c4 8d 46 bd 26 e7 0f 3d 40 4a e3 3d
       -0.013339086 -0.048475042 0.03513255 0.110981464
0000f0 4d b0 33 bd 07 53 64 bf 62 14 0d be 46 5b 03 bf
       -0.043869305 -0.8918919 -0.13777307 -0.5131115

layers.1.running_var f4 [64]
000000 c2 56 b5 3d 98 f8 1e 3e 8b 97 4b 3e ae 73 df 3d
       0.08854438 0.15524518 0.19882028 0.10910736
000010 96 b1 92 3c 66 71 81 3d 4e 26 eb 3d 7c 79 21 3c
       0.017906945 0.06320457 0.114819154 0.009855624
000020 ae 2a 20 3c 02 0c aa 3c a6 17 b8 3c cc 79 5d 3d
       0.009775801 0.020757679 0.022472214 0.054071233
000030 3c 23 6e 3d 80 91 98 3c d4 58 00 3e ee 9d e1 3c
       0.05813907 0.018624067 0.12533885 0.027541127
000040 91 72 87 3b 72 68 5b 3c 98 8c c5 3d 92 79 ee 3c
       0.0041335304 0.013391601 0.09645957 0.029110704
000050 fd 4a 3d 3e 0a ac e9 3c 1a c1 c2 3c 2a aa 52 3d
       0.18485637 0.028524417 0.023773719 0.051431812
000060 be 5f ac 3c a0 71 d7 3d 57 87 d7 3c 42 4b 32 3c
       0.021041747 0.10519719 0.026309652 0.010882201
000070 33 d2 e2 3c 2a da de 3d 8f e9 11 3d 41 dd f5 3b
       0.027688121 0.10881455 0.03562313 0.007503182
000080 30 aa 88 3e 49 ce 98 3d 02 73 6a 3d e8 e7 b6 3e
       0.26692343 0.07461221 0.057238586 0.35723805
000090 c4 3d 26 3d f1 cd 82 3c ba 34 82 3e 9f 54 35 3d
       0.040586248 0.015967341 0.25430852 0.044270154
0000a0 46 14 5e 3d 05 f7 83 3c 34 7c 95 3d 5f cc c6 3d
       0.054218553 0.016108999 0.072990805 0.097069494
0000b0 7a 7d 15 3d 6f 87 e0 3c ef 2d fd 3c 01 e6 8b 3c
       0.036496617 0.02740833 0.030905692 0.017077448
0000c0 47 a7 1c 3d b2 d0 a2 3d 50 bf 82 3c 10 92 96 3e
       0.038245466 0.07949962 0.015960366 0.29408312
0000d0 07 b6 35 3d ee 7e 82 3c 04 03 f5 3c bf b6 75 3b
       0.044363048 0.015929665 0.029908665 0.0037492958
0000e0 4a f1 c1 3b 7b b4 8a 3c 12 bf 5f 3d ba e1 80 3d
       0.0059186565 0.016931763 0.05462558 0.06293054
0000f0 50 98 33 3d d2 da 69 3e c0 53 8e 3c 33 18 2a 3e
       0.04384643 0.2283738 0.01737392 0.16610794

layers.3.weight f4 [128, 64, 4, 4]
000000 54 be 34 be fe 65 05 be 77 58 0d bd f0 42 d3 bd
       -0.1765073 -0.13027188 -0.034508195 -0.10315502
000010 62 9f 9b 3c 3b bb dd bc cd a0 30 3c a9 36 ae 3d
       0.018996898 -0.027066818 0.010780525 0.08506519
000020 f9 68 48 bd ae 66 75 bd f5 6f e1 3c 5f ed ce 3d
       -0.048928235 -0.059912376 0.027519206 0.10103869
000030 df 0a 5b 3b dc 78 4d bd d1 c2 69 bd 90 ba 81 bd
       0.0033423228 -0.05016409 -0.057070557 -0.06334412
000040 b9 3e ae bd a0 cd 0c 3d e4 a0 df 3d 83 af 38 3d
       -0.08508057 0.034375787 0.10919359 0.045089256
000050 d6 19 00 be d7 03 d6 bd 10 cd 09 bd e6 8d d7 bd
       -0.12509856 -0.10449951 -0.03364283 -0.10525112
000060 68 5e d3 bd 73 16 af 3d cb 47 a4 bd 67 2f 5f bd
       -0.10320741 0.08549204 -0.08021506 -0.054488566
000070 69 bd 93 3d 0c 89 24 be fd 9e b0 be bf 9b 3a be
       0.072138615 -0.16067904 -0.34496298 -0.18223475
000080 a0 06 dd bd 1d 3d cf bd 30 5b 93 3d cd 3b 15 be
       -0.10792279 -0.10119078 0.07195127 -0.14573593
000090 f7 f3 a8 bd cc f0 80 bd 68 7f 20 be cf ab be bd
       -0.082496576 -0.06295928 -0.15673602 -0.09310114
0000a0 d4 6e 81 be 37 f8 e2 bd 26 09 46 3d a5 05 f3 bc
       -0.25279868 -0.110824995 0.04834857 -0.029665777
0000b0 73 41 37 be 4b ca 0a be ac c5 37 3c c2 ac 18 3e
       -0.1789606 -0.13553731 0.011216562 0.14909652
0000c0 44 af 90 be c9 2a 08 be 89 a3 37 be c0 64 5a be
       -0.28258717 -0.13297571 -0.17933477 -0.21327496
0000d0 64 87 19 be ce 9d 8d be 66 7c c9 be 3c 81 4a be
       -0.14993054 -0.27659458 -0.3935272 -0.19775862
0000e0 4f 39 0c 3d 0c fd 5d 3d aa 97 01 be f7 a2 f6 bd
       0.03423434 0.054196402 -0.12655511 -0.12042802
0000f0 cb c5 c6 bb 64 f2 dc 3d 18 44 ad bc d0 69 06 be
       -0.006066059 0.1078842 -0.021150634 -0.13126302
000100 a1 53 6c 3e ac cb 98 3d e6 83 c9 be 2b 23 98 be
       0.23078777 0.07460722 -0.39358443 -0.2971433
000110 95 52 95 3d d3 52 a1 3d 26 81 64 bd 8b ad 42 be
       0.07291142 0.078771256 -0.055787228 -0.19011514
000120 22 a3 12 bc 18 31 3b 3e 28 eb e2 bd 9e 71 99 bd
       -0.008950027 0.18280447 -0.11080009 -0.07492374
000130 8c 19 e8 3d a2 7d 09 bd cd a0 c2 bc db 19 10 be
       0.11332998 -0.03356708 -0.023758316 -0.14072363
000140 e2 fd c3 bd d2 1a 50 3e c3 6f 6d 3d 9a 11 11 3d
       -0.09569909 0.20322731 0.057967912 0.035417177
000150 a3 99 43 3d ea e7 aa 3c 47 c7 e6 3c 69 75 09 3c
       0.04775394 0.020862538 0.028171195 0.008389809
000160 5a 44 51 be 08 83 18 3e 12 55 13 3d 06 c1 d1 bd
       -0.2043623 0.14893734 0.0359698 -0.102418944
000170 1b 09 e7 bc 2e 4c fe bc b5 79 1e bd 8a 9e 8a be
       -0.028202584 -0.031042185 -0.038690288 -0.2707408
000180 3a d8 8b 3d 6f 25 69 3e 23 3a 6a 3e 14 c1 93 3e
       0.06828351 0.22768186 0.2287374 0.28858244
000190 7b bc b3 bd 8b dc 9f 3d ab 0d 95 3e 98 a1 8e 3e
       -0.08776184 0.07805737 0.2911199 0.2785766
0001a0 ba ba 39 bd 68 85 35 bd 0d bb 0d 3e bf d2 4a 3e
       -0.045344092 -0.04431668 0.13840885 0.19806956
0001b0 e2 05 4a be 2b dd 47 3d 2c 0c fe 3d 6c eb f0 3c
       -0.19728807 0.048794907 0.12404665 0.029409133
0001c0 fd d4 cb 3c 09 bc 9e bb 7a 96 50 bd bf 51 9b bd
       0.024881834 -0.004844193 -0.050924756 -0.07583951
0001d0 26 17 25 3d 00 87 d9 3d 5d 0f 16 3c 56 5a 2e be
       0.04030528 0.10621452 0.009158936 -0.17026648
0001e0 87 e3 62 3c 22 81 05 bd 51 5e 54 3e 59 93 f3 3c
       0.013848192 -0.032593854 0.20739104 0.029733347
0001f0 44 46 59 bd e4 e1 96 3b 5d f3 39 3e 42 29 6e 3d
       -0.053045526 0.004604565 0.18159242 0.058144815
000200 47 74 08 bf 03 16 78 3c 12 85 21 be 60 77 6b 3e
       -0.53302425 0.015141967 -0.15773419 0.22994757
000210 6e 48 8a be 20 ba 8e bd 17 47 3b 3e 4a 18 50 3e
       -0.27008384 -0.06969094 0.18288837 0.20321766
000220 49 eb 45 be b3 a2 4a 3d de 9e 2f 3d 92 83 cc 3d
       -0.19328035 0.04947157 0.042876117 0.099860325
000230 d0 2f 95 be bf ee 27 be 3d 26 a9 3d bf 78 83 3d
       -0.2913804 -0.16399668 0.082592465 0.06419515
000240 d6 c4 e8 3d f3 78 c5 3c 48 32 14 3e 24 55 39 bc
       0.113656685 0.024105525 0.14472306 -0.011311803
000250 8a 88 90 bd fe 86 05 bc 98 e9 46 be 37 b4 a1 bd
       -0.07057293 -0.00814986 -0.19425046 -0.078957014
000260 b3 cb 5c be 96 70 c4 bc ef e1 57 3e e4 ba e4 3d
       -0.2156208 -0.023979466 0.2108228 0.11168459
000270 ee 9e 53 be 1c d2 83 3d c7 3f 61 bd 65 8a 83 be
       -0.20666096 0.064365596 -0.054992463 -0.25691524
000280 f9 d4 20 bd 60 15 27 bd 36 ab 3e bd 20 1c 30 be
       -0.039265607 -0.04079187 -0.04655 -0.17198229
000290 da 41 1a 3e 3f 3b 26 3d a1 11 d7 bd 99 33 90 bd
       0.15064183 0.040583845 -0.10501409 -0.070410915
0002a0 3c ab 75 bd b9 8d 1a be ec b8 5f b9 bc 2b 29 3d
       -0.059977755 -0.15093125 -0.00021335826 0.041301474
0002b0 47 6e 91 be 19 02 96 bb 77 a1 1d be 15 90 97 be
       -0.28404447 -0.004577887 -0.15393625 -0.29602113
0002c0 ee 4c 2b 3e f0 84 37 bd ba 17 1d 3e c7 4d 61 bd
       0.16728565 -0.044804513 0.15341082 -0.055005815
0002d0 16 4c 2f 3e 41 27 88 3e 7c 3d a1 3d 2e 40 b0 3b
       0.17118868 0.26592448 0.07873055 0.0053787446
0002e0 81 7e 6d 3d 27 3f b4 3d c1 7f b1 3d 48 90 88 bd
       0.05798197 0.08801108 0.08666945 -0.066681445
0002f0 fc af 14 bc cc 56 46 be 25 4e 65 be 98 5e 79 be
       -0.009075161 -0.19369048 -0.22393091 -0.24352491
000300 a8 64 13 3e 88 3f 1c 3e 55 24 00 3e 6c 45 31 3e
       0.14393866 0.1525861 0.1251386 0.17311639
000310 34 a3 8f 3d 45 63 2a 3d 57 12 1e 3d b8 e9 44 be
       0.070135504 0.041598577 0.03859171 -0.19229782
000320 c0 23 c6 3d 9c 46 81 3d 40 ae 71 bc 82 29 83 bc
       0.096747875 0.06312296 -0.014751017 -0.016011003
000330 91 27 48 be c1 08 a2 bd 7a b6 06 3d f7 7c 2b bd
       -0.19546343 -0.07911826 0.032888867 -0.041867223
000340 5d 5c 79 3d 6e ea 54 3d b6 44 3e be 03 48 7b bd
       0.0608791 0.051981382 -0.18580899 -0.061347973
000350 ce a1 e5 3d ec 0d 2d 3d 47 a0 a5 3d da 9e 49 3d
       0.112125024 0.042249605 0.08087211 0.04922376
000360 c4 07 0d 3e f5 07 68 3e 67 02 16 3e 55 a2 d2 3d
       0.13772494 0.22659285 0.14649354 0.10284869
000370 75 14 2b bc 23 e4 50 bd b6 f2 46 3d 7b b0 13 3c
       -0.010441889 -0.050998818 0.04857131 0.009014244
000380 ef 63 85 3d 6b ab 7f 3c a5 0d 7a be 79 81 47 be
       0.065132014 0.015604834 -0.24419267 -0.19482984
000390 50 01 fa 3b 7a 9f bf 3d c4 9d 12 3c c5 92 a9 3c
       0.007629551 0.093565896 0.008948747 0.020699868
0003a0 eb 0f 13 be ab 78 f3 bd 89 24 bd bd 13 7a 32 be
       -0.14361541 -0.1188825 -0.09235484 -0.1742938
0003b0 5e d6 21 be 48 e7 d0 bd 26 76 92 be dd ea 8a be
       -0.15804431 -0.102003634 -0.28605765 -0.2713231
0003c0 2e f5 f1 bd 32 42 97 3d 92 be 5a be 90 df 01 be
       -0.118143424 0.07385673 -0.2136176 -0.12682939
0003d0 12 01 ca bd 5d 9b e1 3d 26 70 09 be 9d e8 d3 3c
       -0.098634854 0.11015961 -0.13421687 0.025867755
0003e0 2a 50 f7 bd 2e 9f 02 be 53 07 29 be 76 5c 13 be
       -0.12075837 -0.12756035 -0.165067 -0.1439074
0003f0 ae d6 ba bd 7b 0a ce 3d e9 03 08 bd 99 90 56 3e
       -0.09122978 0.10060593 -0.033206854 0.20953597

layers.4.weight f4 [128]
000000 8f 27 a4 3f 61 0b 9a 3f 0c f7 b4 3f d4 49 ab 3f
       1.2824572 1.2034723 1.4137893 1.3381906
000010 09 4c a2 3f eb ee 9d 3f ba f3 a9 3f 17 55 ad 3f
       1.2679454 1.2338537 1.3277504 1.3541592
000020 5b 0e a3 3f f3 f6 95 3f 40 56 aa 3f 41 d6 a6 3f
       1.2738756 1.1715988 1.3307571 1.3034135
000030 20 dc ae 3f d4 17 a4 3f 75 1f bd 3f 09 6a a9 3f
       1.3660927 1.2819772 1.4775225 1.3235484
000040 b2 81 a4 3f f6 1d ad 3f f7 36 ab 3f ec 83 ae 3f
       1.285208 1.3524768 1.3376149 1.3634009
000050 bb 0b 8e 3f 16 7b bf 3f d7 6c af 3f 81 dd ab 3f
       1.109733 1.4959438 1.370509 1.3426973
000060 9c a0 ab 3f 31 94 a4 3f e5 50 ab 3f f9 09 c4 3f
       1.3408389 1.2857724 1.3384062 1.5315543
000070 6f ec b1 3f 3d db a8 3f 63 fd c3 3f cc 76 b6 3f
       1.3900279 1.3191906 1.5311702 1.4255004
000080 53 0f 93 3f 1a 62 9f 3f cd 39 a9 3f 01 2c b0 3f
       1.1489052 1.2451813 1.3220764 1.3763429
000090 bb 59 b4 3f 5c 23 a2 3f 55 a5 97 3f 1f 0e c0 3f
       1.4089884 1.2667041 1.184733 1.500431
0000a0 fb b8 ce 3f f6 bc ac 3f 04 26 ae 3f 8f 4f 9e 3f
       1.6150202 1.3495166 1.3605351 1.2368029
0000b0 5a 4e ab 3f 4e 4a ad 3f dd f8 9b 3f c1 c9 95 3f
       1.3383286 1.3538301 1.2185322 1.1702195
0000c0 a4 04 9e 3f ef f9 9c 3f 20 7c a6 3f 62 84 a5 3f
       1.2345166 1.2263774 1.300663 1.2931025
0000d0 14 a8 b3 3f 70 f9 a3 3f 26 08 cb 3f 03 9b b2 3f
       1.4035668 1.2810497 1.5861862 1.3953556
0000e0 e2 91 9e 3f 74 45 c8 3f d5 61 9a 3f c1 d1 a7 3f
       1.238827 1.5646195 1.2061106 1.3110887
0000f0 4f 18 95 3f 57 12 bd 3f 73 7c a8 3f 8d ce 90 3f
       1.1648043 1.4771222 1.3162979 1.1313034
000100 9a 5d ab 3f 65 08 af 3f 89 14 9f 3f 47 00 a3 3f
       1.338794 1.3674437 1.2428142 1.273446
000110 76 8f b9 3f ef 2b b6 3f ec d1 b9 3f 3d 8f a9 3f
       1.4496906 1.4232157 1.4517188 1.3246838
000120 65 ed a0 3f 93 89 bd 3f d2 56 9e 3f 17 2d 92 3f
       1.2572447 1.4807609 1.2370245 1.142001
000130 47 c6 b0 3f a6 e6 b9 3f 6c 03 a4 3f 27 0f aa 3f
       1.381051 1.4523513 1.2813544 1.3285874
000140 d0 0a a3 3f 83 a7 a1 3f db cc b3 3f e3 62 a7 3f
       1.2737675 1.2629246 1.4046892 1.3077053
000150 2d e0 a3 3f 1d a9 95 3f 98 ba 9a 3f 67 a1 92 3f
       1.2802788 1.1692234 1.2088194 1.1455506
000160 a7 8e a6 3f 99 68 a4 3f 66 32 ac 3f 10 8f a2 3f
       1.3012284 1.2844421 1.345288 1.2699909
000170 bb 77 98 3f 1f 2f a9 3f 1d d7 bc 3f 5e 22 a1 3f
       1.1911539 1.3217505 1.4753147 1.2588613
000180 18 75 b3 3f 46 cc a3 3f 27 84 ab 3f 10 c1 b7 3f
       1.4020109 1.2796714 1.3399705 1.4355793
000190 9e 2f 97 3f e2 73 a4 3f 82 59 a8 3f a3 71 b5 3f
       1.1811407 1.2847865 1.3152316 1.4175304
0001a0 43 ba af 3f 0d 7c a9 3f 03 fc bc 3f e3 f8 aa 3f
       1.3728718 1.3240982 1.4764408 1.3357204
0001b0 e3 f4 9c 3f 14 8e 9a 3f f7 27 a1 3f 6b c4 cc 3f
       1.2262233 1.2074609 1.2590321 1.5997442
0001c0 85 f1 a9 3f 25 af b2 3f e1 90 a2 3f 95 bc 9a 3f
       1.3276831 1.39597 1.2700464 1.2088801
0001d0 9b 0d c1 3f 2a 44 a9 3f 56 67 b8 3f 8e 50 99 3f
       1.5082277 1.3223927 1.4406536 1.1977708
0001e0 60 d5 a9 3f 7a 3d 8c 3f bd 03 a8 3f 93 82 a9 3f
       1.3268242 1.0956261 1.3126141 1.3242973
0001f0 2b c5 b0 3f 40 94 9c 3f 22 54 a5 3f be 79 ac 3f
       1.3810171 1.2232742 1.29163 1.3474653

layers.4.bias f4 [128]
000000 9b 9a 9c be 05 09 94 be 56 f7 a2 be a4 dc bf be
       -0.30586705 -0.2891313 -0.31829327 -0.37473023
000010 75 ae f3 be 8f ec 9c be b6 70 b4 be dd a7 e3 be
       -0.47594038 -0.3064923 -0.35242242 -0.44464007
000020 28 99 bf be 73 f1 a4 be b9 ea a0 be 5f 00 b1 be
       -0.37421536 -0.3221546 -0.3142908 -0.34570596
000030 05 3f d8 be 2d 23 d3 be c8 3a c1 be e1 43 c0 be
       -0.4223558 -0.41237774 -0.3774016 -0.37551787
000040 4c 6f b3 be 03 cc a9 be ee e1 ac be e4 df d1 be
       -0.3504585 -0.3316346 -0.3376612 -0.40991127
000050 15 ef 9b be 79 c6 b3 be 0f 54 e5 be c6 a8 bb be
       -0.30455843 -0.3511236 -0.44790694 -0.366522
000060 66 9b e4 be a6 88 b2 be 4e 43 ff be 65 81 d1 be
       -0.4464981 -0.3486988 -0.49856037 -0.40919033
000070 9d 46 c6 be 42 70 6c be 7a 26 cb be d3 12 ea be
       -0.3872575 -0.23089698 -0.39677793 -0.45717487
000080 a0 72 c9 be bc 18 c1 be 68 1c f0 be a5 8f d0 be
       -0.39345264 -0.37714183 -0.46896672 -0.40734592
000090 0c 41 cc be 65 2d f2 be d2 4b d1 be 51 07 ac be
       -0.39893377 -0.47300258 -0.4087816 -0.33599332
0000a0 ed d5 23 bf 2a 77 c7 be df f8 d7 be f1 64 a1 be
       -0.639983 -0.38958102 -0.4218206 -0.31522325
0000b0 03 c1 c7 be 61 1f ca be 6f 8b e7 be 4d 39 92 be
       -0.39014444 -0.39477065 -0.45223567 -0.28559342
0000c0 3b a4 8e be 62 39 91 be d8 29 ce be 98 4d 61 be
       -0.27859673 -0.28364092 -0.402663 -0.22002256
0000d0 48 b3 cd be eb ba 9d be be da dd be 01 70 a0 be
       -0.40175843 -0.3080667 -0.4333095 -0.31335452
0000e0 5c 90 b9 be c3 ff fb be 2c 27 b5 be f0 e4 9b be
       -0.3624295 -0.49218568 -0.35381448 -0.30448103
0000f0 a9 5f ac be 24 2a c4 be 6d 05 65 be 73 eb bb be
       -0.33666733 -0.383134 -0.22365351 -0.3670307
000100 db 1c ed be df 69 b4 be e2 f6 56 be 3f 2d 9f be
       -0.46311077 -0.35237023 -0.20992616 -0.31089208
000110 dc aa c3 be 0b f4 fb be a4 f9 d9 be 55 dc d3 be
       -0.38216293 -0.49209628 -0.42573273 -0.41379037
000120 c7 08 ae be 33 a6 c8 be c3 97 ac be 9c db 5b be
       -0.33991072 -0.391893 -0.33709535 -0.21470493
000130 1a 00 59 be 0e e0 97 be 63 7f 6d be ea 54 cc be
       -0.21191445 -0.29663128 -0.23193125 -0.39908534
000140 7e 7e 9a be 78 e2 ad be f0 85 4d be 74 37 c7 be
       -0.3017463 -0.33961844 -0.20070624 -0.38909495
000150 31 6b b9 be d0 53 b1 be 62 f5 ac be d7 51 84 be
       -0.36214593 -0.34634256 -0.33780962 -0.2584369
000160 dc 57 c7 be 4c d4 9d be 13 62 e3 be 24 20 96 be
       -0.3893422 -0.30826032 -0.44410762 -0.29321396
000170 b9 69 f7 be 8e 6a a9 be 2f 33 b2 be 8b 22 a7 be
       -0.48322847 -0.33089107 -0.34804675 -0.32643542
000180 1a 9e 80 be c8 63 ea be 71 34 c2 be f1 51 9a be
       -0.25120622 -0.45779252 -0.37930635 -0.3014064
000190 89 ec 99 be f7 8e b8 be 0b d9 9b be 93 ab d7 be
       -0.30063275 -0.36046574 -0.30439028 -0.42123088
0001a0 87 d7 ab be 38 50 a9 be 98 96 c9 be 39 dc d3 be
       -0.33562872 -0.33069015 -0.39372706 -0.41378954
0001b0 3b 4c a9 be c1 0c 5b be c9 6b 98 be cc 00 f2 be
       -0.33065972 -0.21391584 -0.29769734 -0.47266233
0001c0 36 67 ba be 4e 58 de be 64 ce e2 be 2f b4 ca be
       -0.3640687 -0.43426746 -0.4429809 -0.39590594
0001d0 d6 b3 de be 57 5b 78 be f3 4c e7 be 60 50 ac be
       -0.4349658 -0.24253593 -0.45175895 -0.3365507
0001e0 d1 91 e1 be 59 8c 8f be 14 f8 fc be 58 c8 ac be
       -0.44056562 -0.28036764 -0.4940802 -0.337466
0001f0 48 ca 9e be 67 f9 81 be dc 62 da be a8 71 87 be
       -0.31013703 -0.2538559 -0.4265355 -0.264539

layers.4.running_mean f4 [128]
000000 e1 f4 19 bf b5 7e 72 3e 40 54 42 bf c3 5d 47 be
       -0.6013928 0.23681147 -0.75909805 -0.19469361
000010 6a 7b 76 3e c9 20 c8 be 16 08 98 bf 06 84 00 bf
       0.24070516 -0.39087513 -1.1877468 -0.5020145
000020 ae 82 2f bf 55 dc 21 bf 2d 5c 05 bf ec 9d 00 bf
       -0.68558776 -0.63226825 -0.52093774 -0.5024097
000030 ea 46 64 3f 64 7f d7 bb cf 87 a3 be f4 3f 46 be
       0.89170706 -0.0065764654 -0.3193955 -0.19360334
000040 8a fe c9 be ce 00 b4 be 4e 8f 76 bf 05 63 b1 be
       -0.3945201 -0.35156864 -0.96312416 -0.34645858
000050 99 b6 7c be ea 7c b0 bc 62 d9 e2 bd ba 9b cf 3d
       -0.2467903 -0.021543939 -0.11076619 0.10137124
000060 83 8e d3 bc a1 2e 97 bc ce 2f b6 be c0 4c ed be
       -0.02582479 -0.018454852 -0.35583347 -0.46347618
000070 9b af 37 3e 62 85 bf 3d 3e 1f 8e bf 56 38 ed bd
       0.17938082 0.09351613 -1.1103284 -0.11583011
000080 72 35 89 bf fb b4 19 bf 11 42 6e bf 49 64 df 3c
       -1.0719435 -0.6004178 -0.9306956 0.0272695
000090 42 a3 50 3f 7a 44 4f 3c 54 ab bb be 83 8b e7 be
       0.8149911 0.012650603 -0.3665415 -0.45223626
0000a0 7f e4 a8 bf 21 bf d4 be b0 2b aa be ce 7d 0a c0
       -1.3194731 -0.4155207 -0.33236456 -2.1639285
0000b0 77 37 62 be 2f 85 b6 be a7 c4 4c be bc ce b4 bf
       -0.2209147 -0.35648486 -0.19996892 -1.412559
0000c0 f9 39 41 bf d4 35 e7 be c7 2e 49 bf 07 7a 1b bf
       -0.75479084 -0.45158255 -0.78587 -0.60733074
0000d0 ce 65 25 be c7 6f af bc 7f ca 29 bf 16 c8 54 3e
       -0.16152117 -0.021415604 -0.6632461 0.20779452
0000e0 36 78 11 bf 06 21 8c bf 5f 96 3c 3e 4a 45 e2 bd
       -0.5682405 -1.0947578 0.18416737 -0.11048372
0000f0 89 8e 07 bf a0 ae dc bd 4e 09 a9 bf 6d 42 d0 bf
       -0.52951866 -0.107754946 -1.3205965 -1.6270272
000100 5e a6 d5 be 4e 3f 68 bc 5b df bd bf e9 fd 18 bf
       -0.4172849 -0.014175249 -1.4833788 -0.59762436
000110 88 02 52 bf 13 1a ce bf 54 e2 67 bf 58 ee ba 3d
       -0.8203511 -1.6101707 -0.90579724 0.09127492
000120 6b b8 20 c0 bd cf 0c 3f db 82 81 be b9 8a b3 be
       -2.511256 0.55004483 -0.25295147 -0.35066774
000130 cc 22 9b 3f e3 21 87 bd 9a 5a e1 bf 11 90 f4 bd
       1.2119994 -0.0659826 -1.7605774 -0.11941541
000140 5d 72 52 bf 24 23 7a be e7 c5 de 3e 1c 60 9a 3e
       -0.82205755 -0.24427468 0.43510363 0.3015145
000150 24 b1 2f bf 05 58 fd be 08 b0 c4 bf 67 cf a3 bf
       -0.6862967 -0.49481216 -1.536622 -1.2797669
000160 c8 57 ab be b7 31 63 bf 6b f6 0f bd 04 ab 13 3d
       -0.3346541 -0.88747734 -0.035147112 0.036051765
000170 9a 8c d5 bf cd 57 8a bd 4d da c8 bd ad 19 a3 be
       -1.6683533 -0.06755028 -0.098072626 -0.31855527
000180 70 99 80 3e eb c4 5b be 7a d5 d3 be 8b 42 81 bd
       0.25117064 -0.21461837 -0.41373807 -0.0631152
000190 b7 a2 4a bf 5f 48 10 3f 01 4a 3a bf 79 e3 f3 be
       -0.79154533 0.5636043 -0.7276917 -0.47634485
0001a0 eb 0b 06 be f6 81 46 3e 4a 6f b0 bd cf a6 d4 bd
       -0.13090484 0.19385514 -0.08614977 -0.10383379
0001b0 77 6b 93 bf 2e ad f5 bf 1b 97 9f be 93 93 ea be
       -1.1517171 -1.9193475 -0.31169972 -0.45815715
0001c0 ac 33 78 be fa c4 6b be ad e6 23 3f 06 19 fe be
       -0.24238461 -0.2302436 0.6402386 -0.49628466
0001d0 8e ad ea be b8 e7 9e bd 9c 04 25 3f 8e 9b 09 bf
       -0.45835537 -0.077590406 0.6446016 -0.5375298
0001e0 4e 46 af bf a1 91 5c bc f6 dc 59 3f c3 b3 da be
       -1.369333 -0.013462455 0.85102785 -0.42715272
0001f0 75 5c 92 be 82 ac a2 bf 24 9a 52 be 44 69 39 bf
       -0.28586164 -1.2708895 -0.20566612 -0.7242625

layers.4.running_var f4 [128]
000000 f2 41 bf 40 5e a7 9f 40 80 d2 96 40 f9 d8 a1 40
       5.9768 4.9891806 4.713196 5.057736
000010 78 50 80 40 67 dc a4 40 3a cf a5 40 b0 18 8f 40
       4.009823 5.1519046 5.181546 4.4717636
000020 15 a3 c5 40 a9 39 a6 40 dc de 99 40 0a 6e f9 40
       6.1761575 5.1945386 4.8084545 7.7946825
000030 92 11 ba 40 8f ad 6f 40 6e 16 86 40 ca e6 99 40
       5.814645 3.7449682 4.190238 4.8094225
000040 81 f8 a6 40 88 e4 ba 40 55 64 c5 40 b8 c0 02 41
       5.217835 5.840397 6.1684976 8.17205
000050 d2 90 ae 40 55 97 7f 40 ce df 77 40 e8 9e a5 40
       5.4551783 3.9936116 3.873035 5.1756477
000060 92 fd 8f 40 9d fe 98 40 fc cf a1 40 a1 5e 84 40
       4.4997034 4.7810807 5.0566387 4.1365514
000070 c7 64 6a 40 52 fb a6 40 d9 39 a3 40 12 b8 a2 40
       3.662401 5.2181787 5.1008115 5.0849695
000080 f9 2d 9d 40 64 18 91 40 75 b5 b2 40 c3 19 9b 40
       4.911862 4.5342274 5.5846505 4.8468947
000090 a8 3f 69 40 6e 12 6a 40 f6 0a 96 40 62 d2 93 40
       3.6445103 3.6573749 4.688838 4.6194315
0000a0 d2 ad d0 40 2a 22 82 40 e2 84 b2 40 b9 64 e4 40
       6.5212183 4.0666704 5.578721 7.1372952
0000b0 15 f5 9a 40 3f 5c a0 40 70 af af 40 95 44 99 40
       4.8424172 5.0112605 5.4901657 4.789622
0000c0 24 50 9b 40 10 53 a9 40 77 8c 84 40 05 8b b1 40
       4.853533 5.2913895 4.1421466 5.54822
0000d0 c6 af d3 40 2e 44 8d 40 fa e6 b6 40 97 3f 8b 40
       6.6152067 4.4145727 5.7156954 4.3515124
0000e0 db 16 a0 40 4a ab 60 40 2c f8 8e 40 78 66 ab 40
       5.00279 3.5104547 4.4677944 5.3562584
0000f0 bb 00 b8 40 ca a4 bd 40 79 08 bc 40 35 c8 98 40
       5.750089 5.926366 5.8760343 4.7744393
000100 e2 83 7b 40 eb e0 a7 40 bc 87 d8 40 d4 b4 82 40
       3.9299245 5.246206 6.766569 4.0845737
000110 6e a4 63 40 80 ae c4 40 10 6d 8d 40 db c3 9d 40
       3.556911 6.1463013 4.4195633 4.930158
000120 6e 26 09 41 8c 4e 79 40 3e b0 82 40 1b 18 a8 40
       8.571882 3.8954191 4.084014 5.2529426
000130 be 1a 81 40 95 d9 c7 40 8f 98 04 41 78 e1 a3 40
       4.0345144 6.2453103 8.287246 5.121273
000140 a2 5f ca 40 7f 64 93 40 30 e8 cc 40 96 4c 8c 40
       6.324174 4.6060176 6.403343 4.384349
000150 3d 2f c9 40 0f 8a 99 40 1d 77 86 40 fe 98 e8 40
       6.2870164 4.798103 4.20204 7.268676
000160 28 41 9f 40 b8 79 c4 40 e9 da 3f 40 c1 9a 8a 40
       4.9767036 6.1398582 2.9977362 4.331391
000170 94 57 ba 40 cd 2b a3 40 bf 0c a5 40 2f b3 9e 40
       5.8231907 5.099097 5.157806 4.959373
000180 b2 b5 6b 40 5a 1f 91 40 1f 0d 9a 40 17 76 87 40
       3.6829648 4.535077 4.8141017 4.2331653
000190 61 dd 8a 40 49 8b 6d 40 2c b0 af 40 bd 37 9f 40
       4.339524 3.7116263 5.4902554 4.975554
0001a0 fb aa a2 40 ae 32 8f 40 e3 eb 63 40 e3 83 c1 40
       5.0833716 4.4749365 3.5612724 6.0473495
0001b0 9b 3a e4 40 00 9a ab 40 83 9c ac 40 56 5f 9a 40
       7.132154 5.362549 5.3941054 4.8241377
0001c0 90 3b ad 40 35 ec 95 40 c7 b3 70 40 6b 2b a5 40
       5.413521 4.685084 3.7609727 5.16155
0001d0 00 f3 72 40 70 35 9b 40 88 30 6a 40 4b 10 8b 40
       3.7960815 4.850273 3.659212 4.345739
0001e0 f1 13 8e 40 c6 66 af 40 06 f1 9b 40 e1 4d 8c 40
       4.4399343 5.4812956 4.873172 4.3845067
0001f0 93 2e 95 40 ef 69 9e 40 f8 86 9c 40 47 3d 16 41
       4.6619353 4.9504313 4.8914757 9.38996

layers.6.weight f4 [10, 128, 4, 4]
000000 30 83 38 3e 91 62 1a 3e 8d b6 93 3e 07 78 96 3d
       0.18018794 0.15076663 0.28850213 0.07347112
000010 9e 54 aa bc 01 e6 21 3e c2 83 65 3d f1 eb fe 3c
       -0.020792302 0.15810396 0.056033857 0.031118365
000020 71 ff a3 bd e2 3a 9b bd 5d a9 9f 3d 6e 14 5e be
       -0.08007706 -0.075795904 0.07795975 -0.21687481
000030 33 af 0c bd d6 23 35 3e f7 d2 d2 3d 09 78 61 3d
       -0.03434677 0.17689452 0.102941446 0.055046115
000040 46 fd 6c be db d0 96 bd 56 2e 51 be c3 12 9f bd
       -0.23143491 -0.07364055 -0.20427832 -0.077672504
000050 f4 c8 6b be 5b b3 21 be ea 00 09 be 9d e9 17 be
       -0.23025876 -0.15791075 -0.13379255 -0.1483521
000060 c6 6e 24 be 8d b6 2c bc 0c 9a ac bd c5 63 1f 3d
       -0.16057882 -0.01054157 -0.084278196 0.038913507
000070 7c 76 ed bd 0d d4 c5 bd 08 3c 8b bd 10 4c 9b bd
       -0.11594865 -0.09659586 -0.067985594 -0.07582867
000080 45 dd 24 3d f0 42 a9 bc 53 52 59 3d 75 0b 8a bd
       0.04025008 -0.020661801 0.053057026 -0.067404665
000090 2c 19 dc bd bb 53 ed 3d 68 ac e1 bd 57 67 5e 3e
       -0.10746989 0.11588236 -0.11019212 0.21719109
0000a0 a3 c7 02 3e d9 59 ff 3d bc 60 4f 3e c7 53 0f 3e
       0.12771468 0.12468309 0.20251745 0.13996802
0000b0 54 0f 8e be c5 ca 89 3d c0 54 4f be 29 d6 02 3e
       -0.2774607 0.06728128 -0.20247173 0.12777008
0000c0 bc 5f 07 bc 6b 3a d5 3e 34 1a ab 3e 20 81 bf 3e
       -0.008262571 0.41646132 0.3341843 0.37403202
0000d0 5e e8 80 3e b6 3d 16 3e 5d d9 43 3e 46 27 4b 3e
       0.25177282 0.14671978 0.19125886 0.198392
0000e0 f4 e9 be 3e 54 6f a2 3e 79 e9 4a 3e 6b 2f f0 3e
       0.37287867 0.31725562 0.19815625 0.46911177
0000f0 64 f2 7e 3e ee e9 b1 3d 22 78 13 3e 25 df 37 3e
       0.24897152 0.08687197 0.14401296 0.17956217
000100 d6 44 c3 3d 27 be 26 bd 8c f6 52 bc 5e d6 9b bd
       0.09534614 -0.040708687 -0.012876164 -0.07609247
000110 ec a4 cc bd 33 29 df 3d 00 ee 06 bd 85 85 0e 3e
       -0.09992394 0.1089653 -0.03294182 0.13918121
000120 08 54 99 3d 6b 59 20 bd 7a 02 e7 bc 2e c3 93 bd
       0.07486731 -0.039147776 -0.028199423 -0.07214962
000130 e3 07 bd 3b 0f 8d 33 3e 17 4a 3b 3d 9c 80 6b 3e
       0.0057687624 0.17534278 0.045724954 0.2299828
000140 67 b0 a0 3e f2 4c 45 be dc 3a 2d 3e 03 c3 a4 be
       0.31384584 -0.19267634 0.16916984 -0.32180032
000150 61 6a 81 3d 84 e8 8f bd a5 47 37 3d 5f 81 e3 bd
       0.06319118 -0.07026771 0.04474606 -0.1110866
000160 c5 59 0f 3e f5 d1 0b be f4 43 2e 3e ea 08 6e be
       0.13999088 -0.13654311 0.1701811 -0.23245588
000170 8e 4c 07 be 71 99 a9 be fe 5d 74 bd 6e 1d d2 be
       -0.13212797 -0.3312488 -0.05965995 -0.41038078
000180 ef 65 ba be f3 74 0e bd 2e 5c 82 be b6 43 90 be
       -0.36405894 -0.0347795 -0.25460953 -0.2817666
000190 f0 91 b4 be fb 35 5e bd 69 5c 5c be 8c bd be be
       -0.3526759 -0.0542507 -0.21519627 -0.37253988
0001a0 89 25 40 be ac d1 1a 3d 95 cd 25 be 43 85 00 be
       -0.18764319 0.037797615 -0.16191705 -0.12550835
0001b0 16 14 09 bf 64 8a 55 be 46 6d c7 be 56 f6 08 bf
       -0.53546274 -0.20853573 -0.38950557 -0.5350088
0001c0 9b 67 ab be a6 1b 69 be c2 3f 87 be 69 a7 5e be
       -0.33477482 -0.22764453 -0.2641583 -0.2174355
0001d0 82 50 c1 be 72 aa cf be 54 5e 6d be 73 02 d4 be
       -0.37756735 -0.40559727 -0.23180515 -0.4140812
0001e0 67 d9 2e bf 43 d7 e4 be 1d 49 05 bf 80 61 b9 be
       -0.6830048 -0.44695482 -0.52064687 -0.362072
0001f0 95 a7 ac be 46 3d 9b be 95 7a 48 be a3 fa 8b be
       -0.33721605 -0.30320185 -0.19578011 -0.27339658
000200 64 64 3b 3e 75 5a 55 3e 32 11 73 3e 40 5d cb 3b
       0.18300015 0.20835288 0.23737028 0.0062061846
000210 1b f1 70 3e cd 80 0f 3e 56 c4 46 3e 11 5f c5 bc
       0.23529474 0.14013977 0.19410834 -0.024093183
000220 39 c6 d8 3d ba 2d c6 3d f0 f9 3f 3e 5b cb 19 bd
       0.10584683 0.096766904 0.18747687 -0.03754745
000230 7e f1 66 3e bb a8 19 3e 8a 28 96 3e 7d db 68 bd
       0.2255306 0.15005772 0.29327804 -0.056849945
000240 ba 94 48 3b d1 ac bb 3c 41 41 4c be 21 4c c7 3b
       0.0030606226 0.022909554 -0.19946767 0.0060820733
000250 22 04 02 bd b0 09 84 3d a0 bf 37 be 7b 8a 7f 3d
       -0.031742223 0.0644716 -0.17944193 0.062387925
000260 30 a8 91 3d 14 da b3 3d 64 11 c3 bd 1f b4 e5 3d
       0.07112157 0.087818295 -0.095248014 0.11215996
000270 77 b4 69 bd d4 2a 3c 3d 62 49 e5 bd 2c 0c 85 ba
       -0.05705687 0.04593928 -0.11195637 -0.0010150722
000280 b5 cc 0c bf af 82 1c 3e fc d1 ad be fa 28 24 be
       -0.5499986 0.15284227 -0.33949268 -0.16031256
000290 25 d4 e9 be 22 bb d6 3d 54 4b 8b be 85 05 21 be
       -0.45669666 0.104849115 -0.27205908 -0.15724762
0002a0 b2 bf cc be 8c 9e 57 3c fc 65 bf be 6c 86 0d be
       -0.39990002 0.013160359 -0.37382495 -0.13820809
0002b0 d1 22 c5 be ce a0 e4 3d 43 36 8f be ee 4c ed bc
       -0.38503125 0.111634836 -0.27971086 -0.028967347
0002c0 d0 9a 95 3e 1b 9a dc 3d 74 c9 18 3d 82 b1 d1 3d
       0.29219675 0.10771581 0.037301496 0.10238935
0002d0 8d 8c 65 3e 80 b7 89 3d a4 cd bd 3d 8e d0 c2 3d
       0.22416897 0.06724453 0.092677385 0.09512435
0002e0 05 70 86 3e 12 91 e3 3d 08 c5 6a 3d b8 54 bb 3d
       0.2625734 0.11111654 0.05731681 0.09147018
0002f0 77 38 3f 3e d7 e0 3d bd b9 34 5f bd 7c 12 0a be
       0.18673883 -0.046357002 -0.05449364 -0.13483614
000300 8f 5c 71 3e 03 3c 9a bd 1d 12 3c 3e c8 64 62 3d
       0.23570465 -0.075309776 0.18366285 0.055271894
000310 dd 96 68 bc 89 b9 75 bd d4 a2 9c 3c ff ac 3d be
       -0.014196125 -0.059991393 0.019120611 -0.18523024
000320 76 44 5e 3e a5 0c fb bc 9b 7e 1f 3e 38 c0 3c 3c
       0.21705803 -0.030645678 0.1557564 0.011520438
000330 db 1a ed 3d 7a f4 dd 3b 24 d6 4d 3e e2 a1 9e bd
       0.11577388 0.0067735286 0.2010122 -0.077457204
000340 2d 81 f9 3d 32 58 95 3e 5c 5f 84 3e b9 fb 98 3e
       0.121828414 0.2916885 0.25854003 0.2987955
000350 41 14 bd 3d 5c b2 8d 3e d7 f9 ba 3d a9 9b b0 3e
       0.09232379 0.2767514 0.091296844 0.3449376
000360 0e 0a 82 3d 66 4c d6 bc 9f ff 0e 3e cd 33 f8 3d
       0.06349574 -0.026159476 0.13964699 0.12119255
000370 7f 3c 06 be 5e b2 e8 3d d7 27 ad 3d 69 d2 26 3e
       -0.13109015 0.11362146 0.084548645 0.16291203
000380 cf 16 de 3e 22 50 b7 3e 0d b7 cc 3e f2 aa 97 3e
       0.43376777 0.35803324 0.39983407 0.29622608
000390 3c 6a 75 3d ff 29 6e 3e 5a 0a 48 3e 10 65 67 3e
       0.059915766 0.23258208 0.19535199 0.22597146
0003a0 01 78 be bd cd 46 99 bd de 67 b6 3d b6 f6 05 be
       -0.09300233 -0.07484207 0.0890653 -0.13082394
0003b0 4f a6 a4 3d fa b6 8d 3e e6 5e 95 3e 0c 59 60 3e
       0.08039533 0.27678663 0.29173964 0.21908969
0003c0 11 25 cf 3e a0 f1 91 3e 3c 1c 87 3e 1b cf 68 3e
       0.40457967 0.28504658 0.2638873 0.22735254
0003d0 a4 7f 7e 3e 6e 94 0d 3e bd 84 37 3e 1f cb 39 3e
       0.24853379 0.13826153 0.1792173 0.18143891
0003e0 c7 81 6a 3e f9 db 6e 3c d7 b6 ab 3d 67 8e d3 bb
       0.22901069 0.014578813 0.08384483 -0.0064561847
0003f0 1a b2 0d 3d f1 d5 83 3d c1 cb 29 3b 93 9a 99 3d
       0.03459368 0.064372905 0.00259088 0.07500186
