horse_discriminator_save.pth (torch, 677685 bytes, 12 tensors)

main.0.weight f4 [32, 3, 4, 4]
000000 9b cd ef 3b 9d 1e 0b 3d 2e 42 cd 3b 04 63 04 3d
       0.0073182113 0.033964742 0.0062639927 0.03232099
000010 03 af 14 bc c1 24 15 bd f3 67 fb bc e4 d3 51 bd
       -0.009074929 -0.036412004 -0.030689215 -0.051227465
000020 ba 70 44 3c 1c fe 7c bc bb cf de 3c 41 a7 b2 bc
       0.011989767 -0.015441444 0.027198663 -0.021808269
000030 37 5c 3d b9 1e ec f3 39 1c d0 c8 3c 64 6a 36 3d
       -0.00018058797 0.00046524493 0.024513297 0.044535056
000040 8a 22 3c 39 54 73 18 3d 2b 52 46 bc 09 b3 ea 3b
       0.00017941944 0.03721936 -0.012104551 0.007162456
000050 53 ea 95 bc 72 05 e7 3c e4 0d 59 bd a5 a4 b5 bb
       -0.018300211 0.028200839 -0.052991763 -0.005543309
000060 80 a9 45 3c 02 cf e2 3a 27 f0 a7 bc 80 dd a4 ba
       0.012064338 0.0017304125 -0.020500256 -0.0012578219
000070 f3 3f 86 bc f2 07 80 3c 8a 71 c0 3b b8 57 52 bd
       -0.016387915 0.015628789 0.00587291 -0.051353186
000080 45 c6 d2 bc d0 72 05 bb ff 6f 7a 3d 39 e4 ac 3b
       -0.025729308 -0.0020362623 0.061141964 0.0052762297
000090 ae b6 4b bc 4c ad e2 3a 43 16 90 bd 6a ed df bc
       -0.012433691 0.0017294078 -0.07035496 -0.027334888
0000a0 62 e6 66 bc 21 6c c1 3b b6 92 88 3c 47 68 78 3c
       -0.0140930135 0.0059027825 0.01667152 0.01516158
0000b0 31 bd 52 3c 43 46 d1 3c 1a 5d 7c bc 0f 32 3c 3d
       0.01286249 0.025546199 -0.0154030565 0.045946177
0000c0 c7 5a ed 3c f0 3e 2d bb a1 cc cf 3c 12 39 9e 3c
       0.02897395 -0.0026435219 0.02536613 0.019314323
0000d0 ad a6 af bc 4b 64 b1 bc cc 46 2c bb e0 af 7f bc
       -0.021441782 -0.021654269 -0.0026287315 -0.015605897
0000e0 31 08 f6 3b 67 0a d8 3a da 53 34 bc 9e 0c 03 bd
       0.0075083007 0.0016482592 -0.01100632 -0.031994455
0000f0 b7 4a 7d bc e6 64 e7 3c e4 fa 08 3b 42 64 6b bb
       -0.015459708 0.028246354 0.0020901496 -0.0035917913
000100 3f ec b9 3b ec 76 e2 bb 08 fb a9 bc 88 07 82 3c
       0.0056739147 -0.0069111492 -0.020749584 0.015872732
000110 67 21 41 3c 40 44 1a bb 4f 73 05 3d 19 a3 36 bd
       0.011787749 -0.0023539215 0.03258067 -0.044589136
000120 67 cb 03 bd 3c cf 5a bc 4f c4 04 39 6e fe 5a bd
       -0.0321764 -0.013355073 0.00012661632 -0.0534653
000130 2d 6f cf 3c 3c 7a 8a ba 9c 87 f9 3a c8 32 45 ba
       0.025321567 -0.0010564993 0.0019037607 -0.00075225206
000140 1c 85 c2 3c 07 d1 d3 3c 0b f5 33 bc 2f 16 6c 3d
       0.023745112 0.025856508 -0.010983716 0.057638343
000150 07 3a c2 3c 22 44 15 bb fb 08 a0 3c 1b e2 42 bb
       0.02370931 -0.0022776206 0.019535532 -0.002973682
000160 ae 3c 38 bc 95 c2 1e bc 67 5c 29 bc ea 4b 15 bd
       -0.011244936 -0.009689947 -0.010336972 -0.03644935
000170 0c 06 6f 3c 64 c7 c0 bc 06 5b 20 3c 59 3d 0e 3b
       0.014588844 -0.023532577 0.009787327 0.0021704047
000180 e7 fd 7f 3b 36 44 07 3d 2e 2a e4 3c 4c 32 09 3c
       0.003906125 0.033024035 0.027852144 0.008373808
000190 06 1c e3 3b 25 98 cd 3b b3 f1 5c 3d 7c a3 04 3c
       0.006930831 0.0062742406 0.05394144 0.008095618
0001a0 9c d5 10 bb b7 d3 d0 bc 37 97 62 bd c8 1b 14 bd
       -0.0022099977 -0.025491579 -0.05531999 -0.036159307
0001b0 73 3e 27 3c 3b 37 11 3c ca b7 80 bd 5b 9a 5f 3c
       0.01020776 0.008863266 -0.06285055 0.013647641
0001c0 36 6c 1e 3b 14 7e 89 3c 40 92 0b bc e9 99 b5 bb
       0.0024173385 0.016783752 -0.008518755 -0.005542029
0001d0 5d 16 2e bc 66 5d b3 ba 50 bf b9 3b 6d c8 21 3d
       -0.010625449 -0.0013684451 0.005668558 0.03949778
0001e0 d0 49 26 3c b9 32 af bc 8f 03 2a bd f0 f7 8a bc
       0.010149434 -0.021386491 -0.0415073 -0.016963929
0001f0 6c 3e 5c 3c 0d 40 f2 3b 63 19 f3 bc 4d 0e 49 bc
       0.013442617 0.0073928894 -0.029675191 -0.012271476
000200 81 ff f7 3c b5 c2 75 bc b8 8b 3e 3b eb fa 32 bb
       0.030273201 -0.015000035 0.0029074978 -0.0027310203
000210 9f 3d 16 3d 45 73 83 3b d3 e0 6d 3c b9 77 25 3c
       0.03667986 0.004011544 0.014518934 0.010099345
000220 f5 5d 97 bb 8d ed 63 bc bb 4e 61 bd e2 d4 ee bb
       -0.004619355 -0.013911617 -0.055006724 -0.007288561
000230 f7 10 9a bc 41 51 c3 ba 99 92 d3 bc c2 bd ab bb
       -0.018806918 -0.0014901535 -0.02582674 -0.0052411268
000240 b3 c6 81 bc 51 46 da bc d4 7f c1 3c bd f7 a0 b8
       -0.015841817 -0.026644858 0.023620524 -7.6755394e-05
000250 7f de 5f bb 25 f1 67 bc 0e 39 b4 3c 8b 4c 77 3c
       -0.0034159718 -0.014156614 0.021999862 0.015093933
000260 7d 7a 51 bc 31 37 3d bd 26 c3 39 3c 0a e3 46 3c
       -0.012785551 -0.046195213 0.011338031 0.012139091
000270 4c a1 3e bc 35 7a b5 3b a5 a9 fe bb 55 8b cc 3c
       -0.011635136 0.00553825 -0.007771688 0.024968782
000280 d4 39 73 bc 3b 44 33 bd 0c 25 5b 3b 32 c1 8a bb
       -0.01484533 -0.04376624 0.003343883 -0.0042344565
000290 a5 e1 b8 3c 98 ba 2a bd 49 61 89 3c 33 20 ca 3c
       0.022568533 -0.041681856 0.016770022 0.024673557
0002a0 31 51 5f bd e8 23 97 bc 76 61 29 3d bd f3 19 3d
       -0.05452079 -0.018449739 0.04135271 0.037585963
0002b0 b7 1e 74 bb 1f 65 0f bd 9e 62 b7 3b 52 ef d3 3b
       -0.0037249753 -0.035008546 0.005596473 0.006467738
0002c0 8a a3 c9 3b fc 37 71 bc ac fd 86 bc 3b 74 e4 bb
       0.0061535286 -0.01472282 -0.016478382 -0.0069718636
0002d0 4f 24 cc 39 de 0c 54 bd 48 63 2d 3d 26 f8 da 3a
       0.00038936964 -0.051770084 0.04233101 0.0016706034
0002e0 2a 4f d1 3c 61 27 6b bc 0e 2f b3 3c 7b e6 7a bc
       0.025550444 -0.01435265 0.021873023 -0.01531374
0002f0 e6 b3 a3 bb 08 3e 83 bc 41 be c9 3b 09 98 30 3d
       -0.004995811 -0.01602079 0.0061567132 0.043113742
000300 6e 91 95 bb 5b a4 0e bb 72 ac d4 bb f3 d7 02 bb
       -0.0045644557 -0.0021765444 -0.0064902836 -0.0019965142
000310 da 14 16 3c 7c f7 d1 bc 96 ad a0 3b 0c 38 9c bc
       0.009160245 -0.025630705 0.0049035056 -0.019069694
000320 43 c8 3a bb d9 2e d2 3c d4 83 14 bd a5 04 82 3c
       -0.0028500713 0.025657104 -0.036258534 0.015871355
000330 50 ca bd 3c b2 75 2a bb 52 6e 15 3c cd 8b d4 3c
       0.02316776 -0.0026010093 0.009120541 0.025945568
000340 97 aa 3d 3c 19 02 49 3c 1a e7 dd bc 84 5d aa 3b
       0.011576316 0.0122685665 -0.027087737 0.005199136
000350 ff 21 8c 3c 8f 8d 18 3d 4a 8f d9 3c ca ec 16 3b
       0.017106054 0.037244376 0.026557583 0.002302932
000360 52 9f 14 3d 2d ee fa bb 4e 28 54 bd 99 02 38 bd
       0.036284752 -0.0076577873 -0.05179625 -0.044924352
000370 54 14 6e bc 62 a3 fd 3b ea 1b c9 bc 36 7d be bc
       -0.014531214 0.007740424 -0.024549443 -0.023253065
000380 92 8c 5e 3c 19 34 1b 3c 79 48 19 bd 24 f4 24 3d
       0.013583319 0.00947287 -0.03742263 0.040271893
000390 1a c6 11 3c 0e 46 12 bd 3b 2b 55 3b 27 77 46 bb
       0.008897329 -0.03571134 0.0032526988 -0.0030283423
0003a0 cb 8a 0a bc 78 62 f8 3b 12 2d 88 bc 66 ab d9 3c
       -0.008455942 0.0075800978 -0.016623054 0.026570987
0003b0 b4 c2 72 3b 75 79 75 3b 92 82 1b 3c 83 ac 62 bb
       0.0037042322 0.0037456427 0.00949158 -0.0034587688
0003c0 69 e1 9e 3c 93 fe 1a bd 28 2c 47 3c 0f 66 35 3c
       0.019394593 -0.037840437 0.012156524 0.011071696
0003d0 1e ff c4 3c 84 49 b9 3c 3f 77 3e 3c c1 9c 9a bb
       0.02404743 0.022618063 0.01162511 -0.0047183936
0003e0 b8 f3 c0 3c 4c 3d 91 3c 17 af 96 3c ca 43 aa bc
       0.023553714 0.017729424 0.018394036 -0.020784277
0003f0 17 40 30 39 44 10 67 3c 54 92 dc bc 2b 5c fa bc
       0.00016808543 0.014102999 -0.026925243 -0.030561527

main.2.weight f4 [64, 32, 4, 4]
000000 fb f9 43 3d ad 5b d1 3c 8e 16 95 3c 3b c2 67 bd
       0.04784582 0.02555641 0.018199231 -0.056581717
000010 3f e9 41 3c 02 04 8e 3c 61 33 cb bb 47 4c aa bc
       0.011835395 0.017335895 -0.006201193 -0.020788325
000020 27 f1 f0 bb c8 70 87 bc 85 c5 33 3c 71 f8 55 bb
       -0.0073529663 -0.01653327 0.010972385 -0.0032649303
000030 2f c8 15 3b 00 00 fd bb 71 27 89 3c 63 2e 69 bc
       0.0022854914 -0.0077209473 0.01674244 -0.014232251
000040 ef 2e 68 bd 4c f1 a8 bc 9e 66 51 bd 0e b2 e2 bc
       -0.056685384 -0.020622872 -0.051123254 -0.027672794
000050 15 7b 01 3d e0 43 78 bb 70 68 fd bc 96 e2 c6 b9
       0.03161152 -0.0037882254 -0.030933589 -0.00037934323
000060 3d 1e 05 3c 02 f7 29 3c 8a 3f 0b 3c fc d1 95 bc
       0.008124885 0.010373833 0.008499036 -0.018288605
000070 dd d6 02 3c 76 a1 a1 bc 89 7d 2d 3c 95 4e 82 bc
       0.007985798 -0.01973031 0.010589012 -0.015906611
000080 20 8f 35 3d c3 c4 59 3b 94 bd ac 3c dc d0 5d bc
       0.044325948 0.0033228851 0.021086492 -0.0135385655
000090 d1 6e 4f 3c 4d 46 63 bc 59 7c 40 bb 26 9c c7 3c
       0.012660698 -0.0138717415 -0.0029370992 0.02436645
0000a0 95 8e e8 bc cf df f2 bc d9 4f ec 3b 6b 17 c3 3c
       -0.0283883 -0.029647736 0.007211667 0.023814877
0000b0 89 30 ae bc 49 a3 b8 3c 0c ff f9 bc 74 ea ab 3b
       -0.021263378 0.022538798 -0.030517124 0.005246455
0000c0 84 ed 0b bd ca 58 bf bc 7c e1 00 3c 33 67 85 bc
       -0.03416206 -0.023357768 0.00786626 -0.01628456
0000d0 54 2e c8 bc 51 a4 55 3c c9 50 58 bb f9 d7 86 bb
       -0.024436153 0.013039664 -0.0033007136 -0.0041151014
0000e0 b6 a7 e5 bb 6b 51 ba 3b d0 19 15 3c a7 04 b8 bc
       -0.007008518 0.0056859753 0.009100392 -0.022463156
0000f0 c5 b4 f3 3c 5b 85 a6 3c 8d 3c 1f 3d a5 ea ee 3c
       0.029749284 0.02032726 0.038876105 0.029164622
000100 d4 36 d8 3c 01 40 00 3d 3c 0d e1 3b 1e 90 02 3b
       0.026393332 0.03131104 0.0068680327 0.0019922326
000110 ae 88 3e 3c cf 06 aa 3c 98 41 ad 3c 17 84 d8 3c
       0.011629267 0.0207552 0.021149442 0.026430173
000120 ac 68 68 3c ed 22 10 bc ca b6 49 3c ba 3b 35 3d
       0.014185112 -0.008797389 0.012311647 0.044246413
000130 4d 5c 0c 3c 60 aa be 3b fd f7 06 bc f0 29 5c 3d
       0.008566928 0.00581865 -0.008237836 0.053750932
000140 7d e6 fe bc d3 b3 fd bc ce 9e 71 3c 2e b9 96 bc
       -0.031115765 -0.030969536 0.014747335 -0.018398847
000150 7a 5a 9f 3c 73 75 d4 3c 8b 84 61 bc 39 a5 b9 bc
       0.019452322 0.02593491 -0.013764511 -0.022661792
000160 66 05 9d bb ed c9 59 3c ff 73 08 3d 7e f1 bb 3c
       -0.0047919033 0.013292772 0.033313747 0.0229423
000170 97 e8 64 bc fd 1a 0f bc 69 27 b0 3c d4 0a 20 bd
       -0.013971469 -0.008734462 0.021503167 -0.039072827
000180 e8 ce 52 bd 1d 2c 7f 3c 63 ce 3f 3d 18 f9 94 bc
       -0.051466852 0.015574482 0.046827685 -0.018185183
000190 7e 2c 0f 3d 2d 20 bd 3c bf 06 0a 3c e9 b1 8e bc
       0.03495454 0.023086632 0.00842446 -0.017418819
0001a0 b7 31 8d 3c 97 e3 27 3a e1 d7 5f 3c d9 94 e9 bb
       0.01723562 0.0006404458 0.013662309 -0.0071283397
0001b0 6f 8f cc 3c e3 2b 22 3c 09 b8 24 3c bb 63 69 bc
       0.024970738 0.009898159 0.010053643 -0.014244969
0001c0 eb eb 22 3c 20 a5 83 bc e6 46 3a 3c 95 41 f4 bc
       0.009943943 -0.016069949 0.011369443 -0.029816428
0001d0 dc 3a 0e bd b8 00 bf 3c fb f4 ea 3c 33 f0 65 3c
       -0.0347241 0.023315772 0.028681269 0.014034319
0001e0 c9 96 63 bc 08 e6 15 bc ad bd 82 3c 27 e6 1f bb
       -0.01389093 -0.009149082 0.015959585 -0.0024398656
0001f0 d9 71 19 bc 5f 84 0c 3c c1 bc 15 3c b3 24 10 bc
       -0.009365522 0.008576482 0.009139241 -0.008797812
000200 ea af 41 3c 99 6e 27 3c d3 fc 2c bb 0e 92 ac bc
       0.011821726 0.01021924 -0.0026395812 -0.021065738
000210 7c be 8a 3c 92 7b ae 3c 47 b6 0e bc 2a d2 ac 3c
       0.016936533 0.021299157 -0.0087104505 0.021096308
000220 a0 c1 76 3b e6 ec d3 3b 0c 4f 00 bd e8 cc 7d bb
       0.003765203 0.0064674495 -0.031325385 -0.003872687
000230 c4 13 66 bc d8 33 d2 bb e7 cc ea 3c f1 ff 91 bb
       -0.014042798 -0.0064148717 0.028662158 -0.0044555594
000240 03 ab b9 bc a0 d7 44 bc 4d df a6 bc c8 cf c9 bc
       -0.022664553 -0.0120143 -0.02037015 -0.02463521
000250 51 aa 7d bc 43 fd 10 3c eb 99 93 3c fd b0 a4 3b
       -0.015482501 0.008849445 0.01801773 0.0050259815
000260 94 99 8e 3c 4c a3 e5 3b 52 65 bb bc 2e e7 a1 bc
       0.017407216 0.007007992 -0.022875462 -0.019763555
000270 e2 3a 8b ba c1 fc 00 bb 23 a6 c8 ba 65 a2 16 bc
       -0.0010622407 -0.0019681903 -0.0015308302 -0.009193991
000280 a8 18 44 3c 76 44 0a bd aa b4 a2 3b 2a 86 81 bb
       0.011968769 -0.033756696 0.0049653845 -0.003952761
000290 25 cf 6a 3d ad b1 86 3d 1e 5a 54 bc 6e 39 3f bc
       0.057326455 0.06576858 -0.012960939 -0.011671407
0002a0 53 7e 13 bd 1a 4f 8c bc e0 fb 9a bc 65 46 12 bc
       -0.036009144 -0.017127562 -0.018918931 -0.008927916
0002b0 5c e4 d8 3b 11 ab 33 bd d8 5c a0 bc 9c 6a bf 3c
       0.0066190194 -0.043864314 -0.019575521 0.023366265
0002c0 62 77 7e bb 45 b6 09 3d f1 1a f3 3c 35 36 25 bc
       -0.0038828482 0.03362109 0.029675933 -0.010083725
0002d0 85 eb 66 bc a9 78 49 3d 6d c4 87 bb 94 db 75 bd
       -0.014094238 0.049187336 -0.004143289 -0.06002386
0002e0 fe 0b ad 39 9d 42 6a bd 50 de 73 bc c0 92 17 bd
       0.00033006066 -0.057192434 -0.014884546 -0.037005186
0002f0 45 34 9e bc 6b e5 b0 3c 52 50 d2 bc cf fd c0 bb
       -0.019312033 0.02159377 -0.025673065 -0.0058896313
000300 08 0a ca 3a fa d3 3f 3d 19 1c ef ba 17 c5 15 bd
       0.0015414366 0.046833016 -0.0018242627 -0.036564913
000310 f0 e6 1f 3d d0 9d f8 bc 4d d2 28 3d 24 12 44 3c
       0.0390386 -0.030348688 0.041216183 0.011967216
000320 41 82 34 3d f8 ef 9e 3b 08 55 13 3d 1c 07 9d bc
       0.044069532 0.004850384 0.035969764 -0.01916843
000330 de 5d cb bc 3e ba a4 bc c2 54 a8 bb 9d cd 2b bc
       -0.024825033 -0.020108338 -0.005137057 -0.010486034
000340 c5 c8 fb 3c 8f 4c 45 bd 68 bc 37 3b cb 74 f1 ba
       0.030735383 -0.048168715 0.0028035883 -0.0018421648
000350 20 32 49 bc 4e 25 8c 3c 25 5c a8 ba 45 f9 0b bc
       -0.012280017 0.017107632 -0.0012844844 -0.008543317
000360 b3 6c 14 bd 98 b8 90 3c a4 e4 1d bd 73 c5 9f 3c
       -0.036236476 0.017666146 -0.038548127 0.01950333
000370 1c 8b 87 bc c0 a5 df ba 16 bb 2d bc 68 8a ec 3c
       -0.016545825 -0.0017062947 -0.010603687 0.028874591
000380 77 ad b4 3a 60 28 80 3c c7 9e aa 3c 45 1b e5 3a
       0.0013784607 0.015644252 0.020827664 0.001747944
000390 97 cf 7e bb 79 42 b5 3c c5 74 86 bc 11 f5 44 bb
       -0.0038881057 0.022126423 -0.016413102 -0.0030053298
0003a0 24 c0 7a 3c 70 25 e1 bb 11 f6 12 39 58 dc cb 3c
       0.015304599 -0.006870918 0.00014015312 0.024885342
0003b0 3f f2 24 3d 23 92 2b bc ad 0f cc bc be 17 7c bc
       0.040270086 -0.010471853 -0.024909819 -0.01538652
0003c0 ce 95 86 3c 03 51 9e 3c a6 6f ee 3c ce 72 54 bd
       0.016428854 0.019325739 0.029105972 -0.0518673
0003d0 94 46 22 bc 0d a6 98 bb 03 d2 04 bd e8 48 d0 bc
       -0.009904522 -0.0046584667 -0.032426845 -0.02542539
0003e0 f4 47 3e bb 67 2a 1d 3c f2 02 33 bd 37 d9 2c 3c
       -0.0029034587 0.009592629 -0.04370398 0.010549835
0003f0 c4 7a 79 3b 43 b1 a7 3c 0e b2 19 3c a2 9a b4 bb
       0.0038067559 0.020470267 0.00938083 -0.0055115977

main.3.weight f4 [64]
000000 c5 80 81 3f c5 ac 80 3f d7 d6 7a 3f fc fe 76 3f
       1.0117422 1.0052725 0.9798407 0.96482825
000010 23 9c 74 3f 1e 30 7b 3f 8b d8 80 3f 43 06 7a 3f
       0.95550746 0.98120296 1.0066084 0.97665805
000020 23 c9 7e 3f 5a 55 81 3f 69 b8 7d 3f ed cb 77 3f
       0.9952566 1.0104172 0.9910951 0.9679554
000030 9a ba 7c 3f 24 7d 76 3f 90 80 83 3f 7a 0b 7b 3f
       0.9872223 0.962847 1.0273609 0.98064387
000040 54 57 78 3f ab 1b 80 3f 02 d0 7d 3f fe 2a 81 3f
       0.9700825 1.0008444 0.9914552 1.0091245
000050 8a 49 81 3f f3 c9 7d 3f 52 d4 81 3f 14 86 83 3f
       1.0100567 0.99136275 1.014292 1.0275292
000060 b8 ba 80 3f 81 bb 80 3f 20 ef 81 3f 82 9f 81 3f
       1.0056982 1.0057222 1.01511 1.0126803
000070 95 ab 7f 3f e1 cb 7a 3f 7e 2b 81 3f e8 8e 78 3f
       0.9987119 0.97967345 1.0091398 0.9709306
000080 c3 b7 80 3f e8 a5 80 3f 20 8f 7d 3f a2 5a 7f 3f
       1.005608 1.005063 0.99046516 0.9974767
000090 1d 5f 80 3f da bd 82 3f a2 9c 79 3f 4d 70 7c 3f
       1.0029026 1.0214188 0.9750463 0.9860886
0000a0 03 2b 80 3f 43 99 81 3f 2a b5 7d 3f 52 52 83 3f
       1.0013126 1.0124897 0.9910456 1.0259497
0000b0 cf 77 80 3f d8 25 76 3f 38 e8 86 3f 5c 24 82 3f
       1.0036563 0.96151495 1.0539618 1.0167346
0000c0 31 d2 82 3f ab 08 7f 3f 7a 03 7f 3f 71 b2 7d 3f
       1.0220395 0.996226 0.9961468 0.99100405
0000d0 b5 46 7e 3f e7 e8 7b 3f 30 e6 80 3f 9d dc 85 3f
       0.9932664 0.98402256 1.0070248 1.0457951
0000e0 92 b2 7d 3f 8b ae 7d 3f 9a 1e 82 3f 60 d7 7f 3f
       0.991006 0.99094456 1.0165589 0.9993801
0000f0 30 04 80 3f 2d f0 7a 3f bf ff 79 3f 05 7f 80 3f
       1.0001278 0.9802273 0.9765586 1.0038763

main.3.bias f4 [64]
000000 25 20 36 bd a5 d6 fc bc 2b fa be bb 15 ad a6 bb
       -0.04446425 -0.03086407 -0.005828162 -0.005086551
000010 33 4c 9a bc 34 a3 98 bb 43 69 49 bd c6 a1 25 bd
       -0.018835163 -0.004658127 -0.04917265 -0.040437482
000020 d5 67 6d bc 54 87 40 bb ac a5 5c 3c 3d b3 8c bc
       -0.0144900875 -0.0029377537 0.013467234 -0.017175311
000030 ca f7 5c bb 5e eb c7 3b ef 25 f7 bc cf 81 29 bc
       -0.003371703 0.006101056 -0.030169455 -0.01034589
000040 08 26 7e bd 82 70 c6 bc 0f 3f 2e bd bd 58 89 3c
       -0.06204799 -0.02422357 -0.042540606 0.016765947
000050 db 40 5d bc 64 ba 89 bc 32 cd 53 bd 72 eb 35 bd
       -0.013504232 -0.01681251 -0.05170936 -0.04441399
000060 38 3c c1 bd 0b f1 1a 3d 4e 2a 05 bd b1 59 35 bd
       -0.09435314 0.037827533 -0.032511048 -0.04427499
000070 dc aa 78 bd 7c ee 9b 3b cf df 80 bd 05 38 25 bd
       -0.06070982 0.004758654 -0.06292688 -0.040336628
000080 57 09 c1 bb e2 49 23 3d 08 73 ac bc cd 2b 19 bd
       -0.005891006 0.039865382 -0.021050945 -0.037395287
000090 a7 5c b9 bb c8 4d 33 3c 31 92 08 bd f6 65 2a bc
       -0.005656797 0.010943837 -0.033342544 -0.010400286
0000a0 3d fb 78 3c f2 11 84 bd 61 0b 14 bc 78 98 a5 bc
       0.015196619 -0.06448735 -0.009035916 -0.020214304
0000b0 f7 66 06 bd 44 9e 8d 3c 4f c4 11 bc 57 b2 f8 3c
       -0.03281304 0.017287381 -0.008896901 0.030358477
0000c0 4b 4c 04 bd 2f 52 58 bd b6 b2 f9 3c 54 31 c9 bc
       -0.03229932 -0.05281275 0.030480724 -0.024559654
0000d0 6c eb 86 bd ff 92 89 bc 9d 17 b7 bc cb 1a da bb
       -0.06587872 -0.016793726 -0.022350127 -0.006656026
0000e0 c9 30 6f bc b2 53 4c bc c7 07 8d 3a 41 01 94 3c
       -0.014599034 -0.012471126 0.0010759764 0.018067004
0000f0 dd ea d8 3c 85 e8 1a 3d f1 01 28 bd 3c fd 16 3d
       0.026479179 0.037819404 -0.041017476 0.036862597

main.3.running_mean f4 [64]
000000 0a 77 3b 3b ab 79 b1 ba 5a 3f 21 bb ce c6 8f bb
       0.0028604888 -0.0013540288 -0.002460441 -0.004387713
000010 ba f9 74 ba 27 72 23 bc ae 0f 34 bc f8 8e 3e 3a
       -0.00093450735 -0.0099759465 -0.010990066 0.0007269229
000020 d0 e8 e9 3b 0e d2 1c ba 35 22 c3 b9 d2 e4 14 bc
       0.007138349 -0.00059822283 -0.00037218785 -0.009087758
000030 51 57 35 3a 9b d9 69 ba b9 5d a1 bc 21 8d b2 bb
       0.0006917613 -0.00089206704 -0.01969801 -0.005448953
000040 46 06 d7 3a 2b 43 21 bc bc d2 74 ba 1c 72 1d ba
       0.0016405068 -0.009842674 -0.0009339263 -0.00060060783
000050 77 cf ed ba 30 65 c4 3b 1c e4 f4 3b 08 85 b4 bb
       -0.0018143494 0.005993508 0.007473482 -0.0055090226
000060 bf b1 85 3b 02 95 05 bb 0d ec ee 3a 8b d5 41 3c
       0.004080027 -0.0020383005 0.0018228308 0.011830698
000070 b6 f8 f1 bb d1 83 3f bb b6 58 01 bc 0d ce 69 3a
       -0.007384385 -0.0029222856 -0.0078946855 0.00089189486
000080 c1 37 a5 b9 f6 cd 07 bc d7 1f a5 b8 46 45 e1 bb
       -0.00031512792 -0.008288851 -7.873744e-05 -0.006874713
000090 d3 78 90 3c 40 89 f4 ba 7b 90 41 3c f2 40 a4 ba
       0.017635738 -0.0018656626 0.011814232 -0.0012531562
0000a0 8f 6e a2 ba ae 1b a3 3c fc c2 d8 3b 3e 65 df bb
       -0.0012392568 0.01991066 0.006615041 -0.006817489
0000b0 08 d6 b4 b8 0a 0e 81 3b 54 47 86 bc ff d4 79 ba
       -8.622935e-05 0.003938441 -0.016391434 -0.0009530335
0000c0 62 e1 b8 bb 38 b7 ce bb 55 58 39 ba 42 bd 5c 3c
       -0.005642102 -0.0063084625 -0.00070703524 0.013472857
0000d0 d7 99 c4 3a 8f 9d 98 bc e2 a4 7a bc 8e 0e de b9
       0.0014999461 -0.018629817 -0.0152981 -0.00042353984
0000e0 bd 68 83 bb 24 db 07 bb 69 90 f4 bb b5 f5 9a ba
       -0.0040102885 -0.0020729983 -0.007463504 -0.0011822494
0000f0 43 01 89 b9 9a fb d5 b9 1a f5 93 bb fa dd aa 39
       -0.00026131616 -0.00040813984 -0.0045153024 0.00032590312

main.3.running_var f4 [64]
000000 30 22 a1 37 51 81 0e 38 f0 77 2d 38 e1 46 18 39
       1.9208615e-05 3.3975874e-05 4.1358115e-05 0.00014522254
000010 00 93 4c 38 15 95 8b 38 13 26 a5 38 73 61 86 38
       4.8774295e-05 6.655805e-05 7.874905e-05 6.407769e-05
000020 58 07 87 38 c5 a5 4e 38 5e d6 80 37 06 e9 26 39
       6.4386695e-05 4.9268612e-05 1.5358612e-05 0.00015917802
000030 6d af 4a 38 2a 46 c5 37 e4 88 fc 38 1e f9 e9 38
       4.832393e-05 2.3516903e-05 0.00012041794 0.000111567075
000040 44 41 2b 38 cd d7 47 39 58 22 b5 37 80 f8 83 37
       4.083036e-05 0.00019058511 2.1592874e-05 1.5732134e-05
000050 2a e7 cd 37 41 41 0c 39 b0 18 01 38 8f ef cb 38
       2.4545549e-05 0.0001337575 3.077899e-05 9.7244156e-05
000060 79 b1 8f 38 b7 83 88 37 83 14 00 39 1e 34 b6 38
       6.851828e-05 1.6273798e-05 0.00012214672 8.688144e-05
000070 91 ce 43 38 75 d3 d2 37 ae f8 25 38 4d 78 a5 37
       4.6684003e-05 2.5132418e-05 3.9570667e-05 1.9725552e-05
000080 5c b3 60 39 7b 35 0f 39 ed b7 c4 38 56 5e 35 39
       0.00021429121 0.00013657466 9.380267e-05 0.00017296648
000090 0b f5 08 39 63 d3 cc 37 c0 66 b9 38 28 4c 06 38
       0.00013061256 2.441713e-05 8.840626e-05 3.2019016e-05
0000a0 c2 b4 99 37 07 00 c8 38 a3 c0 3c 38 b4 a6 1b 38
       1.8323193e-05 9.536748e-05 4.50021e-05 3.7110134e-05
0000b0 d1 54 ae 37 94 84 37 39 a4 43 88 38 8c 3e 96 37
       2.0781912e-05 0.00017501629 6.4975844e-05 1.791052e-05
0000c0 05 b8 dc 38 2c 19 72 38 04 32 4a 37 d3 b5 15 39
       0.00010524694 5.772074e-05 1.2051783e-05 0.00014277482
0000d0 e2 be f3 37 f3 d6 eb 38 b8 a9 0c 39 c9 4f d0 37
       2.9056744e-05 0.000112457106 0.00013414666 2.4832685e-05
0000e0 cd aa c8 38 a7 5d 95 37 08 50 ec 38 80 81 88 37
       9.568557e-05 1.7805794e-05 0.00011268264 1.6272767e-05
0000f0 3a 9e 85 37 12 21 5a 37 99 0b 36 38 6d d5 69 37
       1.5928515e-05 1.3001512e-05 4.3402983e-05 1.3937574e-05

main.5.weight f4 [128, 64, 4, 4]
000000 90 a5 2e 3c 3f 22 af 3b 77 0f 8e 3c 81 6a 39 3d
       0.01065959 0.0053446586 0.017341359 0.045267586
000010 42 a5 62 3c ca 1a ff 3c 52 d0 a0 3c 1c 27 81 3b
       0.013833346 0.031140704 0.019630585 0.00394143
000020 b0 51 1c bc 3e 75 38 3c 89 c7 50 bc 52 66 80 bc
       -0.00954096 0.0112584215 -0.012742885 -0.01567379
000030 1b 93 82 3d dc b7 d5 bc 3c de 97 ba 1d 6f 30 bb
       0.063757144 -0.026088648 -0.0011586617 -0.0026921697
000040 67 fd 69 bc 66 b9 1b 3c 73 da 19 bd a9 fb 45 bc
       -0.014281607 0.009504652 -0.037561845 -0.012083926
000050 06 c8 12 3d 03 a2 3f 3c 65 58 33 bb 3f 7e 54 bc
       0.03583529 0.011696341 -0.002736592 -0.012969553
000060 62 f8 23 3c 80 96 2b 3c f7 0b a5 b8 0e b4 15 3c
       0.01000795 0.010472894 -7.870042e-05 0.009137167
000070 55 a2 8e 3c 3b ef a4 bc e4 75 05 3c 6b 7b e4 bc
       0.01741139 -0.020133605 0.008145783 -0.027890882
000080 38 9c 09 3d 56 77 36 bd 7e 10 cd bc db 9c c1 3c
       0.033596247 -0.0445474 -0.025032278 0.023634365
000090 87 e2 a7 ba 8b c9 59 bb 40 78 14 3b 6e e7 9a 3c
       -0.0012808599 -0.0033231701 0.0022654682 0.018909182
0000a0 c1 0e 8c bc f9 ad 12 bd 8e e9 7a bc 67 35 99 bb
       -0.017096879 -0.035810445 -0.015314473 -0.0046755555
0000b0 e2 7a 91 bc f8 43 2a bd 19 a6 ac bc d2 67 82 3c
       -0.01775879 -0.041568726 -0.021075295 0.015918646
0000c0 9c 74 cd bb 84 0f 3b bc ff 28 30 39 54 06 91 3c
       -0.0062700044 -0.011417273 0.0001679994 0.017703213
0000d0 c0 e8 23 3d 09 1c 95 39 c6 c2 dd bc da 3b 76 3c
       0.04001689 0.00028440382 -0.027070414 0.015028918
0000e0 ee b9 64 bc ad bb 39 3d d7 bf 59 3c 96 38 2a bc
       -0.013960345 0.045344997 0.013290367 -0.010389468
0000f0 13 13 88 bc 35 64 05 3c a9 8f 01 ba 8e 00 6a bc
       -0.016610658 0.008141567 -0.00049423665 -0.014282359
000100 f5 48 c6 bc 2f 69 14 3d 19 6b c2 3c 2c 5d 3f 3b
       -0.02420471 0.036233123 0.023732709 0.0029199822
000110 13 97 1a 3c b3 ef 2e 3c c5 7a f1 ba 38 19 3c 3c
       0.009435433 0.010677266 -0.0018423429 0.011480622
000120 86 7e dc 3c b6 d5 9e 3c f5 f3 14 3c b6 0e cf bb
       0.0269158 0.019389015 0.009091367 -0.0063188924
000130 52 1c dd 3c 3a 25 50 bc 51 09 33 3c b1 89 e0 bb
       0.026991043 -0.012704188 0.010927514 -0.0068523516
000140 66 50 82 bc a6 c8 a5 3c 0a b1 42 3b f4 c0 2a bc
       -0.015907478 0.020237278 0.0029707574 -0.01042198
000150 6b 9a de ba 52 2c f1 39 23 17 3f 3c 6e 91 03 ba
       -0.0016983276 0.00046000123 0.011663231 -0.0005018924
000160 34 ff be 3c 44 4f a4 3b 1a 8e 86 bc d7 08 7e 3c
       0.02331505 0.005014332 -0.016425181 0.015505037
000170 2d 93 b3 3c 78 a3 ce bc 11 a8 18 bd 3b 31 5c bc
       0.021920765 -0.025224432 -0.037269656 -0.013439472
000180 69 fb c3 3c 98 b2 28 ba 46 89 07 3d 6c 78 3d 3d
       0.023923593 -0.0006435304 0.0330899 0.04625742
000190 f6 c3 da 39 16 1a b6 3c 1a 6f 6a 3c ea d5 01 bc
       0.00041726202 0.022229236 0.014308715 -0.007924536
0001a0 e6 ff b3 bb e5 e8 86 3c a2 ab f1 3c ba 77 20 3d
       -0.005493152 0.016468475 0.029500786 0.03917668
0001b0 25 d7 06 3d d3 97 45 3c eb 46 88 3a ef af 63 3b
       0.03292002 0.0120601235 0.0010397112 0.0034742316
0001c0 bf 84 f2 3c 9c 1d 37 bb 0f 7a 11 3d 96 4d 57 3c
       0.029604314 -0.0027941233 0.035516795 0.0131410565
0001d0 3b 52 af bb 25 03 52 3c 6f a6 45 3d ac 27 5a 3c
       -0.005350379 0.0128181325 0.048254427 0.013315123
0001e0 c1 fd c9 3c 84 0f a0 bb 7f 10 e6 3c bc 17 46 bc
       0.024657132 -0.004884662 0.028084038 -0.01209062
0001f0 22 41 86 3a f2 45 92 bc a1 71 eb bb c4 d8 85 bc
       0.00102428 -0.017855618 -0.0071851765 -0.016338713
000200 70 18 67 bc 2c aa d1 bc 84 9c f0 b9 71 1a 4e bc
       -0.014104947 -0.02559384 -0.0004589298 -0.012579546
000210 6d 79 24 bc 55 2d 9d bc 3c 9b 02 bd e0 dd c1 bc
       -0.010038716 -0.019186655 -0.031886324 -0.023665369
000220 a6 3e 0b 3d 30 dd 4c bc 4b 1e ea bc 32 71 41 3d
       0.033995293 -0.012503907 -0.028578898 0.047227092
000230 32 ab 58 bd 04 d6 14 bd 17 63 88 bc 8e de d8 38
       -0.05289764 -0.036336914 -0.016648812 0.00010341137
000240 4f 3f 21 3c 4b 9f 7d ba 61 a3 43 bc a4 a6 96 3c
       0.009841754 -0.00096749206 -0.011940808 0.018390007
000250 2b 6a b8 3c 96 c9 68 ba d2 db 29 3d d5 ef 27 bd
       0.022511562 -0.00088801363 0.041469403 -0.041000206
000260 ad 02 e2 3c 46 5e 6c bb f1 07 25 3d 0b ac 31 3b
       0.027589167 -0.0036066934 0.040290777 0.0027110602
000270 02 a4 d8 bb e2 21 96 bb da df 09 3c e3 8e b3 bc
       -0.006611348 -0.004581676 0.008415187 -0.02191872
000280 21 f4 40 3c 0d bb 19 bc 94 ce a8 bd 24 55 09 bd
       0.011776955 -0.009382975 -0.08242527 -0.033528462
000290 ec 58 ff bc a5 4d 13 bd 49 2c 3e bd 79 51 5d bb
       -0.031170331 -0.03596272 -0.046428952 -0.0033770485
0002a0 c4 39 13 bc 77 b6 83 bd 55 7f 2b bc 1f 77 35 ba
       -0.00898594 -0.06431287 -0.01046737 -0.00069223525
0002b0 85 f6 2f bc 40 fb 91 bc 67 29 7f bd 35 27 21 bd
       -0.010739927 -0.01782 -0.062295344 -0.03934403
0002c0 18 6a 99 bc d9 99 c2 bb 32 c8 ba bc c4 59 ca bc
       -0.018727347 -0.00593875 -0.022800539 -0.024701007
0002d0 14 0a 8f 3c 40 75 b3 3c f7 45 44 bc 43 fb 9a 3b
       0.01746086 0.021906495 -0.011979572 0.0047296598
0002e0 3e 75 0b bd b5 3e fb bc d9 4f 0a 3d 1c 76 9b 3a
       -0.034047358 -0.03066955 0.033767555 0.0011860761
0002f0 94 f9 c5 3b 0d 09 1b bc 42 bb ad 3c 0f f4 e0 3c
       0.006041715 -0.009462607 0.021207456 0.027460126
000300 95 8c 98 bc f2 0b 6b 3c 70 36 fc ba e9 0c 97 3c
       -0.018621722 0.01434611 -0.0019242298 0.018438773
000310 8f db 34 3d 84 d2 b7 bb ed 5d 51 3c 32 4a 08 3d
       0.0441547 -0.005609812 0.012778741 0.033273883
000320 ad 2e e0 3c fb ee 95 bc e8 f7 8d bc 9c d5 7d 3b
       0.027366007 -0.018302431 -0.017330125 0.0038732057
000330 73 fa d8 3c 92 7f a6 bc d6 a3 57 3c b8 1f 1b 3c
       0.026486611 -0.020324502 0.01316162 0.009468012
000340 ed 89 0a 3d 6a e8 71 3c dc 07 a9 3b e7 07 ec bc
       0.033822943 0.0147648845 0.0051584076 -0.028812362
000350 f8 47 06 3c 51 9c d8 3c 36 6f 73 3c f6 9f 25 bd
       0.00819587 0.026441725 0.014858058 -0.040435754
000360 73 af 06 bc bf a4 2b 3d eb 0a 83 3c 04 0b ee bb
       -0.008220541 0.04190516 0.015996417 -0.0072644968
000370 38 b2 1d 3a 3b 20 58 bc 79 61 4e bc 09 68 94 bb
       0.00060156314 -0.013191278 -0.0125964815 -0.0045290035
000380 17 7b 57 bd 6a 7d 42 3c bb 8e 92 bc 10 3d db bb
       -0.052607622 0.011870721 -0.017890325 -0.006690629
000390 27 9b a7 ba fb 81 01 bd e9 42 05 3c ac 15 00 bd
       -0.0012787328 -0.0316181 0.008133628 -0.031270668
0003a0 06 59 df 3a 7f 2f 92 3a d7 3d a8 3c 68 b5 df 3c
       0.0017040081 0.0011153071 0.0205373 0.02730818
0003b0 54 42 1e 3c 23 4a fd bc 35 5c 82 bc 2d f9 45 bc
       0.009659369 -0.03091914 -0.015913108 -0.012083334
0003c0 f8 22 2d 3d 85 22 af 3b 79 56 e2 bb 8c 80 dd 3c
       0.042269677 0.005344691 -0.006907281 0.027038835
0003d0 2b 38 a1 bc 77 2c ff 3c 63 08 82 3b 21 e7 ea bb
       -0.019680103 0.031149132 0.003968285 -0.007168666
0003e0 31 81 1e 3d 17 57 df 3b 7a 10 c9 bc 66 9f c7 ba
       0.038697425 0.006815802 -0.02454399 -0.001523
0003f0 d2 83 e2 3b 46 e4 6c bc 9a 8f 4b bd e8 fd b9 3c
       0.006912687 -0.0144587215 -0.049697496 0.02270408

main.6.weight f4 [128]
000000 a5 76 8d 3f 34 54 93 3f 2d 02 94 3f 52 12 8c 3f
       1.1051832 1.1510072 1.1563164 1.0943091
000010 1d d8 88 3f fc 01 8d 3f 88 d2 95 3f c8 94 8a 3f
       1.0690953 1.101623 1.1704874 1.0826654
000020 cb 6f 94 3f 39 bf 94 3f d7 8e 89 3f f4 0c 8e 3f
       1.1596617 1.1620857 1.0746716 1.1097703
000030 0e b5 93 3f b0 3b 8e 3f a8 3b 93 3f d0 b9 8d 3f
       1.1539629 1.1111965 1.1502581 1.107233
000040 ad 53 92 3f 3c 65 92 3f ef 35 8a 3f 4c ea 91 3f
       1.1431786 1.1437144 1.0797709 1.1399627
000050 c5 c1 94 3f 29 ad 93 3f 31 b1 90 3f 0c 14 8f 3f
       1.1621634 1.1537219 1.1304075 1.1177993
000060 bf 23 9c 3f b3 9b 91 3f 42 7c 95 3f 04 62 93 3f
       1.2198409 1.1375641 1.1678545 1.1514287
000070 70 d0 98 3f 7c a5 90 3f 85 c6 98 3f ce 37 8d 3f
       1.193861 1.1300502 1.1935583 1.1032655
000080 71 fd 8c 3f f7 5f 89 3f c0 0d 91 3f 44 2a 90 3f
       1.1014844 1.0732411 1.1332321 1.1262898
000090 03 9a 8b 3f 61 fa 8c 3f ae 36 8a 3f b7 d0 88 3f
       1.0906376 1.101391 1.0797937 1.0688695
0000a0 50 8d 94 3f 45 a7 8b 3f 66 56 8e 3f d9 05 89 3f
       1.1605625 1.0910422 1.1120117 1.070491
0000b0 80 83 90 3f 65 ce 89 3f 85 d0 8f 3f 72 7e 8e 3f
       1.1290131 1.0766112 1.123551 1.1132338
0000c0 c6 ee 8a 3f 99 69 96 3f 5d 1e 93 3f f5 20 8d 3f
       1.0854118 1.1750976 1.1493641 1.1025683
0000d0 fc 46 90 3f 55 89 92 3f 4a 6d 8e 3f 12 ee 88 3f
       1.1271663 1.144816 1.1127102 1.0697653
0000e0 3a b5 8b 3f 03 04 8b 3f 3a b0 96 3f c0 b0 92 3f
       1.0914681 1.0860599 1.177253 1.146019
0000f0 8c be 91 3f 5b c4 95 3f 0a 14 8f 3f 2e a2 90 3f
       1.1386275 1.1700548 1.117799 1.1299493
000100 a9 aa 8d 3f 54 04 a4 3f ea 6c 92 3f 71 ee 94 3f
       1.1067706 1.2813821 1.1439488 1.1635267
000110 b8 a8 8c 3f 10 d4 8f 3f 70 72 8f 3f f8 2a 8b 3f
       1.0988989 1.1236591 1.1206799 1.0872488
000120 cb c1 95 3f 75 66 91 3f e3 4e 8f 3f 6f 89 87 3f
       1.1699766 1.1359392 1.1195949 1.0588816
000130 96 e3 89 3f 38 a1 88 3f 81 4a 96 3f 31 d9 8d 3f
       1.0772579 1.06742 1.1741487 1.1081907
000140 f4 85 91 3f 3a 6f 9f 3f 6b 76 89 3f 0b 38 8c 3f
       1.1369004 1.2455819 1.0739263 1.0954603
000150 6b ad 91 3f 9d 88 93 3f 45 b2 9d 3f b0 b6 92 3f
       1.1381048 1.1526066 1.2320029 1.1462002
000160 1f f9 8d 3f 4f ca 9c 3f 0c 8f 8e 3f 84 b2 96 3f
       1.1091651 1.224924 1.1137404 1.1773229
000170 61 3d 94 3f df ba 97 3f 81 05 95 3f 03 4d a7 3f
       1.1581231 1.1853904 1.1642305 1.3070377
000180 47 e8 88 3f f8 2d 8a 3f d2 67 a1 3f 81 a7 96 3f
       1.0695885 1.0795279 1.2609808 1.1769868
000190 ba 01 8c 3f 63 f1 8a 3f c7 a2 8c 3f 59 3c 9d 3f
       1.0938027 1.0854915 1.0987176 1.2284042
0001a0 23 6e 8b 3f 0a 58 8d 3f 56 da 98 3f 43 11 8d 3f
       1.0892986 1.1042492 1.1941631 1.1020893
0001b0 35 4a 91 3f a5 db 94 3f 2b 45 90 3f f4 c6 93 3f
       1.1350771 1.162953 1.1271108 1.1545091
0001c0 38 15 8b 3f d1 b4 8e 3f e1 3b 8c 3f 3f a7 90 3f
       1.086585 1.1148931 1.0955774 1.130104
0001d0 f1 90 85 3f 57 bc 94 3f 74 e7 90 3f aa 5f 8a 3f
       1.0434858 1.1619977 1.1320634 1.0810444
0001e0 42 61 95 3f 92 40 8b 3f fe 7b 8e 3f b8 ed 90 3f
       1.1670306 1.087908 1.113159 1.1322546
0001f0 7e 54 8f 3f 60 a3 9a 3f fb 67 8e 3f ec 01 8d 3f
       1.119766 1.2081108 1.1125482 1.1016212

main.6.bias f4 [128]
000000 d0 e3 9e bc 0f 2a 1e bd 23 61 1a 3d 1b 2a c2 3d
       -0.019395739 -0.03861433 0.037690293 0.09480687
000010 c1 7d 32 3b 25 d7 bd 3c a6 fa 6d 3d 57 0c e7 bb
       0.00272356 0.023173878 0.058100365 -0.0070510316
000020 c0 1e 8c bd d0 5e a1 3c e2 82 a1 3a c9 a5 d8 3c
       -0.068418026 0.01969853 0.0012322331 0.02644624
000030 e6 e0 af bb a2 12 56 3d c2 74 9b 3d 65 4c 13 3d
       -0.005367386 0.052263863 0.07590629 0.035961527
000040 bd 19 05 3c ef b1 b7 3c b2 7a 64 3b e2 99 cd 3d
       0.008123812 0.022423713 0.0034863171 0.100391164
000050 73 aa 57 bc 40 26 84 3d a4 de aa 3c 1b 75 48 bb
       -0.013163197 0.06452608 0.020858116 -0.0030587378
000060 8f c2 b0 3d c3 e9 85 bb 72 be a1 3b 9c 1f 12 3d
       0.08630859 -0.0040867045 0.004936033 0.035674676
000070 5c 97 b0 bc 3e 2f 3c 3d 8b 5a 87 bc b5 28 49 3d
       -0.021556549 0.04594349 -0.016522666 0.049111087
000080 ec 50 af 3c 3f c2 53 bc 64 ef ff bc 0f 32 d6 3a
       0.021400891 -0.01292473 -0.03124208 0.0016341823
000090 d3 10 b2 39 9a 67 d4 ba 1b ce 58 3c 32 d2 88 3b
       0.0003396334 -0.0016205192 0.013232733 0.004175448
0000a0 f1 c5 fa bc b4 cb 44 bc 57 fd b4 bb 88 bc 65 bc
       -0.030611964 -0.012011457 -0.0055233645 -0.014022
0000b0 ff ae 17 3e 88 ed 8a 3c 49 c5 7e 3d 50 21 44 3c
       0.1481285 0.016958967 0.062199865 0.011970833
0000c0 16 c7 8c 3c eb d8 ee 3d db 87 b5 3d 28 ee 9b 3d
       0.017184775 0.116624676 0.08863803 0.07613784
0000d0 9e 2d 86 3d 64 18 54 3d 51 a7 09 3d 69 c1 9f 3c
       0.065516695 0.051781073 0.03360683 0.019501405
0000e0 90 d9 9b ba a5 58 56 bb bc b5 d9 3c 39 de ca 3c
       -0.00118904 -0.0032706645 0.026575916 0.024764167
0000f0 27 fd ef ba f2 b3 2c 3d 61 15 42 3d 78 8f 2c 3d
       -0.0018309698 0.042163797 0.04738367 0.04212901
000100 d8 4c a8 3d 05 4f 5b 3a 5c 14 a3 3c 0a c2 dc ba
       0.08217782 0.0008365962 0.019907169 -0.0016842496
000110 81 63 5b 3c 02 44 c9 3d e4 bb 9e 3c ba 00 5f 3c
       0.013390423 0.098274246 0.019376703 0.013611013
000120 f3 b3 ad 3c a5 64 e0 3d d3 51 0b 3d df 61 f2 3d
       0.02120397 0.109566964 0.03401358 0.11835074
000130 0e 6e aa 3c cb dc d9 3c 4c de b4 3d 53 d7 f1 3c
       0.020804431 0.02659454 0.08831462 0.02952162
000140 38 32 1b 3b 39 91 2b 3c 12 14 c1 3b b6 30 96 3a
       0.0023681056 0.0104716355 0.005892285 0.0011458609
000150 5c 6f 80 3d 2a 11 50 bb 2a 1c e7 3b 7d 40 6e 3d
       0.0627124 -0.0031748512 0.007052918 0.05816697
000160 f2 ef e1 bb 64 53 7b 3d ca 2c 78 3a 36 de e6 3b
       -0.006895059 0.061358824 0.00094671233 0.0070455326
000170 a7 5b 23 bc 93 b4 af bc ea 87 6a 3c 6a 86 23 bd
       -0.009970582 -0.02144841 0.014314631 -0.03992311
000180 5d 55 7d 3b 87 63 a8 3d 17 cf 1d 3d c4 30 c9 3c
       0.0038655617 0.08222108 0.038527574 0.024559386
000190 d9 8a 2c 3d 25 85 2f bc 99 1f 71 3c 1d a5 f8 3c
       0.042124603 -0.0107128965 0.014717006 0.03035217
0001a0 d0 ec 39 3d ab 76 d6 3c bc e6 8b 3c 89 52 32 3d
       0.045391858 0.026179632 0.017077796 0.043535743
0001b0 67 85 32 bc e6 07 69 bc 4d fd 79 3d 67 c1 32 3e
       -0.010896063 -0.014223075 0.061032582 0.1745659
0001c0 a7 f2 07 3d bd fb ae 3d a2 13 ee 3c bd b7 85 3c
       0.033190396 0.08544109 0.029062096 0.016322965
0001d0 69 16 16 3b 87 11 cd 3c c1 5d 23 3c cd 29 43 3b
       0.002290154 0.025032772 0.009971083 0.0029779554
0001e0 9d 82 89 3c 53 ca 03 3d fa b5 38 37 77 89 b3 bb
       0.016785914 0.032175373 1.1009624e-05 -0.0054790336
0001f0 03 b5 4c 3d c6 f5 be bb 68 e3 11 3a ac 67 63 bb
       0.049977314 -0.0058276383 0.0005565197 -0.0034699244

main.6.running_mean f4 [128]
000000 32 09 82 bd 59 5a 8a 3d f1 be 1f 3e 97 54 02 bd
       -0.0634941 0.06755514 0.15600182 -0.031818952
000010 a3 8c c2 bd ae d9 6a 3d 98 97 30 bf 6e 42 5e 3e
       -0.094994806 0.0573365 -0.68981314 0.21705028
000020 c4 1d 69 3e 7e ba c7 3d 05 88 9a bd b9 f4 64 be
       0.22765261 0.097523674 -0.07545475 -0.2235898
000030 79 6d 14 be 3e b7 6d 3d 2d 3d 4f bd ac 88 e1 bd
       -0.14494886 0.05803608 -0.05059545 -0.11012396
000040 29 27 80 be f4 9e fa bd b8 9f d4 bd 42 c9 85 bf
       -0.25029877 -0.12237349 -0.103820264 -1.0452044
000050 5c f3 5b 3e 24 8d 06 bf aa 41 d3 3e 72 6c 27 be
       0.21479553 -0.52559114 0.41261035 -0.16349962
000060 97 69 fd 3a be 0b 95 bd bf 6c c3 3e 80 77 0b 3f
       0.0019333836 -0.0727763 0.38168904 0.5447922
000070 c0 c1 a3 3e 76 25 52 3e 58 76 9d 3d b3 d3 bf 3d
       0.31983757 0.20522103 0.07688588 0.0936655
000080 55 61 48 bf 9b a2 a1 3e 81 a4 ac 3e 11 cd 11 be
       -0.78273517 0.3156937 0.33719257 -0.14238383
000090 3b 25 0b 3d 2b 31 5e bd 73 8b 19 bf 14 fd 95 be
       0.033971053 -0.05424611 -0.5997841 -0.29294646
0000a0 85 f4 fa 3d 00 d0 da bc 0c 62 e8 3b d2 cd 0c bf
       0.1225367 -0.02671051 0.007091766 -0.55001557
0000b0 8a 82 e2 be 55 12 37 3e ad 52 1c bf ae f7 16 3c
       -0.44240218 0.17878087 -0.61063653 0.009214325
0000c0 e2 03 61 3d 27 08 10 3b 83 62 0e be 3d bb 86 3c
       0.054935344 0.0021977515 -0.13904767 0.016446704
0000d0 8d 96 74 3d 89 82 67 bf 08 96 8d be 5c de 5b 3d
       0.05971389 -0.90433556 -0.27653527 0.053678855
0000e0 9b 76 24 3f 24 f2 a0 be ab 7d 79 be b0 cd 26 3f
       0.6424348 -0.3143474 -0.24364345 0.65157604
0000f0 bb 5e 81 be bb b0 3e bf 71 92 52 be 30 d4 78 3e
       -0.25267586 -0.7448842 -0.20563675 0.24299693
000100 43 a1 89 3b 45 b0 ce 3d c9 c2 4f bf 46 1f 55 3c
       0.004200132 0.100922145 -0.81156594 0.013007944
000110 06 28 c7 bd e1 e0 f2 bd 65 dd b0 3d 8c 5c 79 3f
       -0.09724431 -0.118592985 0.08635978 0.9740684
000120 57 e0 56 3b c5 17 40 bd 57 07 9f 3e 16 9b 8c bd
       0.0032787526 -0.04689767 0.31060287 -0.06865518
000130 e3 e1 85 bd b7 21 4c 3c 56 b3 62 be 5b 42 b4 3e
       -0.06537225 0.01245921 -0.22138724 0.35206875
000140 4a 82 49 3d ef da e9 3e ae 32 66 be 60 13 bb be
       0.04919652 0.45674846 -0.2248027 -0.3653822
000150 8b 8b a7 bc 71 d0 e6 bd 67 44 dc 3e 44 e5 89 bd
       -0.020452281 -0.11270226 0.43020937 -0.06733182
000160 ca 72 ea 3d 4b 92 c3 3e f8 ff 80 bc 05 6d 67 3c
       0.114476755 0.3819755 -0.015747055 0.014125113
000170 ef ad 60 be da 42 dd 3c 97 a7 90 be b4 f5 49 3e
       -0.2194135 0.027009416 -0.2825286 0.19722635
000180 00 32 17 be 76 9f 56 be 1c 70 9b bb 29 c8 33 be
       -0.14765167 -0.20959267 -0.004743589 -0.17556824
000190 58 dd 1b 3c 3b c9 1d ba a7 ab 04 3e 4d e8 14 3f
       0.009513222 -0.00060190604 0.12956105 0.5816696
0001a0 00 b4 07 3d c3 f0 cf 3e bb e9 27 3d 75 24 ae bd
       0.033130646 0.40613374 0.040994387 -0.085030474
0001b0 20 2e b4 bd 86 62 95 3e c4 16 0d be ec c9 0e bf
       -0.0879786 0.2917673 -0.13778216 -0.5577686
0001c0 09 06 96 3c 6d bc b0 be dd cd 15 3f 88 56 26 be
       0.018313425 -0.34518757 0.5851725 -0.16243947
0001d0 67 49 3d 3e e7 9c 27 3f bc 6b a8 3c 04 ac 39 be
       0.18485032 0.6547379 0.020559184 -0.18132025
0001e0 88 98 df bd 39 cd 89 bd 39 fb c7 be 49 f2 01 be
       -0.10917765 -0.06728596 -0.39058855 -0.1269008
0001f0 d7 d4 81 bd 8b b8 c6 3e ab 6e 01 3c 11 33 3b 3e
       -0.06339424 0.3881267 0.00789992 0.18281199

main.6.running_var f4 [128]
000000 0a 04 c5 3d be 82 87 3d d2 ed 9c 3d 62 33 51 3d
       0.09619911 0.06616734 0.07662548 0.051074393
000010 b4 4e 6e 3d 2f d6 4d 3d a7 24 01 3e 93 e4 9b 3d
       0.058180526 0.05025309 0.12611638 0.076119564
000020 3f f5 8d 3d c4 bf b8 3d 02 54 89 3d 88 68 bb 3d
       0.069315426 0.090209514 0.06705476 0.09150797
000030 19 49 8a 3d fc 1b 5d 3d 79 93 51 3d 25 6e 66 3d
       0.067522235 0.053981766 0.05116603 0.056257386
000040 97 30 86 3d 87 b3 8e 3d cb 3e 6f 3d d2 d2 f4 3d
       0.065522365 0.06967836 0.058409493 0.11954273
000050 81 e4 94 3d 7b b4 c5 3d 02 1d ae 3d 8c 14 4f 3d
       0.07270146 0.096535645 0.085016266 0.050556704
000060 5b 78 45 3d f1 d1 cf 3d 19 53 bc 3d 70 c5 d8 3d
       0.048210483 0.10147465 0.09195537 0.10584533
000070 ae 0b 8f 3d 57 6a 00 3e 75 0b 4e 3d 90 1c 66 3d
       0.069846496 0.12540565 0.050303895 0.056179583
000080 72 1b ff 3d 67 ad cb 3d 8d c4 d0 3d a6 9f 93 3d
       0.12456407 0.09945183 0.10193739 0.07208185
000090 2b 6e b2 3d b3 32 8f 3d 24 7e d5 3d 48 5e cd 3d
       0.08712419 0.06992092 0.1042445 0.10027748
0000a0 35 bb bb 3d 4e b4 9c 3d 32 91 b3 3d 51 60 a5 3d
       0.09166566 0.07651578 0.08767928 0.080750115
0000b0 3c 29 bd 3d 86 f5 4f 3d 08 c2 c0 3d b9 c4 70 3d
       0.092363805 0.05077126 0.094120085 0.05878136
0000c0 ed 34 5d 3d 2d 71 44 3d cd c9 ba 3d 47 f7 4d 3d
       0.054005552 0.047959495 0.09120522 0.05028465
0000d0 03 8f 67 3d f9 b2 f5 3d e9 b1 ed 3d da e0 56 3d
       0.05653287 0.11997027 0.11606199 0.05246053
0000e0 01 f7 ba 3d 42 51 e0 3d 74 27 d3 3d 3b 76 c8 3d
       0.091291435 0.10952999 0.103102595 0.09788176
0000f0 e9 72 7c 3d c6 79 e2 3d 0e 14 4f 3d c2 a4 c7 3d
       0.061633024 0.11058383 0.050556235 0.09748222
000100 77 5c 61 3d ca ca 89 3d 08 c1 c2 3d df ad a8 3d
       0.055019822 0.06728132 0.09509474 0.08236288
000110 c3 c1 50 3d 6c 05 59 3d 9b 05 6b 3d 20 6b d3 3d
       0.050966036 0.052983686 0.057378393 0.10323167
000120 cf e1 a1 3d 79 9e 7a 3d 65 b7 d2 3d 47 51 46 3d
       0.07904398 0.061186288 0.10288886 0.048417356
000130 91 31 5f 3d f8 81 68 3d 71 e6 f2 3d f8 a7 bd 3d
       0.05449063 0.056764573 0.118603595 0.09260553
000140 7b ba 7c 3d ca 48 d8 3d 3d 8a bb 3d 08 0a a0 3d
       0.06170128 0.105607584 0.09157226 0.07814413
000150 23 b6 48 3d 50 0c 57 3d a7 04 da 3d e9 5a 52 3d
       0.049001824 0.052501976 0.106454186 0.05135623
000160 b3 f1 a8 3d 50 17 d3 3d 87 9f bf 3d 7e 37 74 3d
       0.082492255 0.10307181 0.09356599 0.059623234
000170 6b a9 8a 3d 66 d2 8d 3d 81 c0 9e 3d b3 fd ab 3d
       0.06770595 0.06924896 0.07751561 0.08397999
000180 c2 ba a7 3d a9 93 06 3e 84 f3 5a 3d 7c 0d 5f 3d
       0.08189918 0.13142265 0.05345489 0.05445622
000190 cc 57 60 3d a3 0c d4 3d 4f 03 6f 3d b8 b9 af 3d
       0.05477123 0.10353973 0.058352765 0.08580345
0001a0 c7 da 5d 3d 36 a6 c1 3d 4b 7a f7 3d 23 93 6f 3d
       0.05416372 0.0945553 0.120838724 0.05848993
0001b0 58 96 b5 3d 13 67 97 3d 00 36 2c 3d 2f 22 f8 3d
       0.088665664 0.07392707 0.042043686 0.12115895
0001c0 8e 75 50 3d 1b a1 57 3d b1 82 d8 3d 22 9e 67 3d
       0.05089336 0.052643877 0.105718024 0.05654729
0001d0 a9 0c 89 3d 8d ca e8 3d b1 70 82 3d 13 28 ef 3d
       0.06691868 0.113667585 0.063691504 0.116775654
0001e0 92 8a 3e 3d 9c 5d ca 3d ba 03 be 3d 5f ba b0 3d
       0.04651887 0.09881136 0.092780545 0.086292975
0001f0 3c 63 56 3d 23 f0 a7 3d 64 36 75 3d be 4f c8 3d
       0.05234073 0.08200099 0.059866324 0.097808346

main.8.weight f4 [1, 128, 4, 4]
000000 5f 19 86 3c 69 78 bb 3d 6d 6f e8 bc c1 b6 30 bc
       0.01636952 0.09153826 -0.028373444 -0.010785759
000010 23 f8 3e bc e6 e1 39 bd 54 2f 40 bc ef 23 2f 3d
       -0.01165584 -0.04538145 -0.011730034 0.04275888
000020 21 c7 82 3d 18 07 fb bd 8a a7 b5 bc 69 fb d3 3c
       0.06385637 -0.122572124 -0.022174615 0.025876718
000030 95 3c 52 bd ec 77 e8 bc b6 d6 c1 bd 29 ec e7 3c
       -0.051327307 -0.028377496 -0.09464781 0.028310852
000040 76 28 89 3d 3a 7c 50 3d 12 30 a9 3d d2 f2 24 bd
       0.066971704 0.05089972 0.08261122 -0.040270634
000050 c7 4b 2c bb a8 58 aa bd 79 eb c2 bd 5f 75 3f 3d
       -0.0026290284 -0.08317691 -0.09517569 0.046742793
000060 25 c8 37 bd f0 26 69 bd 29 46 ce 3c ad 40 34 bc
       -0.044868607 -0.0569219 0.02517994 -0.011001748
000070 74 8a ce 3d 42 36 48 3d 59 b8 ee 3c dc be 6c bd
       0.100850016 0.04887987 0.029140638 -0.057799205
000080 dc 37 61 3d 0b 11 b8 bc 21 56 26 bc 1d df 58 3c
       0.054984912 -0.022469064 -0.010152371 0.013236788
000090 6e c0 81 bd 95 cd 8b bd 05 8c 12 bb b9 f3 bd bc
       -0.06335531 -0.06826321 -0.002236129 -0.023187505
0000a0 fe e3 b2 bc d6 f4 01 be db 59 03 be bc ff 85 bd
       -0.02183723 -0.12691054 -0.12827246 -0.06542918
0000b0 91 b9 18 3d 48 ee 84 3c 5e fe 56 3d c4 3a 52 3d
       0.037286345 0.016226903 0.052488677 0.051325575
0000c0 48 5b c4 bc 7c 33 62 3d 6e 78 90 3c 1f 53 c2 3d
       -0.023969308 0.05522488 0.01763555 0.0948851
0000d0 7c e2 b9 bc aa da fd bc 82 9c 5c be 7d 0a 37 bd
       -0.022691004 -0.030988056 -0.21544078 -0.044687737
0000e0 18 78 04 bd a3 07 10 be 3c 3a 11 be 35 6c b7 3c
       -0.032341093 -0.14065413 -0.14182371 0.022390464
0000f0 c7 b7 91 bd fd fb 45 3d b5 0f 60 3d aa 2a 4e 3d
       -0.07115131 0.048336018 0.05470248 0.050333656
000100 70 82 0e bd 72 84 8a bd 1a 13 72 bc bf d7 fb 3c
       -0.034792364 -0.06763543 -0.014775062 0.030742524
000110 06 bf 25 be fc bd 9e 3d a7 c4 cb 3d 34 06 24 3c
       -0.16186151 0.077510804 0.09949618 0.010011245
000120 4f 6c ae bb c6 85 86 3d af 93 15 bd ac 5e 54 3d
       -0.00532297 0.06568484 -0.036517795 0.0518481
000130 ab 70 3b bd 0c f0 04 3d 23 d5 3d 3d dd d6 21 3d
       -0.045761745 0.03245549 0.04634584 0.03951155
000140 f1 0c 04 3d bd c4 2b bd e2 13 d3 3d 40 57 13 3d
       0.032238904 -0.04193567 0.10306527 0.03597188
000150 81 2c a3 3c 5f ef d2 3c b7 1f 74 bd f6 8f 31 3d
       0.019918682 0.025748907 -0.059600558 0.043350182
000160 ce bc 57 3d 5c 88 37 3d e5 7b a0 3d 5c 5a 78 bd
       0.052670293 0.044807777 0.07836131 -0.06063305
000170 fd 57 b3 3b 63 3a 63 bd 59 87 aa 3b c1 70 50 bd
       0.0054731355 -0.055475604 0.005204123 -0.05088878
000180 c9 47 44 bd 08 03 15 bd df e8 31 bd 5f a6 6e bd
       -0.047920022 -0.036379844 -0.043434974 -0.058264133
000190 83 1a f4 3c a3 0c d0 3d eb 93 f6 3c 9a 36 a3 3d
       0.029797798 0.1015866 0.03009983 0.07969399
0001a0 f6 60 95 3c 89 0c 21 3e 1a 58 24 3e fc 7b 8d 3d
       0.018234711 0.15727438 0.16049233 0.06908414
0001b0 32 9a 57 3d a7 15 a4 3d 76 d8 2a 3c b1 3e 29 ba
       0.052637286 0.08011942 0.010427585 -0.000645618
0001c0 43 c4 b1 bd 55 44 d1 bd 02 63 28 bd e7 52 25 bc
       -0.08680012 -0.102181114 -0.041110046 -0.010090566
0001d0 0f 72 75 bd bc 60 23 bd 1d 1a 36 3d d9 02 8a bd
       -0.059923228 -0.039887175 0.044458497 -0.067388244
0001e0 e8 38 37 bd 1c f7 16 3d 34 8f 08 3d bd 6a b4 bc
       -0.044732004 0.036856756 0.033339694 -0.022023553
0001f0 25 f6 ca bd bc ff c1 3b 5d 8d 29 3d 4f 32 26 3d
       -0.099102296 0.0059203785 0.04139458 0.04057532
000200 ca 2b 3f 3d e5 13 da 3d 86 d8 6a 3d fb bc 77 3c
       0.04667262 0.10648326 0.0573354 0.01512074
000210 28 91 ca bc 8f 56 15 be d9 44 09 3e 97 db 24 3d
       -0.024727419 -0.145838 0.1340517 0.04024848
000220 20 91 c6 bc a6 ef 32 bd 5c a9 36 bd 2e b2 e7 bd
       -0.024239123 -0.043685578 -0.044595107 -0.11313282
000230 da f3 9e 3b 3c 99 a8 bc f2 8f ec bb 31 39 ac 3c
       0.0048508467 -0.02058088 -0.007219308 0.021023365
000240 16 ee 90 bd af 81 2c 3d 7f 04 af bc e1 28 ad 3d
       -0.07076661 0.042115863 -0.021364449 0.08455063
000250 84 82 39 3e df 63 f1 3d a6 d2 d4 3b cc b9 8a bd
       0.18116194 0.11786627 0.006494838 -0.06773719
000260 ca fa 92 3b 43 ee cf 3d 34 d8 11 bd ea 13 b6 3b
       0.004485463 0.10152867 -0.035606578 0.005556573
000270 94 b0 4c 3d 80 41 04 bd 85 48 0a 3b 22 05 e0 bc
       0.049973086 -0.03228903 0.0021100354 -0.027346198
000280 58 10 82 3d d1 ad cc 3c ae cb 9c 3d 09 d2 30 3d
       0.063507736 0.024985226 0.07656036 0.043169055
000290 9e 57 81 3d bb 6f 4c bb 47 08 9b 3c 2b 42 2b 3d
       0.0631554 -0.0031194526 0.018924845 0.04181115
0002a0 6f fd ab bd 12 01 2b bd 76 c3 17 3e d1 63 35 3c
       -0.08397948 -0.041749068 0.14820656 0.011071161
0002b0 91 69 8b 3d 82 a6 68 3a 03 8d 04 bb c0 71 4e bd
       0.068072446 0.0008874909 -0.002022565 -0.05040145
0002c0 94 73 85 bd 75 df 42 bd b0 58 13 bd a1 46 21 bd
       -0.065161854 -0.047576386 -0.03597325 -0.039373998
0002d0 35 54 f7 3d 4e 7d c7 3d f9 f7 1a 3e 78 2b 89 3c
       0.12076608 0.09740697 0.15133657 0.01674436
0002e0 7b f1 5d bd 73 19 61 3d 49 23 de bc 5b 26 b7 3d
       -0.05418537 0.05495591 -0.027116435 0.089428626
0002f0 b5 04 cc bc 5d 64 6c 3b 72 6b 59 bc 31 97 87 bb
       -0.024904588 0.0036070563 -0.013270246 -0.0041378965
000300 d9 ef ea bc a2 89 89 3d 1d 96 99 bc 17 1e 12 bd
       -0.028678821 0.067157045 -0.018748337 -0.035673227
000310 b9 db 6a bc 63 5a 5b 3d df 63 cc bd ce 8d 30 3d
       -0.0143346125 0.053552996 -0.099799864 0.043103985
000320 6a f0 61 3c 45 bf a9 bd a4 0e d5 3b b6 ba 22 bd
       0.013790229 -0.08288435 0.0065019894 -0.039728843
000330 d4 52 0e bd f3 43 76 bd 54 cc ed bd c2 cf 93 bc
       -0.03474696 -0.060123395 -0.11611238 -0.018043403
000340 e6 8d 3d 3d 68 56 74 3d 7d ed 5c 3d ee 8f 1c 3d
       0.046277903 0.059652716 0.053937424 0.0382232
000350 bf 68 06 bc 55 c9 8f 3d 48 42 48 bc 35 2e df bd
       -0.008203684 0.07020823 -0.012222834 -0.10897485
000360 b7 46 7a bd cf d3 df bd 94 cf 0f be 13 19 d0 bd
       -0.061102595 -0.10929071 -0.14044029 -0.101610325
000370 90 df 69 3d bc 3d 0c bd 57 a1 35 bd 8a 92 de 3b
       0.05709797 -0.034238562 -0.04434332 0.006792371
000380 18 3c d0 bb cf 0f 3a 3d cf 83 b6 3d 2b 02 75 3d
       -0.00635482 0.045425232 0.08911859 0.05981652
000390 bd 94 19 be 3b e9 70 be 0c 23 b6 bc 8c b1 0d be
       -0.14998145 -0.2352647 -0.022233509 -0.1383726
0003a0 7d d0 bc bc 77 d0 66 bc 2e 00 ba 3c 0e 49 44 bd
       -0.023048634 -0.014087788 0.022705164 -0.047921233
0003b0 69 11 97 3d cd 45 79 bd 3c d4 06 3d 5e 20 20 3d
       0.073763676 -0.060857583 0.032917246 0.039093368
0003c0 22 53 79 3d 44 b4 c6 3c 53 f8 05 3d 21 a1 d6 b9
       0.060870297 0.02425588 0.032707524 -0.0004093731
0003d0 41 df 86 3d b1 bc 36 3d 5b 91 9b 3d 99 05 d9 bd
       0.06585551 0.044613544 0.07596084 -0.10596771
0003e0 4b df 05 bb 88 4c fb bd df 1b 4e be b8 6a 0a be
       -0.0020427282 -0.122704566 -0.2012782 -0.13517272
0003f0 f5 19 53 3d e1 7d 27 bd 42 74 fb bb 82 c3 87 3c
       0.051538426 -0.04089153 -0.007673771 0.016572718
